cifar_net.pth (torch_old, 249462 bytes, 10 tensors)

conv1.weight f4 [6, 3, 5, 5]
00000000: 491b 05bf d0c5 87be e9f1 4cbe 5d9f 10be
00000010: 5d25 2dbe 88fb 6c3e b049 4d3e ac37 853e
00000020: 39fb 043f 693e 963e aba8 df3e 350e 163f
00000030: 5f76 2a3f d144 2e3f dc1e dc3e a6de 203e
00000040: 82a9 e93e afee 103f f40a 183f 617f 8b3e
00000050: c813 dcbd 2309 0f3d 94a7 3fbc 951f 9cbd
00000060: 8d3d 8cbe 7b1f 58bd 775c 953d fe3a cd3d
00000070: f0cf 37bc 592d 9bbd 4f90 96be e263 7cbd
00000080: 9e4b 44bd f71c 72be 1a8b e2be 456c 83be
00000090: eba5 6abe 427f 8abe 501f c6be 1a20 22bf
000000a0: 3486 a9bd 5d68 e7bd 2245 febd e63a 17be
000000b0: 142e 03bf e75d babd 0df8 233e e710 173d
000000c0: f6b3 b8bd 69d9 3bbe 1760 853e 7028 073f
000000d0: e9df 0a3f 8bbe b73e dd3b 7c3e 0a26 933d
000000e0: 9b73 553e a954 a83e 450a 283d 25aa 18be
000000f0: 078a a7be 2d25 40be 3232 02bc de9f f0bd
00000100: 00c2 0abf 9535 c2be 781d cfbd 659c 2cbd
00000110: b90b 8abd 47f8 cdbe 85eb 223b 26d8 483d
00000120: 908a 543e fc39 3d3e df7f 963d eec1 0fbd
00000130: 3f51 41bd ea77 edbd fdb7 a23d 681b 033f
00000140: 81ac adbc a84d 183d cf53 5d3c 481d 903d
00000150: fb9d 163e e1f3 0dbe 5fb8 08be 849b c5bd
00000160: f974 bc3c 98ae 883d 151c b5bd 8bef 8fbe
00000170: 204e 9ebe f938 c5bd de1c 1d3e 3664 7f3d
00000180: d90a 96be 1ec5 bbbe 9baa d7bd c67b d43d
00000190: 53c4 953d b481 ffbd 5431 a7be 8528 a0be
000001a0: b82c b53d a1ca 96bd 75f8 143d 937f 02bd
000001b0: d01c 29be f2e9 82be e8f4 7abe 285c bfbd
000001c0: 9b0c 1f3d 1b30 f83d 7105 84be 28a0 41be
000001d0: a031 7a3c 5c99 bc3d e6b2 343e 97b7 68bc
000001e0: b9b5 70be e554 00be 5777 b3bb 71f1 0b3d
000001f0: ec60 afbd 53a3 aebd 2213 7a3e ffde 92bd
00000200: eae7 9ebe 6d96 d8be 17b2 543d fc68 c43e
00000210: 7a57 bc3e 5d2a 553b ce74 efbe ba96 1a3e
00000220: 4ab7 063f a26f 203f 4ccf a63e f0fe 74be
00000230: c403 3c3e fff1 303f 8f90 493f b6b6 2e3f
00000240: 16ad 833d 71d1 883d 640c d63e 16e9 e43e
00000250: 23a3 b63e f018 f7bd 0436 e7be ea28 f83d
00000260: 88d8 783f c8ab d53e db5c f6bd 648f 723e
00000270: 43f6 8cbe d196 a2be 582f 22bf 1247 04be
00000280: eb45 f93d 2335 42bf 5af6 aebf 5b95 60bf
00000290: d1c1 8b3d 5814 3e3e 3f83 c93e f50e d23e
000002a0: 7e78 363f 14d4 983d 2cb7 e7bd eb9f 083f
000002b0: 8386 293f d395 e53e fa89 a5bd 3a68 c0be
000002c0: b495 ef3d 4bbb 7d3f 1712 f43e 61dc 0fbe
000002d0: 28e5 513e 239c bebd a7f4 9ebe 4944 12bf
000002e0: 9bc7 15be c8b2 3e3e 09d2 37bf bf24 96bf
000002f0: 2ddc 3abf 14b8 683e d20c f33d 95fd 193f
00000300: 1aef eb3e 0147 423f 40c6 da3d 3a8a d2be
00000310: 6180 bc3e 10d7 e73e 9985 1f3e 7322 4fbe
00000320: 8ca6 39be 0532 7b3d 85e2 213f a0eb f33e
00000330: ce86 cfbd 6ff5 923e 03ae 6dbd b2fa 173e
00000340: 8eac 98be 7d84 373c 66f8 6c3d a279 33bf
00000350: 69a0 85bf babf d6be 0fa6 ba3e c4bc fc3d
00000360: 1075 ac3e 6cce ab3d cade e43e 45d9 56bd
00000370: 3bf3 83be 8747 813d 435d 77bc 5ece 01bd
00000380: 4bad cdbe b22d 613e 9e50 1cbe f760 0a3d
00000390: 9116 b7be cf85 7a3e 2be6 c1be 1478 0fbe
000003a0: a08e 153f df70 83be ffd0 80bd 20eb 74bf
000003b0: 2132 67bc ae24 513f 6466 75be 2685 c5be
000003c0: 8b99 17bf f097 c83e cf9b 073f d6b2 4bbe
000003d0: 0b80 70be dbbb bb3c a12f 623e 5d24 253e
000003e0: 47c8 a1be 7f5c 473c 9c0a 393e 2751 b13d
000003f0: fec5 8f3e f14d 88be bfc4 453e 8874 48be
-0.5199476 -0.26518106 -0.20014156 -0.14123292 -0.16908784 0.23142827 0.20047641 0.26019037
0.51945835 0.2934449 0.4368337 0.5861543 0.6658687 0.68073756 0.42992294 0.15709934
0.45637137 0.566142 0.59391713 0.2724562 -0.107459605 0.034920823 -0.011697669 -0.07623211
-0.2739071 -0.052764397 0.07293027 0.100210175 -0.01121901 -0.07577009 -0.29406974 -0.061618693
-0.047923677 -0.23643862 -0.4424675 -0.2566854 -0.22914855 -0.27050215 -0.38695765 -0.63330233
-0.0827755 -0.112992026 -0.1241553 -0.14768562 -0.51242185 -0.09099942 0.16012593 0.036881354
-0.090187 -0.18344654 0.26049873 0.5279608 0.5424791 0.3588756 0.24632211 0.0718499
0.20844881 0.3287709 0.04102542 -0.14908655 -0.32722494 -0.18764181 -0.007946538 -0.11749242
-0.5420227 -0.37931505 -0.101130426 -0.042141337 -0.06740517 -0.40228483 0.002485962 0.04903426
0.20755982 0.1847915 0.07348608 -0.035097055 -0.047196623 -0.115951374 0.07945249 0.51213694
-0.02120042 0.037183434 0.013508751 0.07036835 0.14708702 -0.13862564 -0.13351582 -0.09648803
0.023004996 0.06673926 -0.08843247 -0.28112444 -0.3091898 -0.09630007 0.15343043 0.062351428
-0.2930515 -0.36673826 -0.10530587 0.103751704 0.073128365 -0.12475911 -0.32654822 -0.31280914
0.0884642 -0.07362867 0.03636976 -0.031859946 -0.16514897 -0.2556911 -0.24507487 -0.09343749
0.03883038 0.121185504 -0.257854 -0.18908751 0.015270621 0.092089385 0.1764637 -0.0142039275
-0.23506822 -0.12532385 -0.005476873 0.034165803 -0.08563408 -0.085272454 0.24421361 -0.071714394
-0.3103631 -0.42302266 0.051927652 0.38361347 0.3678549 0.0032526471 -0.46768802 0.1509656
0.52623427 0.6267034 0.3258003 -0.23925376 0.18360811 0.69119257 0.78736204 0.68247545
0.06429498 0.06680573 0.41806328 0.4470908 0.35671338 -0.12065303 -0.45158398 0.12117179
0.972054 0.4173262 -0.120294295 0.23687512 -0.27531633 -0.3175569 -0.6335349 -0.12917736
0.12171539 -0.7586233 -1.366893 -0.877279 0.06824077 0.18562448 0.39357945 0.41027036
0.71277606 0.07462326 -0.11314234 0.53369015 0.66220874 0.4484087 -0.080829576 -0.3757952
0.116984755 0.9911391 0.4767005 -0.14048912 0.20497572 -0.093071245 -0.3104603 -0.57135445
-0.14626925 0.18622887 -0.71804863 -1.1729964 -0.7299221 0.2272647 0.1186768 0.6015256
0.46080858 0.75889593 0.106823444 -0.41121083 0.36816695 0.45281267 0.15578307 -0.20227985
-0.18129939 0.061327 0.63236266 0.47640705 -0.10133134 0.28702876 -0.05802728 0.14841726
-0.2981915 0.011201021 0.05785408 -0.7010747 -1.0439578 -0.4194315 0.36454818 0.12340692
0.33683062 0.08388981 0.44701225 -0.052453298 -0.25771508 0.06312471 -0.015097919 -0.031690948
-0.40171275 0.21990088 -0.15265128 0.03378388 -0.35759404 0.24465106 -0.37870917 -0.1401065
0.58420753 -0.2567205 -0.06289863 -0.9567127 -0.014111073 0.81696594 -0.2396484 -0.38578147
-0.5921866 0.3917842 0.5297212 -0.19892439 -0.23486345 0.022916725 0.22088481 0.16127153
-0.31598112 0.012168049 0.18070453 0.08658057 0.28080744 -0.26621965 0.19313334 -0.19575703

conv1.bias f4 [6]
00000000: b884 85be 4aef 6f3e e495 d1be 1406 18be
00000010: 28d6 6abd 5b47 14bf
-0.2607782 0.23431125 -0.4093467 -0.14846069 -0.05733314 -0.5792138

conv2.weight f4 [16, 6, 5, 5]
00000000: 1e92 31be 88a3 0d3e 0987 a43e d895 87bd
00000010: 591e 94bd 420c a5be 0bcf eb3d 2553 bb3e
00000020: f304 edbd f106 82bd 629c 8abe f0ee d9bb
00000030: f718 da3e c806 6c3b 749f 85be bc1a 81be
00000040: f2f1 bc3d 56c0 c13e 9064 a73d 7a81 28be
00000050: 54f5 81be 35ee 44bc 190c 8d3d d18c c03d
00000060: fa5f c83a 96de 923e c1e0 f63e a2d2 db3d
00000070: 26c9 f8be c56e adbe 1e93 66be 03a1 bc3d
00000080: 78b0 8b3e 7ed1 6fbe b1b5 dfbe 529c 6dbe
00000090: e771 cd3c 245b ad3e f4b9 f43d 92e4 8fbe
000000a0: 9f9b 4cbe 0d67 883d fb42 813e 535d 4d3e
000000b0: a699 2abe eb39 60be 58c1 d83d dc02 9a3d
000000c0: 897e aa3c d3e9 3ebe fa89 10be a268 4e3e
000000d0: 1d85 c03e 1cf3 f13d 8d45 a6be 3724 b3be
000000e0: a8c4 a4be f4e0 8fbe 4884 dc3d 5146 fa39
000000f0: 16ec a0be a7d2 c4be c224 c0be b2ac 50be
00000100: 440e c9ba e6bd 7ebe 0fca 73be 57ae 5abe
00000110: a00d 9abe 5453 99bc d552 8a3e 66b9 433e
00000120: 364e 7e3d b9bf 25bc df74 bbbd 7560 073c
00000130: e234 823e 290d 813e 9031 acbe 475a 01be
00000140: c869 d538 c756 70bd 4908 833e 3ec3 a8be
00000150: 62f0 7ebe 8c5f 9bbd 5a45 b03d 20bd 5b3e
00000160: e131 3bbe fc6d 22be 1cf7 3abd ec57 0f3e
00000170: 80cb c03d cef7 c3bd bdcf 1a3d 2fc6 dd3d
00000180: 7be1 ad3e a403 9d3d 4669 ab3d caae babc
00000190: 872f 8d3d 9154 08bd 16e3 233b 682b bfbd
000001a0: a41a 143e 1bee 463e 7bcc 3a3e 705d 06bd
000001b0: b214 1fbd 8fa0 083e 5860 983c 333d 233c
000001c0: e0fa 5fbe b114 4cbe a16c 13bd c2a4 cdbb
000001d0: 7f1c 733c 0827 f2bd 21a2 93be 8ada 60be
000001e0: 8446 ff3d 938a e23d 6c9e bf3d 6a8f 5fbd
000001f0: adc0 9bbe 36f9 1abc 7b15 3bbe 2ae3 efbd
00000200: 64e3 4e3e 437a b73e 0eeb f63c 6da5 9cbe
00000210: 3e51 3fbe bd79 c93e 2167 803e 416b 8c3e
00000220: 1e94 85be de06 edbe c9f6 4e3e 27ac ea3e
00000230: 38d3 373d c463 86be 95a8 d2be dd4e 5bbe
00000240: acaa 853e 819f 53bc c868 3dbe 7da3 abbe
00000250: d307 70be ce95 0d3e 45e7 efbe 91f6 c9be
00000260: 1d0a 0ebf a27c 00bf 9703 b8be e6c5 7fbe
00000270: c1b4 77be a2f8 d73c c9b2 aa3e 89ac 773e
00000280: 39e1 f73d 62e5 c63e cc84 053f 3b2c 003f
00000290: 10d9 d13e f0f1 c23c 1bdc 173e 3f6d ae3d
000002a0: 60fd 953d ce07 61bd fb28 12be 7af6 b3bd
000002b0: b865 eebd 75dd 99bd 6abf 3dbe c348 19be
000002c0: bd3c 2abe 3216 0b3d e4cb 913e 5e51 c13e
000002d0: 103b 0dbe 89f7 103e 83a9 173c 51b7 c9bc
000002e0: 9f56 973d dac8 cf3c af9e 703d a64e 61be
000002f0: c8a6 2cbe ce9b f7bd a9af b63d 82de eebd
00000300: 6238 f1bd 524c 9abd 90c3 bf3d 671b 893d
00000310: 6d18 c6bd 643a 48be 5b38 8dbd 3171 cdbd
00000320: ef9d b5bc 54e9 0abd 1b66 273e 961b 803e
00000330: 8555 febd ce47 b93e 5093 0a3f f724 0b3f
00000340: 2f84 583e 9187 f93d bd11 643e 8ee4 2fbd
00000350: 2817 b8be 30d8 bfbe 4b0d 62be fe2a bcbe
00000360: acb3 35bf 7911 15bf 3ec1 eabe 2cd4 b8be
00000370: e91e b1be aced 3bbe a8bb a6bd 03d1 44be
00000380: 5318 bbbd 890b f33d cb2f 01bd dd46 8a3e
00000390: 065d b03e 2106 de3e 235f 95be 9a23 93bd
000003a0: 1e25 b4bc aafe f2bd 0173 3bbe 9b91 793d
000003b0: 9505 83bc 06ed acbe 2063 e1be 93ff 8abe
000003c0: 5351 733e 0b72 943d c707 85be 31fd a0be
000003d0: ea62 1fbe 0eb5 653e 00b1 0f3d 332c ee3d
000003e0: b18f ddbd 6615 a63c 3392 9f3b 91c2 2a3e
000003f0: 6296 f03d 719a a3ba 5c3e 983d 0b5b 953e
-0.17340896 0.13831913 0.32134274 -0.06620377 -0.07232351 -0.32235914 0.115141 0.36586872
-0.115732096 -0.0634898 -0.27072436 -0.006650798 0.42597172 0.0036014784 -0.26098216 -0.2521571
0.09225835 0.37842053 0.08173478 -0.16455641 -0.25382483 -0.012019684 0.06887073 0.094018586
0.0015287392 0.28685445 0.4821835 0.107335344 -0.48590964 -0.33873573 -0.22517058 0.09210398
0.27283072 -0.23419759 -0.43693307 -0.23204163 0.025078727 0.33858597 0.1194953 -0.28104073
-0.1998124 0.066602804 0.25246415 0.20055132 -0.16660175 -0.21897094 0.105837524 0.07520077
0.02081229 -0.18643884 -0.14115134 0.20157102 0.37601557 0.118139476 -0.32474938 -0.34988567
-0.32181287 -0.28101313 0.10767418 0.00047736106 -0.3143012 -0.38441965 -0.37528044 -0.20378378
-0.0015339334 -0.24877128 -0.23807548 -0.21355568 -0.3008852 -0.018716492 0.2701632 0.19113693
0.062086307 -0.010116511 -0.09153151 0.008262743 0.2543097 0.25205353 -0.33631563 -0.12632094
0.00010176335 -0.058676507 0.2559226 -0.32961458 -0.24896386 -0.075865835 0.08606978 0.21458864
-0.18280746 -0.15862268 -0.045645818 0.13998383 0.094138145 -0.09568749 0.03779577 0.10828816
0.3396109 0.0766671 0.08369689 -0.022788424 0.06893831 -0.033283774 0.002500718 -0.09334451
0.14463288 0.19426768 0.18242066 -0.032803953 -0.038838096 0.13342498 0.018600628 0.0099633215
-0.21873045 -0.19929768 -0.03599227 -0.006275744 0.014838337 -0.11823851 -0.28834632 -0.21958366
0.12464622 0.11061587 0.093563884 -0.05458013 -0.30420437 -0.009458831 -0.18269913 -0.1171325
0.2020393 0.35835466 0.03014138 -0.3059496 -0.18683335 0.3935069 0.2507868 0.27425578
-0.26089567 -0.46294302 0.20211329 0.45834467 0.04487917 -0.2624799 -0.41144243 -0.21416803
0.26106775 -0.012916447 -0.18497002 -0.3352317 -0.23440485 0.13826677 -0.46856132 -0.39445928
-0.5548418 -0.50190175 -0.3594024 -0.24977836 -0.24190046 0.026363675 0.33339527 0.2418691
0.12103505 0.3884688 0.52155757 0.5006749 0.40985918 0.023797005 0.14830057 0.08516931
0.07323718 -0.054939084 -0.14273445 -0.08787246 -0.11640495 -0.07512943 -0.1853005 -0.14969163
-0.16624732 0.033956714 0.2847587 0.3775739 -0.13792062 0.14156927 0.009256723 -0.024623545
0.073895685 0.025364328 0.058745082 -0.22002658 -0.16860497 -0.12090264 0.08920223 -0.11663534
-0.11778332 -0.07534088 0.093634725 0.0669468 -0.096726276 -0.19553524 -0.068955146 -0.10031355
-0.022170035 -0.033913925 0.16347544 0.25021046 -0.12418655 0.36187595 0.5413103 0.5435328
0.21144174 0.1218406 0.22272392 -0.042942576 -0.35955167 -0.37469625 -0.22075383 -0.3675155
-0.7097728 -0.58229786 -0.45850557 -0.36099374 -0.34593895 -0.18352383 -0.08141261 -0.19220357
-0.09135499 0.118674345 -0.03153972 0.2700719 0.3444597 0.4336405 -0.29174146 -0.07184525
-0.021990355 -0.118649796 -0.1830559 0.060929876 -0.015993873 -0.33774585 -0.4402094 -0.27148113
0.23761491 0.072483145 -0.25982496 -0.3144317 -0.15565076 0.22432348 0.03508091 0.11629524
-0.108184226 0.020273875 0.004869723 0.16675784 0.11747433 -0.001248194 0.07433769 0.29171023

conv2.bias f4 [16]
00000000: 6477 15bf 7c21 ddbe 5531 2d3f ef52 dabd
00000010: 9e87 febe 7ead c9bf 9023 ba3f 8083 97bf
00000020: d49c 50bf cf88 05be 8aed 653f b63d 62bf
00000030: b239 dd3f 45cb 963f 2ac2 10bf 063c da3e
-0.583853 -0.4318961 0.676534 -0.106603496 -0.49712843 -1.5756071 1.4542103 -1.1837006
-0.814893 -0.1304047 0.8981558 -0.88375413 1.7283232 1.1780783 -0.5654627 0.4262392

fc1.weight f4 [120, 400]
00000000: 7d3e 353e cea9 ee3d 1481 d0bb 22a1 9b3d
00000010: 538c 0dbd 6741 d43d d544 a4bd 369c 67bd
00000020: da67 433e af47 413d 9229 d13d f44a 05bd
00000030: d853 453c c412 1c3e 49ba 85bd a6ad 05bc
00000040: 7f60 69bd 0fa1 06be e88b babd 7dc6 fa3d
00000050: 1d39 a4bd c749 c9bd dcc5 c43d d56e 753d
00000060: 3d02 3a3d bae3 06be ff55 123c 65f6 60bc
00000070: 72f3 133d 558b e03d 66d5 903b 75f1 803d
00000080: 2092 ca3d b87a 823d 3fcf b93d 381d dc3d
00000090: 4e1e 813c d9b6 cf3c ca07 02be 4519 5fbb
000000a0: 4b9b 03be 8bfa 07be 2166 05be 8a71 67be
000000b0: d887 ffbd 5cf6 a9bd 6899 a9bb bc1b 1dbe
000000c0: f301 dbbd 7fb1 74bd 9c8c 1a3e d19e e23d
000000d0: 8957 89bd 8711 0abe 66b3 cb3d a6da 083d
000000e0: 07c3 3a3c 2416 1bbe 0aa8 cabd a97d 87bd
000000f0: 38ef f3bc 57af b33d 4780 603b 4f42 313d
00000100: b475 b63d 2418 8c3b 46b8 9d3d 9f5f f73d
00000110: 1ae1 5d3c 7d73 153c 8579 603d fb3c d5bd
00000120: 6276 75bd 95b0 a0bd ab6c 2d3d 422f 1cbc
00000130: 0f05 03bd f75a 7c3c 003b 2c3e d009 59bd
00000140: 2180 b7bd c7b2 9f3d 2fbb 103e 5491 17bd
00000150: 873b 15bd 846b 39bd 58b1 9cbd b51e 51bd
00000160: fbf2 13bd a059 f3bc c917 213e f10a 68bd
00000170: 3e08 49bc 311a aa3b da5e 16be 5508 ba3d
00000180: d200 b4bc 0e97 30bd fa70 00be c7a0 0cbd
00000190: b960 6cbd e2ca 373d 8c31 44bd b77e 7cbd
000001a0: 32d6 073e 5780 1abe 15f9 56bc 4f2e d63d
000001b0: cd8e 99bc f694 66bd affa 8fbd d861 a43d
000001c0: 3fbb 643d 2ad2 bbbd ee60 02be 1b27 af3d
000001d0: 7c52 e7bb e7ae 96bd 8791 943c 3ffb 1dbd
000001e0: d377 3e3c 40fc 463d faad 40be 1465 df3d
000001f0: d17f c7bd ac06 003d 6ab4 99bc 9b77 99bd
00000200: 6763 72bd 16fd 26be 1606 0dbe 1c85 d73d
00000210: 046b 753c 1e81 67be 2b8e 0cbc b0c2 00be
00000220: aefb 0cbd 7eaf a03c f623 aabc 51c4 8cbc
00000230: 42ea b03d bcfd 23bd 9696 973d a8cc e93d
00000240: 95db 2b3e 0400 f4bd 512c d23d c3fe a7ba
00000250: ed66 b1bd 378a 7f3d cd1c 55be 653b 1dbe
00000260: b57a 97bd 63bc 893c 95f6 85bd a6f9 e3bd
00000270: 6505 3cbe 195a 3dbe 4296 51be 2f49 cd3c
00000280: aa82 babc 89f3 06bd 9ecd f6bc 3e77 84b9
00000290: 004c 20bd b645 be3c 745a 173d ae1a c13c
000002a0: 7018 313d 7a73 b63b 3b23 a93d 6ef2 b93d
000002b0: 3f47 9f3a 1f60 0a3e e104 d63d 411b a33d
000002c0: 7137 ab3d 9de7 5c3e a11b 0c3e a1f2 e73d
000002d0: 3843 d93d 324d 543b 6be6 2a3d 3e34 8f3c
000002e0: c090 9d3b f4db e53d efe0 63bd 17ff 32bd
000002f0: b9d2 a83c e3b2 eabc e025 913d 2c6c 993d
00000300: 5d03 a1bd 596a 053d bef3 b0bd 86a0 afbd
00000310: 82f2 853d 8470 d53d a4cd 5f3e 11c1 eebd
00000320: bbe6 0d3e ff3c b23d e780 783d c095 dbbc
00000330: 248a d43d c8ab 533d 0b18 c53d 5fac 8c3d
00000340: ecac f3bd 9e60 323d 0257 82bd d0cc 81bd
00000350: 5556 f33d 9025 2c3c 1867 59ba 4c30 f63b
00000360: 6e8d f43c 54dc 4abd 19b5 f6bc 2da8 963d
00000370: 3ce0 f63d e3ab 083e c9ad 15be 1fad 583c
00000380: 5ba0 79bd 4947 c1bc 174a d13d a21e 903d
00000390: ae19 1a3e 875f 37bc f433 d4bc cc36 403d
000003a0: 96ba 4f3c f468 1fbe c9cf 4bbd a2ab 40bd
000003b0: 45e5 c03c 2dac 40bd bbff f3bd 37d1 e4bd
000003c0: 885b 533d 93ff 76bd 6396 45bd 940f 1ebe
000003d0: 4a32 11be 2504 a13b 8e56 2cbb 797f 8d3a
000003e0: 55f2 bebd 64b1 81bd 8da2 3fbe 4c10 3fbe
000003f0: d560 5bbe dd34 b13d ae62 b8bc 37a9 633d
0.17699619 0.116534814 -0.0063630436 0.07599093 -0.03455765 0.10364037 -0.08020941 -0.05654546
0.19082585 0.047187503 0.10213007 -0.032542184 0.012043916 0.15241534 -0.06529672 -0.008159077
-0.05697679 -0.13147376 -0.09108716 0.1224489 -0.08018706 -0.09828525 0.09608051 0.05992015
0.04541229 -0.13172808 0.008931636 -0.01373062 0.03612084 0.109640755 0.0044199703 0.06296054
0.098911524 0.06371063 0.09072732 0.107477605 0.01576152 0.025355743 -0.12698284 -0.0034042161
-0.12852208 -0.13279168 -0.1302724 -0.22601905 -0.12477082 -0.082989424 -0.005175758 -0.15342611
-0.10693731 -0.059739586 0.150927 0.11065448 -0.06706149 -0.13483249 0.09946327 0.033411644
0.011399037 -0.15145165 -0.09895332 -0.06615765 -0.029777154 0.08773678 0.0034256147 0.043276127
0.08909169 0.0042753387 0.07701163 0.12078785 0.013542438 0.009121773 0.05480339 -0.10412022
-0.05992735 -0.0784618 0.042339962 -0.0095327515 -0.031987246 0.015402547 0.16819382 -0.052987874
-0.089599855 0.07797771 0.14133905 -0.03700383 -0.036433723 -0.04526855 -0.07651013 -0.051054675
-0.036120396 -0.029705822 0.1573173 -0.05665106 -0.0122700315 0.0051911105 -0.1468462 0.090836205
-0.021973047 -0.043112807 -0.12543097 -0.034333017 -0.05770943 0.04487122 -0.047898814 -0.061644282
0.13265303 -0.1508802 -0.013120909 0.104580514 -0.01874485 -0.056294404 -0.07030236 0.08026475
0.055842634 -0.09170945 -0.12732288 0.08552381 -0.0070593935 -0.07357579 0.0181358 -0.038569685
0.011625248 0.048580408 -0.18816367 0.10907951 -0.09741176 0.031256363 -0.018762786 -0.07493516
-0.05917683 -0.16307482 -0.13771853 0.105234355 0.014979128 -0.22607848 -0.008578817 -0.12574267
-0.034419708 0.019614931 -0.0207691 -0.017183455 0.08638431 -0.0400369 0.07401769 0.11415988
0.16782983 -0.119140655 0.10262359 -0.0012817014 -0.0866221 0.06238767 -0.20811768 -0.15354688
-0.073964514 0.016813463 -0.065411724 -0.11131601 -0.18361433 -0.18491401 -0.20467475 0.02505931
-0.022767384 -0.032947097 -0.030127343 -0.00025265844 -0.03913498 0.0232266 0.036951497 0.023572292
0.043236196 0.005567965 0.08258673 0.09079443 0.001215197 0.1351323 0.10450149 0.07964183
0.08360184 0.21572728 0.13682415 0.11325575 0.10608524 0.0032394645 0.04172365 0.017480966
0.0048085153 0.11223593 -0.055634435 -0.043700304 0.020608293 -0.028649753 0.07087302 0.07491335
-0.078619696 0.032572124 -0.0864024 -0.08575539 0.06540395 0.10421851 0.2185579 -0.11657918
0.13857548 0.0870304 0.060669806 -0.026804805 0.10377911 0.051677495 0.096237265 0.06868815
-0.118982166 0.043549173 -0.06364252 -0.06337893 0.11881701 0.0105070025 -0.0008293255 0.0075130817
0.029852595 -0.049526528 -0.030115651 0.07356296 0.12054488 0.1334682 -0.14617075 0.013224869
-0.060943943 -0.023593562 0.1021921 0.07037093 0.15048859 -0.011192209 -0.02590368 0.04692726
0.012678763 -0.1556738 -0.049758706 -0.04703868 0.023546824 -0.0470392 -0.11914011 -0.11172717
0.051600963 -0.06030233 -0.048239123 -0.1543563 -0.1417934 0.004913824 -0.0026296708 0.0010795436
-0.09323565 -0.06332663 -0.18714352 -0.1865856 -0.21423657 0.08652661 -0.022507992 0.055581298

fc1.bias f4 [120]
00000000: 2e5b fdbc 4894 083e b6b9 cabb 086a 6cbe
00000010: f5d5 193e 2e2c 693e 5ce1 8d3d 61c9 733d
00000020: 1f66 b73c 15e1 0abe 5e9e 493c 09c8 2bbe
00000030: c7f7 c3bc eb89 bdbc e938 153e 1e7e 77bb
00000040: 97ee 3b3d a7f1 acbd be63 f7bc 62e1 a9bc
00000050: 3c2a da3c f2da 743e 7df7 113e 1084 8d3e
00000060: 825f 1b3c 5957 bcbe 6e1d 3dbe 11db b83a
00000070: 266f 3cbe 9408 52be b371 d73e 6871 94bc
00000080: b1ab 37bc 796b 013e 0d76 5f3d efc5 ec3e
00000090: e79d 43bd 315b 0ebd 6e4d 153e bdbe 1e3d
000000a0: e24c ee3d 3ba6 bcbd 915b 15bd 37c7 4abe
000000b0: 7a25 41bd 9c23 b73e 2445 243e 9eac 7a3e
000000c0: 2219 b73c cc2c 81be 2a9e 38bd e64d 0abe
000000d0: 96ce 193e 25bd 7d3e 7ef6 c4be 1f87 6fbe
000000e0: 1e47 c43e ac90 e7be a3a1 dcbb c2b7 163e
000000f0: 7f26 0ebe e4a0 a9bc 9324 113e e74f 573e
00000100: 8466 b0bd 67bb 873d 42d9 9a3e 65be a33d
00000110: dd51 f6bc 093b 9abd f1d0 193c 7b22 503e
00000120: 403a 02be 256d b3bd 57cd 51bd 02e3 033d
00000130: a367 8c3b 809a b6bd e9a6 f83d 4940 c3bd
00000140: 775e f93d ea3e 9cbc c9f0 2dbe 5072 abbc
00000150: 3413 7dbc a3e9 df3c 5346 983d 12e7 9e3e
00000160: f74d 99bd b8b5 0abc 82ef 193d 5ba8 49bd
00000170: e02c 1fbd be0c 43bc 9a8d b63e 2b65 05be
00000180: 0b2f 8dbc 4ae2 13bd 1932 9c3c 2d1d 053e
00000190: 7305 593e 614e 283e ad7e 893e 83a4 d83d
000001a0: 11b0 9f3d 8831 29be e52b 47bd 3605 f53e
000001b0: 2715 433d 6b43 563e 6d55 ddbe 8f32 853e
000001c0: cb7e c7bc dfd3 40bd ec81 203e 155e 053e
000001d0: 8651 21bd 79d3 bf3e d316 a63e 7a31 9e3e
-0.030927267 0.13337815 -0.0061866893 -0.23087323 0.15023024 0.2277076 0.069277495 0.05951822
0.022387562 -0.13562424 0.012305824 -0.16775526 -0.02392186 -0.023137053 0.14572491 -0.003776438
0.045881834 -0.08444529 -0.030198928 -0.020737354 0.026631467 0.23911646 0.14254566 0.27639818
0.00948322 -0.3678539 -0.18468258 0.0014103373 -0.18401775 -0.20511085 0.42078933 -0.018120483
-0.011210368 0.12638654 0.05455594 0.4624476 -0.04775801 -0.034754936 0.14580318 0.03875612
0.11635758 -0.092113934 -0.036464278 -0.19802557 -0.04715488 0.35769355 0.16042 0.2447991
0.022350851 -0.2522949 -0.045072712 -0.13506278 0.15020213 0.24779184 -0.3846931 -0.23391388
0.38335508 -0.45227563 -0.006733136 0.14718536 -0.13881873 -0.020706601 0.14174108 0.21026574
-0.08613303 0.06627541 0.3024388 0.07995299 -0.030068332 -0.07530791 0.009388194 0.20325653
-0.12717533 -0.08761052 -0.051221218 0.032198913 0.0042848154 -0.08916187 0.121412106 -0.09533746
0.12176221 -0.019072969 -0.16986383 -0.020928532 -0.015446473 0.027333086 0.07435288 0.31035668
-0.07485574 -0.008466177 0.037581928 -0.049232822 -0.038861156 -0.011904893 0.35654908 -0.13026874
-0.017234346 -0.036104478 0.019066857 0.12999411 0.21193485 0.16436149 0.26854458 0.10578253
0.07797254 -0.16522801 -0.048625845 0.47855538 0.047627594 0.20924155 -0.43229237 0.26015136
-0.024352452 -0.047077056 0.15674561 0.1302417 -0.039384387 0.37466028 0.32439288 0.30897123

fc2.weight f4 [84, 120]
00000000: 2be2 d33c b919 99be 804a b8bd a6dc 35be
00000010: daa0 483d 4ef5 153d f0d0 b1bb 2044 46be
00000020: 1212 853e f95d e0bd f940 cf3c f2d7 debd
00000030: 20d1 063d 7802 a53a 98f6 91bd b679 11be
00000040: ecfa b9bd f82b 7bbd 64be bcbc a034 a8bc
00000050: e695 fd3d 2634 c33d b82d efbd eab1 20be
00000060: fe6c ed3d ec89 11be 371b 93bc 43df dc3d
00000070: 7994 3ebe d02e 69be a4c5 f6bc 29c4 b3bc
00000080: b2db c23d b060 183d 20d5 babd 4cde 04bc
00000090: 547f c4bd 1c60 1ebe 0bd4 d5bd 0461 173e
000000a0: 87d7 f03d 0968 333d eafd 62bd 7f6d 01be
000000b0: 13d9 fe3c 565f 383e fb65 debd fb04 443d
000000c0: 9a09 3cbe bbfc 9abd 2a37 02be f917 03bd
000000d0: fe98 183e 372f 4e3b 7ba0 6abe ac05 cebd
000000e0: b577 41bc 3927 5abe 0cc4 e53d 3ffe 9dbc
000000f0: 601a ddbc 3cb7 fc3c 9899 4e3d af5f 7b3d
00000100: 3408 8c3d 807e 04be cd8c 483c cf82 cc3c
00000110: a624 8d3c ecd5 b83a e686 c8bc 8192 4f3e
00000120: d56d a9bc 77df a2bd 098c 9d3d 37e6 953d
00000130: c691 37bd 43f4 e1bd 00f2 31be 42c8 e93d
00000140: 99ac 5fbe 7e2f 70bc cb99 14be cba4 9abd
00000150: 33fe d13d e890 113e 0a83 c23d c560 273b
00000160: 372c 663c 5e58 b23b 23c0 02be 7043 d6bc
00000170: 5686 8e3d 378c d73b 88a2 623e 4758 4a3e
00000180: f48b 83bd 6403 e0bd 64c6 f83c 6f12 a83d
00000190: 78e3 0b3d aaf8 8d3d 0cc8 4e3d 3945 c53c
000001a0: 9f38 b93d 61cb 0cbe eb10 a8bd c833 0abe
000001b0: 20a8 a13d a649 533d bf80 32be ed8d 83bd
000001c0: 0275 9aba c751 d939 9ec1 9ebd 48d2 743d
000001d0: cba9 07be d71c 26be 9a66 f53d d4a9 c43c
000001e0: 6a5b a1bd aa52 cc3d f797 adbb e59c 2ebe
000001f0: 0046 263e aef0 cfbd fe81 b83b 2c49 d1bd
00000200: 5515 2bbe 3c10 a73d 447c 76bd b528 13be
00000210: de08 cb3c d1ce 6d3d ebde 0dbe 76cb a03d
00000220: b187 17bd ad48 4b3b 205a 093e 662f 903d
00000230: 13cc b4be 8bc5 e0bd 25f8 8a3c 90ad 38be
00000240: d346 783c 8fc0 debb 88df 84bd 4cfa e1bd
00000250: 75bb 16be 2d1c 98bc 4c3e 453e 783d 293d
00000260: 9b34 48be db07 54bd 15cc a43d a6a0 2d3e
00000270: 3420 0fbd ae08 83bd 850e 153e 6326 84bc
00000280: 1c15 f7bc 981f 893d eaf0 23be ca3c 75be
00000290: abad 26bd 1397 12be 080e 773d 185b 453d
000002a0: db5d f9bd 61b6 48bd 741c d8bd 65bd 0bbd
000002b0: 42a9 32bd abed 49bc 5cf9 9bbd aecf d0bd
000002c0: a525 bd3c ff58 aabd 8675 a43d 874e 483d
000002d0: 28af 0abd 9f08 2d3d 441c ae3d 719e 74bd
000002e0: 10f8 83be 3499 e0bd c841 8e3e b4bd f7bd
000002f0: cc5f 8b3d 3316 86bc db54 8cbd faab b6bd
00000300: 2487 09be 0bd6 1f3c 68d0 a83c 1fa4 d0bd
00000310: 61dc aabd 37c1 8a3d 46d2 0e3d f1ee 2c3e
00000320: 1609 25bd 4b55 5dbd ce57 e9bc 9d43 56bd
00000330: a6e4 25be 4bc8 c13c 3e76 2b3d 8ea3 5cbc
00000340: 120f 1b3d c97e 713b dda8 db3d 3efa bfbc
00000350: 2802 a33c 2648 fdbd 5067 88bd f671 c33d
00000360: 795b 80be 4623 1c3d 6806 9b3d 5e60 243e
00000370: 8fb6 fdbd 04fb fcbd b956 bd3c 7b56 79bd
00000380: af3b 633d 64aa e7bd ca91 abbd 726e 3a3d
00000390: 0f1d 8bbd a5d1 9bbc dc3e 23be a7b2 f1bd
000003a0: e3d1 ad3d ccff 7dbd 3dc0 21be fa09 80bd
000003b0: 77cd 293d bd90 97bd 2e4e 15bd ae64 643e
000003c0: d398 44bd 2647 833c bb3a 10bd e199 94bc
000003d0: 4569 303c 6362 043d 4ed6 d0bc 1e24 0dbc
000003e0: d1e7 913d 9e3b 2e3e ec2d fbbd bd81 a23c
000003f0: 8495 adbc f969 143d e438 8dbd 0a35 a83d
0.025864681 -0.29902437 -0.08998585 -0.17759952 0.048981525 0.036610894 -0.0054265186 -0.19361925
0.2599035 -0.10955424 0.025299536 -0.10881032 0.03291428 0.0012589237 -0.07127112 -0.14206585
-0.09081063 -0.06132123 -0.023040004 -0.020532906 0.123821065 0.09531431 -0.11678642 -0.15692869
0.11593054 -0.1421277 -0.017957313 0.10784771 -0.18611325 -0.22771764 -0.03012354 -0.021944122
0.0951456 0.037201583 -0.091226816 -0.00810964 -0.095945984 -0.1546635 -0.104408346 0.14783102
0.117598586 0.043800388 -0.055417933 -0.12639426 0.031109368 0.18005118 -0.10859295 0.047856312
-0.18363038 -0.07567736 -0.12716356 -0.032005284 0.14902112 0.0031461248 -0.22912781 -0.100596756
-0.011808326 -0.21304025 0.112190336 -0.019286273 -0.026990116 0.030849092 0.050439447 0.061370548
0.06837502 -0.12938881 0.012240601 0.024964718 0.01722939 0.001410184 -0.024478387 0.2027073
-0.020682255 -0.07952779 0.07692725 0.073193006 -0.044816755 -0.11032917 -0.17377472 0.11415149
-0.21843185 -0.0146597605 -0.14511792 -0.07550963 0.10253563 0.14215434 0.0949765 0.0025539857
0.014048628 0.005442663 -0.12768607 -0.026155204 0.06959216 0.006577994 0.22132313 0.19760238
-0.06423178 -0.10938147 0.030368038 0.08206641 0.034152478 0.069321945 0.05048375 0.02408086
0.09044003 -0.13749458 -0.08206352 -0.13496315 0.078933954 0.05158391 -0.17431925 -0.064235546
-0.0011784139 0.00041450394 -0.07751773 0.059770852 -0.13248365 -0.16221939 0.1198246 0.024006762
-0.07878764 0.099767044 -0.0052976566 -0.17052038 0.1623764 -0.10153328 0.0056307307 -0.102190346
-0.16707356 0.08157393 -0.060177103 -0.14370997 0.024784502 0.058058564 -0.13854568 0.07851307
-0.03699464 0.003101866 0.13413286 0.070402905 -0.35311946 -0.10975178 0.016964028 -0.18034959
0.015153605 -0.006797857 -0.06487948 -0.110340685 -0.14719947 -0.018568123 0.19262046 0.041318387
-0.19551317 -0.051765304 0.08046738 0.16955814 -0.03494282 -0.0639814 0.1455632 -0.016131585
-0.030161433 0.06695479 -0.1600987 -0.2394897 -0.040692966 -0.14315443 0.060316116 0.048182577
-0.12176105 -0.049002055 -0.10552302 -0.034116168 -0.043618448 -0.012324731 -0.07615921 -0.10195862
0.02308924 -0.08317756 0.08030228 0.048903015 -0.03385845 0.04224455 0.08501485 -0.059721414
-0.25775194 -0.10966721 0.27784562 -0.1209673 0.06805381 -0.016368007 -0.068521224 -0.08919521
-0.13430458 0.009755622 0.020607188 -0.101875536 -0.08342815 0.06775134 0.0348685 0.16888024
-0.04029187 -0.05403642 -0.028484251 -0.052310575 -0.16200504 0.023655077 0.04186081 -0.013466729
0.03785617 0.0036849251 0.107255675 -0.023434754 0.01989849 -0.12367277 -0.0666033 0.09543221
-0.25069788 0.038119577 0.07569581 0.16052386 -0.12388336 -0.12352565 0.023112642 -0.06087349
0.05547684 -0.11311796 -0.083774164 0.045515485 -0.06792652 -0.019020865 -0.15941948 -0.11801653
0.08487298 -0.062011525 -0.1579599 -0.06251903 0.041455712 -0.074006535 -0.03645151 0.22304031
-0.047997307 0.016025137 -0.03521226 -0.018139781 0.010767286 0.03232039 -0.025492813 -0.008614568
0.071242936 0.1701493 -0.12264618 0.019837255 -0.021189459 0.036233876 -0.06895617 0.082132414

fc2.bias f4 [84]
00000000: ce60 083f b3b5 d73e 45a7 8e3e 3b9f 8f3d
00000010: 0c0f 283f f4e3 e53e 433a 3c3f dddc 2d3d
00000020: 1dcd 93bc 5f57 7dbd 9af7 aa3d c92f b4bd
00000030: f4a7 923e f964 e63e fd1b 173e ab6c 5b3d
00000040: 854a d7bc 574e 3b3b 63ff 22be e081 013d
00000050: 2820 6bbd 0e29 763e 4e74 153e 4352 2e3e
00000060: 6cc5 c5bd 7ef7 303e 9a8b cfbc 905f b53e
00000070: d9d9 c33e deb7 9d3e a04d 64be d3f4 aabc
00000080: 3362 be3d 7f3e 9c3e 79ef 513e e643 833e
00000090: 056b 2dbe 86bd 793f fc3b eb3e fec1 303f
000000a0: 9f67 0c3e f3f1 993d 721c 8b3e a7e5 603e
000000b0: f541 553e b16d ef3e 4ad7 163e 6d9d e73d
000000c0: f6c7 0a3f 5dd3 c63b 5381 713e af23 47bc
000000d0: d860 2d3e b7e0 bf3e 6c70 a33d c35c ec3e
000000e0: 2387 803d 8233 ad3e ce11 9e3e f139 a5bd
000000f0: caf5 073f f4a4 173e a339 8e3e 6a61 24be
00000100: caf8 73bd 025b c9bd f5e8 323f ffef 9a3e
00000110: be4b 8a3e 87e6 81bd 5274 ca3e 273b 1d3e
00000120: 8d66 f03e 67c8 be3d 2cfc 243e 0a4a b23e
00000130: 87d4 57bd 78e5 023f 5d24 873e 358e d73d
00000140: 3693 113f 7e05 043f 26b9 583e f98f 65bd
0.5327271 0.42130813 0.27861992 0.07012793 0.6564796 0.44900477 0.735264 0.04244696
-0.018042142 -0.0618509 0.083480075 -0.08798177 0.28643763 0.4499891 0.1475677 0.05357043
-0.02628065 0.002858063 -0.15917735 0.031618 -0.057403713 0.24039099 0.14595148 0.17023568
-0.09656796 0.17281911 -0.025335122 0.3542447 0.38252142 0.30804342 -0.22295237 -0.020868694
0.09296074 0.3051643 0.20501508 0.2563774 -0.16935356 0.97554815 0.45944202 0.6904601
0.13711403 0.07516851 0.2717014 0.21962605 0.20825942 0.46763375 0.14730564 0.113093235
0.54211366 0.006067677 0.2358449 -0.012154504 0.16931474 0.3747613 0.07980427 0.46164522
0.06275775 0.3382836 0.3087296 -0.08067692 0.5310942 0.14809018 0.27778348 -0.16052786
-0.059563436 -0.098318115 0.69886714 0.30261227 0.27010912 -0.06342798 0.3954187 0.15354596
0.4695324 0.093155675 0.16111821 0.34822112 -0.052692916 0.5113139 0.2639493 0.10525171
0.5686525 0.5157088 0.21164379 -0.056045506

fc3.weight f4 [10, 84]
00000000: 2d76 773e 565e debc fd7f e1bd 3bb8 68be
00000010: 04d4 28be 7aaa 2d3e 273d 983d 5ee0 8f3e
00000020: f698 0f3e 4db6 d8bc f2ad 193d a8da 043e
00000030: 8d3c 813d 6fb9 5cbd 294c 0b3e 7a02 943c
00000040: 9e49 35be 3d09 cb3d d681 f9bd 8410 143d
00000050: ee50 fabc 4629 493e e2ff 52be 56ff b63d
00000060: f578 833e 1abc 1fbd 2986 043e 294a 073e
00000070: c19d fdbd 72eb 413e 6241 093e 7ca7 49be
00000080: 4a4f 53bd 0140 c1be ebd5 ad3d 9a28 f23d
00000090: 9153 88ba 144e c0be 46f4 06bd e0d2 bcbe
000000a0: e352 5a3e e18e 6d3e ce65 fc3d 6928 433d
000000b0: ab69 56bb df7c 463d e3c1 d33d 566e 0bbd
000000c0: b87a 98be d623 0f3e 509e b43d c282 2d3e
000000d0: b0e0 883d d8e5 45bd 52d6 aa3d 4927 eabd
000000e0: 8d5d 18bb 0a18 0f3c 76fd 81bd ac0a bfbd
000000f0: 19f4 a5bd 58de 26bd 4045 0e3c 3a7c 673d
00000100: 6b0c 3b3e 990f b7bc 0ed4 0dbb a167 dcbd
00000110: 23c7 0a3e 5370 f23d c057 283e db6f de3d
00000120: a58b 1c3e 6fd2 323e 486a 61be bcf4 4d3e
00000130: a695 b8bd 5af1 29be bbb2 edbd cebf b33e
00000140: fda6 a1be 610f ae3d 0c2a e23d 8002 58bc
00000150: 6526 4fbe 67ba 58be 0eef 1d3e 26a2 a23c
00000160: d2be a9be d51d a7bc 8b47 b7be 5768 03be
00000170: f154 7b3e fb7c e23d 9436 0ebd 4222 773d
00000180: 6383 363d 4982 0cbe 59f8 ca3d aa8b 683e
00000190: 7197 173e bc22 5bbd 9d1f 11be 4edb c43d
000001a0: 19e3 b13d 2ad7 653e 974f c4bd 07e1 6abd
000001b0: a0ee 663d 7e86 093d 2925 a9bd 7e6c 66be
000001c0: 9fe4 d23d 3ede 26be 6ddc 3c3d 37f6 543e
000001d0: 018c 0ebe 1d3b 87be c851 e5bc 93a7 3ebe
000001e0: 0aad bb3d 2ea3 3fbd 93f3 7d3e 88f2 5bbe
000001f0: daba 0a3d 23df 603e 1c9f 2ebd a61b 7b3e
00000200: cdbf 573e 039a 5a3d c776 6b3e 9966 febd
00000210: 5929 ebbd 0794 523e 0c90 6cbe 4f31 8ebd
00000220: a4f1 93bc 236e 40bd db1d e0bd a226 803e
00000230: 5167 903e a6d9 0cbd 07a6 ccbd a5b2 83bd
00000240: 8d48 b43d 9c9e c23d 30b7 eb3c 5e0c 743e
00000250: c352 4ebe cd11 ca3d 4159 c5be 5d21 78be
00000260: e42f 563e 4d76 31bd 5ae2 f7bd d360 a13e
00000270: 2023 4fbd 5a29 593e 8857 373e 63e7 3bbe
00000280: c832 73bc 7a72 55be 1027 95be d3b1 a43e
00000290: c489 99be c1de 703d b530 323e db91 5ebc
000002a0: 17ff dc3d ae4d 1b3d a8dd 97be d939 853e
000002b0: 10d5 d3bb 4eed 823e 466a de3d 8f7d 253e
000002c0: fd2e 0a3d 18e1 a53d 4217 91bd 82a3 a03d
000002d0: e88a c9bd 05e4 663e 438c 83be c7ca 0a3d
000002e0: e91c 913d 12e7 f33d c8c5 153e dfdd a83d
000002f0: 229f 3dbe 78a3 52be 277c 073d 8f9e 653d
00000300: e1d5 473e 8278 993c c566 13bc 60d2 143d
00000310: b004 afbc 00b0 f9bc 4f7d 5a3e eefd 15be
00000320: b1f2 acbd 0b7a 3a3e 6e5e 4bbd 2d12 a13d
00000330: 2772 f43c 017f e0ba 6172 2e3d b7ea a13d
00000340: 78c5 eabd 60f3 9ebd 2ca2 803c 3bbe ebbd
00000350: 9310 d53d 1333 873e 0a35 1abe 12b2 41be
00000360: 012c 543e cc5e 89bd feb8 993e 5bfc 0cbd
00000370: 5d8c 85be 5bdd bdbd 02cd 1cbd 8b5f 11be
00000380: 8344 8fbd 280d a3bd 05c7 e33c bb44 b9bb
00000390: 3ed3 6ebc ba17 3dbe aba1 043e 64c5 7b3c
000003a0: 1a48 7c3e 8000 773e 746a 3d3e d841 58bd
000003b0: b872 34be a767 8c3e 2e74 c9bc c3e0 1ebe
000003c0: 9a4c 5d3e 9675 a7bd e58f 523e 8028 d63c
000003d0: 3403 2f3e f0b4 0b3e 3e54 2c3d f35f 773e
000003e0: faff 2b3e 9654 1f3c 004a b3bd 4873 373e
000003f0: eb82 80bd 3f02 773e aaf3 97bd a8eb 8e3d
0.24166174 -0.027144592 -0.1101074 -0.22726528 -0.16487128 0.16959563 0.07433539 0.28100866
0.14023194 -0.026454115 0.037519403 0.12974036 0.06310377 -0.05388778 0.13603272 0.018067587
-0.17703864 0.099138714 -0.12182967 0.036148563 -0.030556168 0.19644651 -0.20605424 0.0893542
0.2567822 -0.038997747 0.12941803 0.13211884 -0.12383605 0.18937472 0.13403848 -0.19692796
-0.051589288 -0.37744144 0.08488067 0.118241504 -0.0010400881 -0.3755957 -0.0329478 -0.36879635
0.21320681 0.23199035 0.12324105 0.04764596 -0.0032716792 0.04845893 0.10339715 -0.03404077
-0.29781127 0.13978514 0.08819258 0.16944411 0.06683481 -0.0483149 0.083416596 -0.11433274
-0.002324912 0.008733759 -0.06347172 -0.093282074 -0.081031986 -0.040739387 0.008683503 0.056514956
0.18266456 -0.022346305 -0.0021641287 -0.10761953 0.13552527 0.118378304 0.16439724 0.108611785
0.15287645 0.17463087 -0.220132 0.2011289 -0.09012918 -0.16595975 -0.11606356 0.35107273
-0.31572714 0.08499027 0.11043176 -0.01318419 -0.2022949 -0.21164857 0.15423223 0.019852709
-0.33153397 -0.020399967 -0.3579677 -0.12832771 0.24544121 0.110589944 -0.03472002 0.060335405
0.044558894 -0.13721575 0.0991065 0.22709528 0.14803864 -0.053499922 -0.14172216 0.096121415
0.086858936 0.2244536 -0.09585493 -0.05734351 0.056379914 0.033575527 -0.08259041 -0.22502324
0.10297512 -0.16295716 0.046108652 0.20797049 -0.13920595 -0.26412287 -0.027993098 -0.18618612
0.09163864 -0.04678648 0.24799947 -0.21479237 0.0338696 0.2196012 -0.042632207 0.24522266
0.2106926 0.053369533 0.22994529 -0.12421913 -0.11482496 0.2056428 -0.23101825 -0.069429986
-0.01805956 -0.046980035 -0.109431945 0.25029474 0.28203824 -0.034387253 -0.09992605 -0.06430558
0.088029005 0.095029086 0.028773874 0.23832843 -0.20148759 0.098666765 -0.38544658 -0.24231477
0.20916706 -0.04332571 -0.1210372 0.31519184 -0.050570607 0.2120718 0.17904484 -0.18349986
-0.01484365 -0.2084445 -0.29131365 0.3216692 -0.2998792 0.058806185 0.17401393 -0.013584579
0.10790842 0.037915878 -0.29661298 0.26020697 -0.006464608 0.25571674 0.10860114 0.16161178
0.033736218 0.08099574 -0.07084514 0.07843687 -0.098409474 0.2254792 -0.2569295 0.03388479
0.07085592 0.119093075 0.14626229 0.082454436 -0.18517736 -0.20570171 0.033077385 0.056059416
0.19515182 0.01873422 -0.00899667 0.03633344 -0.02136454 -0.030479431 0.21336864 -0.14647648
-0.08444727 0.18210618 -0.049650602 0.07864795 0.029839588 -0.0017127694 0.04258955 0.079060964
-0.114634454 -0.07761264 0.01570233 -0.11510893 0.10403552 0.26406154 -0.15059295 -0.18915585
0.20719911 -0.06707534 0.3002395 -0.034420352 -0.2608365 -0.09270736 -0.03828145 -0.14196603
-0.069954894 -0.07961494 0.02780486 -0.0056539453 -0.014576731 -0.18466082 0.12952296 0.015366886
0.2463688 0.24121284 0.1849764 -0.05279717 -0.17621887 0.2742283 -0.024591532 -0.15515427
0.21611252 -0.081767246 0.20562704 0.026142359 0.17091066 0.13643241 0.042072527 0.24157695
0.16796866 0.009724757 -0.08754349 0.1791507 -0.062749706 0.2412195 -0.07419522 0.069785416

fc3.bias f4 [10]
00000000: d83e dfbe eced 79bf 0083 8ebe b95a 4a3f
00000010: b58b 7d3f bfb8 11be aa27 2c3d ab4d 71be
00000020: ccba 7e3e 9944 79be
-0.43602633 -0.97628665 -0.2783432 0.7904468 0.990413 -0.14230631 0.042030014 -0.23564784
0.24875945 -0.24342574
