mnist_simple_nosoftmax.pt (torch_old, 699213 bytes, 6 tensors)

conv1.weight f4 [8, 1, 3, 3]
0	0xbe0702c8	-0.13184655
1	0x3ee550a9	0.447881
2	0xbc9a9b7e	-0.018872973
3	0xbeeebf3a	-0.4663027
4	0x3f2216c0	0.63315964
5	0x3f02500f	0.5090341
6	0xbeb812a9	-0.35951737
7	0x3f1ad53c	0.6048162
8	0x3f37832b	0.7168452
9	0x3ea64b3f	0.32479283
10	0x3efc6564	0.49296105
11	0xbe39b61e	-0.18135878
12	0x3e2b04df	0.16701077
13	0xbe948aa1	-0.29012015
14	0xbe971451	-0.29507688
15	0xbef564e6	-0.47928542
16	0xbec48dc9	-0.38389423
17	0x3edf80ac	0.43652856
18	0x3e687253	0.22699861
19	0x3ea2fa82	0.31831747
20	0x3f17be33	0.59274596
21	0xbdca9feb	-0.09893783
22	0x3ed733af	0.4203162
23	0x3f2fd657	0.6868643
24	0x3e8e66a8	0.27812696
25	0x3f4da19d	0.8032473
26	0x3f3b8e8c	0.73264384
27	0x3f035314	0.5129864
28	0x3ec80df6	0.3907315
29	0x3f231bec	0.6371448
30	0x3f5339a8	0.8250985
31	0x3f19373f	0.59849924
32	0x3e3520f0	0.17688346
33	0x3e597cc2	0.21238998
34	0x3c962be0	0.018331468
35	0x3eb4335d	0.35195437
36	0xbeb1bcf7	-0.3471448
37	0xbea4932d	-0.32143536
38	0xbee631db	-0.44959912
39	0xbe64a518	-0.22328603
40	0xbec6f537	-0.3885896
41	0xbe542d88	-0.20720494
42	0xbe96b5bb	-0.29435524
43	0x3f316dc0	0.6930809
44	0x3f1a9528	0.60383844
45	0xbde6b335	-0.1126465
46	0x3f03393d	0.51259214
47	0xbee34a8c	-0.44392812
48	0x3f0f046a	0.5586611
49	0x3ee125c3	0.43974122
50	0xbe4b5688	-0.19857228
51	0x3e8a8868	0.27057195
52	0x3f42f6d1	0.7615786
53	0x3ebcc9cb	0.36872706
54	0x3f0d206c	0.55127597
55	0x3f213902	0.6297761
56	0x3f30e5ff	0.69100946
57	0x3f26923a	0.65066874
58	0x3ebccfd8	0.36877322
59	0x3dfa503a	0.12222333
60	0xbea67a5f	-0.32515237
61	0xbe173837	-0.14767538
62	0xbef2ea4d	-0.47444382
63	0x3f384653	0.71982306
64	0xbded35fe	-0.11582564
65	0xbf36d067	-0.71411747
66	0x3f5f384a	0.87195265
67	0xbe8437e8	-0.25823903
68	0xbf09ead5	-0.5387395
69	0x3f1ce86f	0.61292166
70	0xbee4de87	-0.44701025
71	0xbef827ee	-0.48467964

conv1.bias f4 [8]
0	0x3e7833b4	0.24238473
1	0x3ec04360	0.37551403
2	0x3eb5676c	0.35430467
3	0xbd883a06	-0.06651692
4	0xbd840066	-0.064453885
5	0x3ecdb964	0.40180504
6	0x3ef6e0f8	0.48218513
7	0xbeb5e6b2	-0.3552757

fc1.weight f4 [128, 1352]
0	0xbc65cd25	-0.014025961
1	0xbbde45be	-0.0067832163
2	0xb8aef796	-8.343083e-05
3	0xbc52a75c	-0.012857284
4	0xbb837e81	-0.004012883
5	0xbc7241f2	-0.01478623
6	0x3ccc327f	0.024926422
7	0x3c9a0bad	0.018804396
8	0xbc96b3d5	-0.018396297
9	0x3c4d0841	0.012514175
10	0xbc8e523d	-0.017373199
11	0xbcc6f317	-0.024285836
12	0xbcae4022	-0.021270815
13	0x3cd4a1b9	0.025956022
14	0xbc79c957	-0.015245757
15	0xbc96bef6	-0.018401604
16	0xbcadc681	-0.021212818
17	0x3c4e97c6	0.012609428
18	0x3c583a46	0.013197487
19	0x3c37aed1	0.011211113
20	0x3c846146	0.016159665
21	0xbbc5898e	-0.0060283607
22	0xbc20dcb6	-0.009818247
23	0xbccbfbbc	-0.02490031
24	0x3ca096ee	0.019603219
25	0xbc84f9c3	-0.016232377
26	0xbcb273f5	-0.021783808
27	0xbc8d9160	-0.017281234
28	0xbbf34715	-0.007424245
29	0x3c7823a6	0.015145218
30	0xbbd8dee8	-0.0066183694
31	0xbc391e04	-0.01129866
32	0xbc48d6c6	-0.012258237
33	0xba91145b	-0.0011068688
34	0x3cc39525	0.023874829
35	0x3c9c2e60	0.019065082
36	0x3bd960fe	0.006633877
37	0x3ac567b7	0.0015060817
38	0x3bccbd5b	0.006248159
39	0xbc0444d3	-0.00807305
40	0xbc03ce54	-0.008044798
41	0xbbaff8a8	-0.0053702183
42	0xbca50ebf	-0.020148633
43	0xbc170dc6	-0.009219592
44	0xbbd613ab	-0.0065331063
45	0x3cd60455	0.026125113
46	0xbcf44219	-0.029816674
47	0x3c8d73f7	0.01726721
48	0x3cc883e3	0.024476951
49	0xbc9b707b	-0.018974533
50	0x3c634b56	0.013872942
51	0xbc877d98	-0.01653938
52	0x3ba3e0e7	0.0050011757
53	0xbca70c8c	-0.020391725
54	0xba3e23ab	-0.000725324
55	0x3c8760c4	0.016525634
56	0xbc9b396a	-0.018948276
57	0xbc41de78	-0.011832826
58	0xbc14760a	-0.009061346
59	0xbce81ead	-0.02833494
60	0xbce405ae	-0.02783474
61	0xbc952d1e	-0.01820999
62	0xbcf9d8c6	-0.030498873
63	0xbca9e794	-0.020740308
64	0xbccf5d62	-0.025313083
65	0x3c8dffec	0.017333947
66	0xbc84580a	-0.016155262
67	0x3c77f230	0.015133426
68	0xbccb2014	-0.02479557
69	0x3c61a8a6	0.013773119
70	0x3a5353ec	0.00080615166
71	0xbbb17ce2	-0.0054164985
72	0xbccbccd2	-0.02487794
73	0xbd15653d	-0.0364735
74	0x3bc71234	0.006075168
75	0xbc136097	-0.008995197
76	0x3cddc241	0.027070167
77	0xbcc6c25c	-0.0242626
78	0x3cb33abd	0.021878595
79	0xbce120c9	-0.027481453
80	0x3c8f6423	0.017503804
81	0x3cbb2eac	0.022849403
82	0x3d3a06e2	0.04541672
83	0x3c5488a5	0.012972032
84	0xbc20f97c	-0.009825107
85	0x3c534e58	0.012897097
86	0xbbf94f82	-0.007608355
87	0x3c4adaaf	0.01238124
88	0xbb666d6f	-0.0035160442
89	0x3c158e28	0.009128131
90	0xbbfa338e	-0.0076355403
91	0x3b91671c	0.0044373404
92	0x3c05fb60	0.008177608
93	0xbc86984b	-0.01643004
94	0x3c3a7400	0.011380196
95	0x3d1d179e	0.0383526
96	0x3d4a9d72	0.049466558
97	0x3b16ec67	0.002302909
98	0x3c8c7f72	0.017150614
99	0x3cad34f4	0.021143414
100	0x3ce3c429	0.027803497
101	0xbbe39d5b	-0.0069462485
102	0xbb75a91c	-0.003748483
103	0xbccc16ad	-0.024913156
104	0xbc3aec5d	-0.011408892
105	0x3c204994	0.009783167
106	0x3b9310c6	0.0044880835
107	0xbd595761	-0.053061847
108	0xbcc5e323	-0.024156159
109	0xbc8c0269	-0.017090993
110	0xbbf85e1b	-0.0075795776
111	0x3a285058	0.00064206636
112	0xbc018b95	-0.007906814
113	0xbc9d5dce	-0.019209769
114	0xb8eee97b	-0.000113922135
115	0x3c92ca57	0.017918749
116	0x3c5778c4	0.013151351
117	0xbca38ea0	-0.01996547
118	0xbcb3ad3f	-0.021933196
119	0x3c328a14	0.010897178
120	0xbc66bfe3	-0.014083835
121	0xbd4b4ed3	-0.04963572
122	0xbaab3a6d	-0.0013063677
123	0x3c0f94a3	0.008763465
124	0x3b920bce	0.0044569736
125	0x3d093eaa	0.033507027
126	0xbc6891de	-0.014194934
127	0xb9a8e847	-0.00032216517
128	0xbc972d02	-0.018454079
129	0xbaf09581	-0.0018355103
130	0x3cce10e6	0.025154542
131	0xbc608223	-0.013702902
132	0xbcec7814	-0.028865851
133	0xbc051a85	-0.0081239985
134	0x3cbba085	0.02290369
135	0x3cef17a7	0.029186083
136	0xbc411300	-0.011784315
137	0xbc80efa8	-0.015739277
138	0xbc1d9324	-0.009617601
139	0xbb9c7851	-0.004775085
140	0xbc3c7542	-0.011502566
141	0x3c92c784	0.017917402
142	0x3c172081	0.009224058
143	0xbc084c3d	-0.008318958
144	0xbbf32256	-0.0074198646
145	0x3d249bf3	0.040187787
146	0x3cba1c72	0.022718642
147	0x3c898c11	0.016790422
148	0x3cf4156a	0.029795367
149	0x38aa359e	8.116219e-05
150	0xbc6f6576	-0.0146115925
151	0xbc23426b	-0.009964566
152	0xbbb29751	-0.005450167
153	0xbcc60c6c	-0.024175845
154	0xbc487e8f	-0.012237205
155	0xbcb74d53	-0.022375738
156	0x3bc0404f	0.005867041
157	0xbcb013b4	-0.02149377
158	0x3c96debe	0.018416759
159	0xbb0cbfdb	-0.002147666
160	0x3d05a7c3	0.032630693
161	0x3c15a113	0.009132641
162	0x3ca80a34	0.020512678
163	0xbd04e5d8	-0.03244576
164	0x3c2da435	0.010598232
165	0x3b95248f	0.0045514773
166	0x3cd78416	0.0263081
167	0xbc4bd4b5	-0.01244085
168	0xba9680f3	-0.0011482522
169	0x3c9fd478	0.019510493
170	0xbccc585c	-0.024944477
171	0xbcbaa67a	-0.02278446
172	0x3c36102c	0.011112254
173	0x3bc7a910	0.006093152
174	0x3c8bdc46	0.017072808
175	0x3b2d4122	0.0026436527
176	0x3c544a05	0.012957101
177	0xbcb60661	-0.022219839
178	0x3ccf37c7	0.025295151
179	0xbc844c3b	-0.01614963
180	0xbcd5dd5a	-0.026106525
181	0xbc4d1ce0	-0.012519091
182	0xbc8cafbc	-0.01717364
183	0x3cabdb98	0.020978734
184	0x3b058b37	0.0020377168
185	0x3b2cf6d5	0.002639224
186	0x3b161595	0.0022901047
187	0xbcd9a25f	-0.026566682
188	0x3c82dabd	0.015973443
189	0x3c1152e6	0.008869862
190	0xbce883e6	-0.028383207
191	0xbccca179	-0.02497934
192	0xbc3dbb64	-0.011580322
193	0x3c181261	0.009281726
194	0x3c557cbc	0.013030227
195	0xbb1e5fcb	-0.0024165984
196	0xba2b6ba7	-0.0006539174
197	0xbc74de9a	-0.0149456505
198	0xbca5f272	-0.020257208
199	0x3c8bbe89	0.017058628
200	0x3bd45408	0.006479744
201	0xbc589854	-0.013219912
202	0xbcaf994c	-0.021435402
203	0x3c7003ed	0.0146493735
204	0x3c96f467	0.018427087
205	0xbce75c0c	-0.028242134
206	0xbc6a27f4	-0.014291752
207	0xbc76e83c	-0.015070017
208	0xbc152168	-0.009102203
209	0x3c470327	0.012146748
210	0xbcc6bcb6	-0.024259906
211	0x3bd2112c	0.0064107385
212	0xbc1995db	-0.009374107
213	0xbc52a494	-0.012856621
214	0xbc2ede7e	-0.010673163
215	0x3becca32	0.007226252
216	0x3c977835	0.018489936
217	0xbbbe5a96	-0.0058091385
218	0xbc73b146	-0.014873808
219	0xbc5ffab2	-0.01367061
220	0x3cabc260	0.020966709
221	0x3c1ed56a	0.009694437
222	0x3cd71c3d	0.026258582
223	0x3ccb1bda	0.024793554
224	0xbc1c2793	-0.00953092
225	0x3cff6262	0.031174842
226	0x3cfe104c	0.03101363
227	0x3cde9d7e	0.027174708
228	0x3d19f033	0.037582587
229	0x3cb2ab36	0.021810155
230	0xbc9ce16a	-0.019150455
231	0xbbc7fdbf	-0.006103247
232	0x3c13864f	0.00900419
233	0x3c0751fc	0.008259293
234	0xba701e6a	-0.00091598055
235	0x3c5fe8aa	0.013666311
236	0x3c8ffec4	0.017577536
237	0xbc2715ab	-0.010198037
238	0xbc570ff5	-0.013126363
239	0xbc1ba47d	-0.009499666
240	0x3d380f57	0.044936504
241	0xbc89a422	-0.016801897
242	0xbcfd2608	-0.030901924
243	0x3c0ffe93	0.008788723
244	0xbc7ed572	-0.015553819
245	0xbc16d0f9	-0.009205096
246	0x3c77c793	0.015123266
247	0x3bf56eba	0.0074900063
248	0xbcd6f275	-0.02623866
249	0x3c1a1a98	0.0094057545
250	0x3cc00893	0.023441589
251	0x3baccafb	0.0052732206
252	0xbcc6d660	-0.024272144
253	0x3d133ce9	0.03594676
254	0x3cce9981	0.02521968
255	0xbcd19616	-0.025584262

fc1.bias f4 [128]
0	0x3bd1ffbc	0.0064086597
1	0x3c2c63b8	0.010521822
2	0xbaf412cb	-0.0018621323
3	0xbcc17b04	-0.023618229
4	0xbb410a97	-0.0029455775
5	0x3b21ed2b	0.0024708014
6	0x3cf57e61	0.029967489
7	0x3cfe88a4	0.031071015
8	0x3d108af9	0.035288785
9	0xbcb11499	-0.021616267
10	0x3cd848b3	0.026401853
11	0x3c25469b	0.010087634
12	0xbc53ca6e	-0.012926681
13	0x3b4c21b7	0.0031148025
14	0xbaf3dbbd	-0.0018604916
15	0x3cdcfef7	0.026977045
16	0x3c27d48d	0.010243547
17	0x3b22703c	0.0024786135
18	0x3c7cc53e	0.015427886
19	0x3c8a55a1	0.016886534
20	0x3b6753ec	0.0035297824
21	0x3bc12c50	0.005895175
22	0xbb83185f	-0.004000708
23	0xbc4c7d7e	-0.012481092
24	0xb822e50f	-3.8837137e-05
25	0xbb454235	-0.0030099277
26	0xbc5b6b85	-0.013392334
27	0xbbbfb477	-0.0058503705
28	0x3c81fa46	0.01586641
29	0x3c38dc07	0.011282927
30	0x3cc849b2	0.024449203
31	0xbc932a05	-0.017964372
32	0x3b1470fd	0.0022650354
33	0x3ae83621	0.0017716327
34	0xbb3f5946	-0.0029197498
35	0x3c9421ae	0.018082466
36	0x3ce24ffa	0.027626026
37	0xbc1c6d50	-0.0095475465
38	0xbc8dbad5	-0.017301003
39	0xbb7f93e4	-0.0038998062
40	0xbce24d28	-0.027624682
41	0x3cfffd4f	0.031248717
42	0x3ca24a19	0.019810723
43	0x3c36e397	0.01116266
44	0x3a3f4377	0.0007296125
45	0xb9d403f0	-0.00040438725
46	0xbc88c107	-0.016693605
47	0xbc2d879f	-0.010591417
48	0xbcd5d096	-0.026100438
49	0x3cf8d18e	0.030373361
50	0xbb7029b9	-0.0036645962
51	0x3cc7f3f5	0.02440832
52	0x3c182ea7	0.009288467
53	0x3b11042e	0.0022127735
54	0x3b5a8b76	0.0033347285
55	0x3c63fde6	0.013915515
56	0x3be71a20	0.007052675
57	0x3bb9550a	0.0056558894
58	0x3caeefa1	0.021354498
59	0xbc584420	-0.013199836
60	0x3c4fe6ff	0.012689351
61	0x3c8191c5	0.015816579
62	0x3c92c953	0.017918264
63	0x3cded135	0.027199367
64	0xbc8436f2	-0.016139481
65	0x3cd246af	0.02566847
66	0x3c16ea5c	0.009211149
67	0x3b373899	0.0027957319
68	0xbcb6b64f	-0.022303728
69	0xbc5fa62c	-0.013650458
70	0x3c69b1f1	0.014263616
71	0x3c2ef4e5	0.010678505
72	0x3c598054	0.013275225
73	0xbc1d3e2d	-0.009597343
74	0x3c5905d0	0.013246015
75	0x3c2601c0	0.010132253
76	0x3c6235a5	0.013806735
77	0xbc2a4b3b	-0.010393913
78	0x3cb44a66	0.022008132
79	0xbc0b2721	-0.008493216
80	0x3c1ee37b	0.00969779
81	0x3c643a21	0.013929875
82	0xbc5421ca	-0.012947509
83	0xbcafb731	-0.021449657
84	0xbcdb67d1	-0.026782902
85	0xbc62ec77	-0.013850323
86	0xbcb9eb0f	-0.022695092
87	0xbaafc3ce	-0.0013409795
88	0xbbd8ec5c	-0.006619973
89	0xbc5f2268	-0.013619043
90	0x3c6e1d23	0.014533314
91	0x3c200c2e	0.009768529
92	0x3cc6d40f	0.02427104
93	0x3b9ecea9	0.004846413
94	0x3d3e7a1c	0.04650317
95	0x3c41a447	0.011818952
96	0x3c88cfcc	0.016700648
97	0x3c5f5e17	0.013633273
98	0xbc33da62	-0.0109773595
99	0x3cbe9ffa	0.023269642
100	0x3c6c40ee	0.014419777
101	0x3d0923cc	0.033481404
102	0xbc8ae003	-0.01695252
103	0xbc3209b2	-0.010866569
104	0xbc1b268f	-0.009469642
105	0x3bb4dc18	0.0055194013
106	0x3ce5806c	0.028015338
107	0x3d06c288	0.032900363
108	0x3c2f0a86	0.010683661
109	0x3cb5e3ff	0.022203444
110	0x3c0088cd	0.007845116
111	0x3b3aa28f	0.002847824
112	0xbbb235e0	-0.0054385513
113	0x3c6b809d	0.0143739255
114	0x3d0da4ab	0.034580868
115	0xbc4c30e7	-0.012462831
116	0xbc55da92	-0.0130525995
117	0xbc0fda39	-0.008780056
118	0x3ce0009f	0.027344046
119	0x3b6290b3	0.003457111
120	0x3ba1ff8f	0.004943795
121	0xbb458095	-0.0030136455
122	0xbc654ad8	-0.013994895
123	0x3cf54171	0.029938431
124	0xbc1df846	-0.0096417125
125	0x3c01fe79	0.007934206
126	0x3b125066	0.0022325753
127	0x3c34b23a	0.011028821

fc2.weight f4 [10, 128]
0	0xbd8a2a50	-0.06746352
1	0x3b84cd65	0.0040528052
2	0xbcfffb7b	-0.031247845
3	0xbc8f921c	-0.017525725
4	0x3e15db44	0.14634424
5	0x3dc52d0e	0.09627734
6	0xbe302821	-0.17202808
7	0xbd9bc45b	-0.07605811
8	0xbe1e0672	-0.15432146
9	0x3e04cde8	0.12969172
10	0xbe0d2ab5	-0.13785823
11	0xbd38bcad	-0.04510181
12	0xbe074961	-0.13211586
13	0xbe167251	-0.14692046
14	0x3d32164f	0.043478306
15	0xbc48cb06	-0.012255436
16	0xbdfa63b2	-0.122260466
17	0x3e4b00ed	0.19824572
18	0xbd1870c3	-0.037216913
19	0x3dcf4ec8	0.10122448
20	0x3e7b0fcf	0.24517749
21	0x3d559d35	0.052151877
22	0xbe31e620	-0.17372942
23	0xbde63798	-0.112410724
24	0xbde6ef5a	-0.112761214
25	0xbe0efdd4	-0.13964015
26	0xbd2aa73f	-0.041663405
27	0x3cc11f88	0.023574606
28	0x3e190174	0.1494196
29	0xbe309483	-0.17244153
30	0x3d96dee9	0.073667355
31	0xbd94f27d	-0.072728135
32	0xbdbece39	-0.093166776
33	0x3c8e8d11	0.01740125
34	0x3de79663	0.11307981
35	0xbded50ad	-0.11587653
36	0xbe535164	-0.20636517
37	0xbd6b38cb	-0.05742721
38	0x3d28e3e5	0.041232962
39	0xbcaaba03	-0.02084065
40	0xbd91a722	-0.07111956
41	0x3d8ac793	0.06776347
42	0x3e16410c	0.14673251
43	0xbe1116fd	-0.14168926
44	0xbd09ae58	-0.033613533
45	0x3db6a347	0.089178614
46	0x3cdec888	0.02719523
47	0xbe4a888a	-0.19778648
48	0xbb4a69d9	-0.0030885844
49	0x3e2e423c	0.17017454
50	0x3c3fdd04	0.011710409
51	0x3ddcbb71	0.10777939
52	0x3dcf11b4	0.101107985
53	0xbe51cc41	-0.20488073
54	0xbd621414	-0.05519493
55	0xbc6b3fd5	-0.01435848
56	0x3d9bd7cb	0.076095186
57	0xbdcb2d18	-0.0992071
58	0x3dd9eeda	0.106412604
59	0xbdc3c5e7	-0.09559231
60	0xbe0a6290	-0.13514161
61	0xbe24482e	-0.1604316
62	0x3dc436f1	0.09580792
63	0x3df20d75	0.11818973
64	0xbc4a2fa6	-0.012340462
65	0xbda5cf7b	-0.080962144
66	0xbdbd033f	-0.09229135
67	0xbc98f9bd	-0.018673772
68	0x3e55fb6d	0.20896693
69	0x3dd8e840	0.10591173
70	0x3dda1119	0.10647792
71	0x3defbc42	0.11705829
72	0xbe512ffc	-0.20428461
73	0x3da447cb	0.08021506
74	0x3e23ab67	0.15983354
75	0x3dbd7986	0.092516944
76	0xbdcaf79b	-0.09910508
77	0x3d4ea1e8	0.050447375
78	0xbde72ae2	-0.11287476
79	0x3dc975e7	0.09836941
80	0x3dc0a337	0.09406131
81	0x3dc4444a	0.095833376
82	0xbd9f36a7	-0.07774096
83	0xbd12fd4e	-0.0358861
84	0xbce398e3	-0.027782863
85	0x3d9f7b44	0.07787183
86	0xbce58768	-0.028018668
87	0x3d81a7fe	0.0633087
88	0xbe348019	-0.1762699
89	0x3d89da5a	0.067311004
90	0xbdc100ef	-0.09424006
91	0x3dea913b	0.11453482
92	0x3d85a849	0.065262385
93	0xbb4c3284	-0.003115804
94	0x3dcf3487	0.10117441
95	0xbdc9bf6e	-0.098509654
96	0xbe0a0dab	-0.13481776
97	0xbe86fe9e	-0.26366132
98	0x3dd8dd03	0.1058903
99	0x3d79aee8	0.06095782
100	0x3d4f2d78	0.05058047
101	0x3d692f3e	0.05692982
102	0xbd267f10	-0.04064852
103	0x3d8793fb	0.06620022
104	0xbdb7553c	-0.08951804
105	0xbe91d162	-0.2848006
106	0xbdac06ef	-0.0839976
107	0x3d72d181	0.05928183
108	0xbd1357a5	-0.035972256
109	0xbd831616	-0.06400697
110	0x3d39bd16	0.045346342
111	0x3d8dba10	0.06920254
112	0xbe821b5c	-0.254115
113	0x3d716001	0.058929447
114	0x3e4615c1	0.19344236
115	0xbd8e0fd8	-0.06936616
116	0x3c18d60c	0.0093283765
117	0xbd9cc8c6	-0.07655482
118	0x3d7bed10	0.061505377
119	0xbe0b122d	-0.13581152
120	0x3cfd7edd	0.030944282
121	0xbd126287	-0.035738494
122	0xbe0cce0b	-0.13750474
123	0x3cee3122	0.029076163
124	0xbd939f84	-0.072081596
125	0x3d8c2c71	0.06844414
126	0x3d22186d	0.039574075
127	0xbdd320aa	-0.103089646
128	0xbe01e801	-0.12686159
129	0x3dea41bd	0.1143832
130	0x3d3949ea	0.045236506
131	0x3d9ce9ad	0.076617576
132	0x3dc65f88	0.0968619
133	0x3e431ce1	0.19053985
134	0x3d6dc74b	0.05805139
135	0xbe3908bd	-0.1806974
136	0x3de45fb1	0.11151064
137	0x3cb5dbf0	0.022199601
138	0x3e17b3b4	0.14814645
139	0x3c82829b	0.015931418
140	0x3d804225	0.06262616
141	0xbcb0abed	-0.021566356
142	0x3e84e84e	0.25958484
143	0x3e0d566a	0.13802496
144	0xbbc93480	-0.0061402917
145	0xbe0f7cda	-0.14012471
146	0xbd09838f	-0.03357273
147	0xbdbc46f4	-0.09193221
148	0x3df9146b	0.121620975
149	0x3d20c8ba	0.039253928
150	0x3df7c17d	0.12097452
151	0x3e319bcd	0.1734459
152	0x3dfe0f10	0.12405217
153	0x3dd34e80	0.10317707
154	0xbdad67fb	-0.08467098
155	0xbe1865a7	-0.14882527
156	0xbe11dc2c	-0.14244145
157	0xbcd9efd6	-0.02660362
158	0x3e84098e	0.2578854
159	0xbe0f55e1	-0.13997604
160	0x3d906b74	0.07051745
161	0xbd4b6fcd	-0.04966717
162	0xbe2f4018	-0.17114294
163	0x3be21d97	0.0069005
164	0x3dc18ede	0.09451078
165	0x3e6ef9ea	0.23337522
166	0xbd7d0c6c	-0.061779425
167	0x3da4fb5f	0.08055758
168	0x3c3ba081	0.011451841
169	0xbd63b1f5	-0.055589635
170	0x3d3c0d16	0.045910917
171	0xbb2118d7	-0.0024581456
172	0xbe4078e6	-0.18796119
173	0x3dccb76a	0.09995921
174	0xbaf3338f	-0.0018554794
175	0xbc9e3ae4	-0.01931519
176	0xbdb6a898	-0.089188755
177	0x3e2f3f7a	0.17114058
178	0xbcac108c	-0.021003984
179	0xbd0ce439	-0.034397338
180	0x3d376c9e	0.04478132
181	0xbd959c28	-0.07305175
182	0x3d019eea	0.031645693
183	0xbd063aee	-0.032771043
184	0xbda8cc4d	-0.08242092
185	0xbde252df	-0.11050963
186	0x3d1dbd7c	0.038510785
187	0x3e4321e7	0.19055901
188	0xbd504bca	-0.050853528
189	0x3da2a3f5	0.079414286
190	0xbe6249aa	-0.22098413
191	0x3e43de7b	0.19127838
192	0x3e787d3d	0.24266525
193	0xbe32765e	-0.17427966
194	0xbce0f935	-0.027462581
195	0x3c408187	0.011749632
196	0x3ce1a955	0.027546564
197	0xbe03b31a	-0.1286129
198	0xbdb4c003	-0.08825686
199	0xbe05716f	-0.13031553
200	0xbd3ff882	-0.046867855
201	0xbe0273ca	-0.12739483
202	0xbe08186e	-0.13290569
203	0x3ddd4030	0.108032584
204	0x3d8fabf8	0.07015222
205	0xbd6c4d0d	-0.05769067
206	0x3e836862	0.25665575
207	0xbd546699	-0.051855657
208	0xbe0e2de7	-0.13884698
209	0x3e3f0971	0.18655945
210	0xbe2371b9	-0.1596135
211	0xbda584f0	-0.080819964
212	0xbe2d8691	-0.16945864
213	0x3dcd2cfd	0.100183465
214	0x3b6c542f	0.003606092
215	0x3d983a1b	0.07432958
216	0x3d4133af	0.04716843
217	0xbd3f94e2	-0.046772845
218	0xbd54f456	-0.05199083
219	0xbe3680da	-0.1782259
220	0xbc21d313	-0.009876984
221	0xbd8549dd	-0.06508229
222	0x3e1b1353	0.1514409
223	0xbde57912	-0.11204733
224	0x3dbfb6c7	0.09361034
225	0x3dcc2ac1	0.09969092
226	0xbde8a42c	-0.11359438
227	0xbd97d1ed	-0.07413087
228	0x3d994979	0.07484717
229	0x3d599dcb	0.053129
230	0x3df29051	0.118439324
231	0xbd33299e	-0.04374086
232	0x3c8e33c6	0.017358672
233	0xbdb70f60	-0.089384794
234	0x3dcea41f	0.10089897
235	0x3d19d782	0.03755904
236	0xbd9d3055	-0.07675234
237	0x3daa2d32	0.083094016
238	0xbe10aeba	-0.14129153
239	0x3dc8b3fb	0.097999536
240	0xbdeb05e4	-0.11475733
241	0xbc0d6b67	-0.008631564
242	0xbe25512e	-0.16144249
243	0xbdb53ce0	-0.088495016
244	0xbd3d510d	-0.046219874
245	0x3d2fd7ed	0.042930532
246	0x3c96548b	0.01835086
247	0x3d522b44	0.051310793
248	0x3d97e551	0.074167855
249	0xbdce0087	-0.10058694
250	0x3d9df13c	0.077120274
251	0x3dd0f0f3	0.102022074
252	0xbc8f2e7c	-0.01747822
253	0x3e04e086	0.12976274
254	0xbd932bbc	-0.07186076
255	0x3d0d7564	0.03453578

fc2.bias f4 [10]
0	0xbc7fe87c	-0.015619393
1	0x3dd3300c	0.103118986
2	0xbd472e5b	-0.048628192
3	0xbdb7eb37	-0.089804105
4	0xbd8e7d45	-0.06957487
5	0x3b69a54b	0.00356515
6	0xbc8cd954	-0.017193474
7	0x3d8c2894	0.06843677
8	0xbdf02078	-0.11724943
9	0xbd6f8556	-0.05847677
