mnist_simple_full.pt (torch_old, 699337 bytes, 6 tensors)

0.conv1.weight f4 [8, 1, 3, 3]
0	0xbf065387	-0.524712
1	0xbe2d43cc	-0.16920394
2	0xbeb7010f	-0.35742995
3	0x3e8d065b	0.2754391
4	0x3e7b006e	0.24511883
5	0xbea81b2a	-0.32833225
6	0xbdb55a0b	-0.08855065
7	0xbd007636	-0.031362735
8	0x3e81adfb	0.2532805
9	0x3d276c0c	0.040874526
10	0x3d8293a9	0.0637582
11	0x3e0ee404	0.13954169
12	0xbe26f729	-0.16305222
13	0xbe881d4e	-0.26584858
14	0x3e073402	0.13203433
15	0xbdbb938f	-0.09159004
16	0xbe99b1f4	-0.3001858
17	0xbcf20126	-0.029541563
18	0x3f083220	0.53201485
19	0x3f9de93d	1.2336804
20	0x3f91eddd	1.1400715
21	0x3e85b6f2	0.2611614
22	0x3f1ce191	0.6128169
23	0x3f70c26f	0.9404668
24	0xbe9028ee	-0.28156227
25	0x3be99d4e	0.007129348
26	0x3f4a0e8f	0.78928465
27	0x3f41088d	0.7540367
28	0x3f3eb67b	0.74497193
29	0x3f62896b	0.88490933
30	0x3f4a592c	0.79042315
31	0x3f8ca29e	1.0987127
32	0x3f5e04f0	0.86726284
33	0x3f6ae6ac	0.9175823
34	0x3f612d27	0.8795952
35	0x3e0875c3	0.13326173
36	0x3f2c58dd	0.67323095
37	0x3f028b05	0.50993377
38	0x3f5273f6	0.8220819
39	0x3f42e8ee	0.7613667
40	0x3e046467	0.12928925
41	0x3e59d9c5	0.21274479
42	0x3e136619	0.14394416
43	0x3dd0d2d5	0.10196463
44	0x3ee6fb6a	0.4511369
45	0x3f1b3eae	0.60642517
46	0x3f096692	0.53672135
47	0x3d0529db	0.03251062
48	0x3f1ca6b8	0.6119189
49	0x3f675bf4	0.90374684
50	0x3f6eb545	0.93245345
51	0x3f1645a3	0.5870001
52	0x3f0c25b5	0.54745036
53	0x3f4d7fc1	0.8027306
54	0x3f856320	1.0420876
55	0x3f677493	0.90412253
56	0x3e7f1af5	0.24912627
57	0x3f8d3c90	1.1034107
58	0x3f3fde03	0.7494814
59	0xbd1906ab	-0.037359875
60	0x3f62b863	0.885626
61	0x3e51dd0e	0.20494482
62	0x3d842263	0.06451871
63	0x3e82b746	0.25530452
64	0x3e8777b9	0.2645853
65	0x3f02c150	0.5107622
66	0x3f7dd91e	0.9915942
67	0x3f2b162a	0.66830695
68	0x3df23b18	0.118276775
69	0x3f43f9ba	0.7655293
70	0x3e309e94	0.17247993
71	0xbeb67e68	-0.35643315

0.conv1.bias f4 [8]
0	0x3ecaeb2a	0.3963254
1	0xbe9b7713	-0.30364284
2	0xb9081e49	-0.00012981253
3	0xba87bb16	-0.0010355439
4	0x3a4777fe	0.0007609128
5	0xba1c4075	-0.00059605326
6	0x3d856f74	0.065153986
7	0xba285c02	-0.00064224016

0.fc1.weight f4 [128, 1352]
0	0x3c83c3ae	0.016084518
1	0xbc80463c	-0.01565849
2	0xbc9ecdb3	-0.019385194
3	0x3ca8cd2c	0.020605646
4	0x3ce53591	0.027979644
5	0xbcb4b2fb	-0.022058
6	0x3c2b470f	0.010453953
7	0xbc44cac5	-0.012011235
8	0xbc96d4f2	-0.018412087
9	0xbc3625f2	-0.011117445
10	0x3c99f230	0.018792242
11	0x3cd0d5eb	0.025492629
12	0x3aa02d16	0.0012220468
13	0xbc5c56e0	-0.013448447
14	0x3cb9720d	0.022637391
15	0x3b8a9926	0.0042296825
16	0xbb826b80	-0.0039801
17	0xbc3823e0	-0.011239022
18	0xbc8aab4b	-0.016927382
19	0x3b93fa53	0.004515925
20	0x3c138e70	0.009006128
21	0x3ca9361c	0.020655684
22	0x3ccb0885	0.024784336
23	0x3cb54bc8	0.022130862
24	0x3c3ca62a	0.011514226
25	0x3ce322c4	0.027726538
26	0x3c110090	0.008850232
27	0x3abe4748	0.0014517093
28	0x3bad67ae	0.0052919006
29	0x3b15aaec	0.0022837473
30	0xbc8ee06e	-0.017441
31	0x3ba0e43a	0.004910019
32	0x3cd599f8	0.026074395
33	0xbb0ff889	-0.0021968207
34	0x3ce2c47d	0.027681584
35	0x3ce57936	0.0280119
36	0xbc89165d	-0.016734296
37	0x3ba5366f	0.0050418894
38	0x3ccd5f17	0.025069756
39	0xbbaf582b	-0.0053510866
40	0x3c7016c1	0.014653862
41	0xbc8aff2c	-0.016967379
42	0x3a784fc6	0.00094723364
43	0xbcaf6a07	-0.021412862
44	0x3ce799d9	0.028271602
45	0xbc888d5a	-0.016668964
46	0x3d31d881	0.043419365
47	0x3d403c12	0.046932288
48	0x3d1d1dc6	0.038358472
49	0xbc9c059e	-0.019045647
50	0xbb752401	-0.0037405493
51	0xb974344c	-0.00023289135
52	0x3c8f1c05	0.017469415
53	0x3c991098	0.01868467
54	0xbce18cf4	-0.027533032
55	0xba834f03	-0.0010018054
56	0xbb885ed2	-0.004161694
57	0x3cb125ff	0.021624563
58	0xbbfe681f	-0.007763877
59	0x3d148a13	0.03626449
60	0x3cf71a33	0.03016386
61	0xbb384a8a	-0.00281206
62	0x3ccbb909	0.024868505
63	0x3c5d814b	0.013519595
64	0x3ca16d4d	0.019705439
65	0xbc88943a	-0.016672242
66	0xbc907e24	-0.017638274
67	0xbc0feaf7	-0.008784047
68	0xbc5a786f	-0.013334378
69	0xbd07bccf	-0.033139046
70	0x3a393ea2	0.0007066523
71	0x3c8952fa	0.0167632
72	0xbbcc3349	-0.0062316996
73	0xbc706d77	-0.014674536
74	0x3a5ef4c8	0.0008505103
75	0x3c8876f3	0.016658282
76	0xbca9eb51	-0.02074209
77	0xbab94c6e	-0.0014137158
78	0xbbbc0d98	-0.005738925
79	0xbce97441	-0.028497817
80	0x3c03f05a	0.00805291
81	0xbb46020c	-0.0030213622
82	0x393df603	0.00018116091
83	0x3b0ab3b3	0.0021164238
84	0x3ccaf6cd	0.024775887
85	0x3c2c5190	0.010517493
86	0xbbb0c4cb	-0.0053945533
87	0x3b94e6ed	0.00454413
88	0x3c5d34cd	0.013501358
89	0xbce71939	-0.02821027
90	0x3c3a6ef6	0.011378994
91	0x3ce90f99	0.02844982
92	0xba421985	-0.00074043154
93	0xbca85634	-0.020548917
94	0xba52933d	-0.00080328045
95	0xbc7f3483	-0.015576485
96	0x3cc1c627	0.023654057
97	0x3cc4b43a	0.02401172
98	0x3939e2dd	0.00017727488
99	0x3bca8d48	0.006181393
100	0xbcfaca90	-0.030614167
101	0x3b308ef5	0.0026940678
102	0x3ca9b957	0.02071826
103	0xbc2456d7	-0.01003047
104	0x3c8cb80b	0.017177602
105	0x3ce5ea16	0.028065722
106	0xbc810a6d	-0.015752042
107	0xbcad1b44	-0.021131165
108	0x3c04e5e2	0.008111449
109	0xbc779430	-0.015111014
110	0x3cadcd2e	0.021216001
111	0xbc3bcdad	-0.011462611
112	0xbcca43f7	-0.024690611
113	0xbc28b706	-0.010297542
114	0xbc9a1032	-0.01880655
115	0xbcbd1199	-0.02307968
116	0xbca99331	-0.02070007
117	0xbcc0db6f	-0.023542134
118	0x3baba950	0.0052386895
119	0x3868c551	5.5496876e-05
120	0x3ccbd12b	0.024880012
121	0xbc0373cb	-0.008023213
122	0xbc78a297	-0.015175483
123	0x3c3d51f8	0.011555187
124	0x3ba255f3	0.0049540936
125	0xbc6cbd82	-0.014449479
126	0xbb40bf77	-0.0029410997
127	0x3cbcad8c	0.023031972
128	0xbba58628	-0.005051393
129	0xb716baea	-8.984216e-06
130	0xba6e8284	-0.0009098428
131	0xbcbca68b	-0.023028633
132	0x3c2d1b0a	0.010565529
133	0x3c3f2baf	0.01166813
134	0x3d22877b	0.039679985
135	0x3d0b39d6	0.033990704
136	0x3cc6f8c9	0.024288552
137	0x3c401fea	0.011726359
138	0xbcc8d2b5	-0.024514535
139	0x3c8b2fe2	0.016990606
140	0x3c23157d	0.009953854
141	0xbb271fc3	-0.002550111
142	0xbca00816	-0.019535106
143	0xba0b08a9	-0.00053037197
144	0xbc88253e	-0.016619321
145	0xb8644e2d	-5.4432243e-05
146	0x3c589344	0.013218705
147	0xbb0286c1	-0.0019916745
148	0x3c76ce7e	0.01506388
149	0x3c30bb35	0.010786821
150	0x3c0b2a02	0.008493902
151	0x3b6f2101	0.0036488178
152	0xbc640d7b	-0.01391923
153	0xbcd48938	-0.025944337
154	0x3c2859b3	0.010275292
155	0x3c3aa213	0.011391181
156	0xbc641629	-0.013921299
157	0x3ba01391	0.004885145
158	0x3c224daa	0.009906212
159	0x3bc928df	0.0061389054
160	0x3be94dc0	0.007119864
161	0xbc28cf52	-0.010303335
162	0xbca0577e	-0.01957297
163	0x3a59c55f	0.00083073037
164	0x3c3c2acf	0.011484816
165	0xbc3e77c4	-0.011625234
166	0x3bdf2110	0.0068093613
167	0xbc3e6f6f	-0.0116232475
168	0xbc0b4430	-0.008500144
169	0xbc19eace	-0.009394361
170	0xbc9a5058	-0.018837139
171	0x3c4bdfa4	0.012443457
172	0xbc93efce	-0.018058684
173	0xbc8ec702	-0.017428879
174	0x3cc52ee6	0.024070214
175	0xbbf957f0	-0.00760936
176	0xbc54f8d4	-0.012998778
177	0x3ae95f90	0.0017804969
178	0xb8272000	-3.9845705e-05
179	0x3a829740	0.0009963289
180	0x3b8699a0	0.004107669
181	0xbc4b43a9	-0.012406268
182	0x3cb69434	0.022287466
183	0xbc5d55de	-0.013509242
184	0x3b822928	0.0039721914
185	0xbcdb6a26	-0.026784014
186	0xbcb0bc41	-0.021574141
187	0xbc35cc32	-0.011096047
188	0xbc6def45	-0.014522378
189	0xbcd72d4a	-0.026266713
190	0xbcd15687	-0.025553955
191	0x3c8cc450	0.017183453
192	0xbcad9274	-0.021187998
193	0x3ba64240	0.0050738156
194	0x3c633f10	0.013870016
195	0xbc30eac2	-0.010798158
196	0x3b1e4e20	0.0024155453
197	0x3b35ae35	0.0027722244
198	0xbc4585a9	-0.012055793
199	0x3c2bdfc0	0.010490358
200	0xbcaf81eb	-0.021424254
201	0x3bc8f163	0.006132291
202	0x3ccefcb4	0.025266983
203	0x3c660bd5	0.014040907
204	0xbb087115	-0.0020819355
205	0xbb8dd74c	-0.004328644
206	0x3c817b7e	0.015805956
207	0xbc719f17	-0.014747403
208	0xbc89eb03	-0.016835695
209	0x3c880670	0.016604632
210	0xbbfc9116	-0.0077077253
211	0x3b63d701	0.0034765603
212	0xbc9109a4	-0.017704792
213	0x3cd13644	0.025538571
214	0x3cb34249	0.021882193
215	0x3cb919c9	0.022595303
216	0x3ccc8a06	0.024968158
217	0xbccfe31a	-0.025376845
218	0x3ba71072	0.005098396
219	0x3bd20e41	0.0064103906
220	0xbbb76214	-0.0055964086
221	0xbc7e0ce5	-0.015506004
222	0xbbc0aa6e	-0.005879692
223	0xbc95b35b	-0.018274
224	0x3c3c3d94	0.011489291
225	0x3c8dd120	0.017311633
226	0xbc8b216b	-0.016983708
227	0xbbbc6032	-0.005748772
228	0xbbd8fca1	-0.0066219126
229	0xbcaa87cc	-0.020816706
230	0xbcbb6363	-0.02287454
231	0xbc897bb3	-0.016782617
232	0xbcac48fc	-0.021030895
233	0xbbc5a9d0	-0.006032206
234	0x3be8add8	0.007100802
235	0x3c156f69	0.0091208005
236	0x3cca134d	0.024667406
237	0x3bd9b5c8	0.0066439845
238	0x3c2289e3	0.00992057
239	0xbc9bd0f4	-0.019020535
240	0x3c651760	0.013982624
241	0x3bae77b5	0.005324329
242	0x3ca80fca	0.020515341
243	0xba8de430	-0.0010825451
244	0x3cb461ac	0.02201923
245	0x39b81aa8	0.00035115075
246	0x3cae3264	0.021264262
247	0xbc857c56	-0.01629464
248	0x3c92385a	0.017849136
249	0x3b3285f3	0.0027240484
250	0x3cb31030	0.021858305
251	0xbcc5b55b	-0.024134329
252	0xbbc8e7ba	-0.0061311396
253	0xbca43cda	-0.020048548
254	0xbc6274a3	-0.013821754
255	0x3cd2a157	0.025711698

0.fc1.bias f4 [128]
0	0x3b0edf4a	0.002180057
1	0xbb781aa5	-0.0037857678
2	0xbcc95e65	-0.024581144
3	0x3ce6f3c0	0.028192401
4	0xbb101129	-0.0021982885
5	0x3c5d17f3	0.0134944795
6	0xba5391cc	-0.00080707367
7	0x3d639479	0.055561516
8	0xbc237a5e	-0.009977905
9	0x3d87af0b	0.06625184
10	0xbceb7745	-0.028743396
11	0x3c879fef	0.016555754
12	0x3badd7ec	0.005305281
13	0x3d15367a	0.036428906
14	0xbb1e89fd	-0.0024191134
15	0xbab33fce	-0.0013675631
16	0x3d661be8	0.056178957
17	0xbc98a5aa	-0.018633682
18	0xbd0a8c73	-0.03382535
19	0xbaec2f3b	-0.0018019447
20	0x3d16c192	0.036805697
21	0xbc0c13ba	-0.008549625
22	0xbc9a8a4b	-0.018864771
23	0x3d593b5a	0.053035118
24	0xba71cd0f	-0.00092239765
25	0x3bdee062	0.006801651
26	0x3d549f27	0.051909592
27	0x3cfb38de	0.030666765
28	0x3c8cec80	0.017202616
29	0x3d094baf	0.033519443
30	0x3d12a79c	0.035804376
31	0xbb7d1998	-0.0038619991
32	0x3d8d4814	0.068985134
33	0xbbf70eb3	-0.007539594
34	0x3d222d26	0.03959384
35	0xbcd106aa	-0.025515873
36	0x3b8561e1	0.004070506
37	0xbceb063c	-0.028689496
38	0x394d3258	0.00019569078
39	0xbc8b92a5	-0.017037699
40	0x3cedff44	0.029052384
41	0xbb8716bf	-0.0041225846
42	0xbad3c489	-0.0016156595
43	0x3d857c30	0.065178275
44	0x3c32bc74	0.010909189
45	0x3cd6fe61	0.026244344
46	0x3d11cd69	0.035596285
47	0x3cc20085	0.023681888
48	0x3bc288d3	0.005936721
49	0xbb551430	-0.0032513253
50	0x3d850f6e	0.064970836
51	0x3ce58046	0.028015267
52	0x3c3f0a9e	0.011660246
53	0x3c96244c	0.018327855
54	0xbc4c398e	-0.012464894
55	0xbd1021d9	-0.03518853
56	0x3d28ebb8	0.041240424
57	0x3cd57ce0	0.026060522
58	0xbcb5a606	-0.022173893
59	0xbb4d7a21	-0.0031353312
60	0xbc847f91	-0.01617411
61	0xbc62d9b8	-0.0138458535
62	0x3c0add54	0.00847562
63	0x3c82b0a1	0.015953364
64	0x3c6f536d	0.014607293
65	0x3c985120	0.01859337
66	0x3b0e9408	0.0021755714
67	0x3cc6b376	0.024255496
68	0xbbc28c72	-0.0059371525
69	0x3ca93650	0.020655781
70	0x3cadae64	0.02120132
71	0x3d1f5285	0.038897056
72	0x3cb13823	0.021633213
73	0x3b5451c3	0.0032397367
74	0xba5814e5	-0.00082428596
75	0x3d41d909	0.04732612
76	0x3ca9f9ae	0.02074894
77	0xbcac5008	-0.021034256
78	0x3bfd829a	0.007736516
79	0x3c9635ba	0.018336166
80	0xbcb5f810	-0.022213012
81	0x3cddac5d	0.027059728
82	0x3d3d7005	0.04624941
83	0xbbdfbdc7	-0.006828043
84	0xbb6dfe7e	-0.003631502
85	0x3ccffbce	0.025388625
86	0x3cb74a81	0.022374393
87	0x3cc1a998	0.023640439
88	0x3ce12c3d	0.027486915
89	0x3d0069d1	0.031350914
90	0x3ccf6986	0.025318872
91	0x3b3fa37a	0.0029241727
92	0x3cbd6e18	0.023123786
93	0x3c3f2e16	0.011668703
94	0x3d7d97cc	0.061912343
95	0xbc178871	-0.009248839
96	0xbd059dd8	-0.032621235
97	0x3c95ecf3	0.018301463
98	0xbcb6cfa5	-0.02231581
99	0x3d3f5279	0.04670951
100	0x3c16e8ff	0.009210824
101	0x3d563ffa	0.052307107
102	0xba4be5b1	-0.0007778062
103	0x3be2da9c	0.006923033
104	0xbb612baf	-0.0034358313
105	0xbc2f348e	-0.010693682
106	0x3c840cbc	0.016119353
107	0x3c7b995e	0.01535639
108	0x3ca8319b	0.020531466
109	0x3c982743	0.018573409
110	0x3d08f87a	0.03344009
111	0x3d33e97e	0.043923847
112	0xbc987c58	-0.01861398
113	0x3b99c9f7	0.0046932655
114	0x3d60bb2b	0.054865997
115	0xbc479bbe	-0.012183128
116	0xbc2283f9	-0.00991916
117	0x3c0f619d	0.0087513
118	0x3cdb60ea	0.02677961
119	0x3bd8e868	0.006619502
120	0x3d613dca	0.054990567
121	0x3d848be8	0.064719975
122	0x3aa15de3	0.0012311306
123	0x3d7778a1	0.060417775
124	0x3c69fa16	0.014280817
125	0xbd205ea6	-0.039152764
126	0x3caef049	0.021354811
127	0x3b9c06cc	0.0047615524

0.fc2.weight f4 [10, 128]
0	0xbd2058f2	-0.039147325
1	0x3db0d78a	0.08634861
2	0x3cf48262	0.029847328
3	0x3e8c1f41	0.27367595
4	0x3b258921	0.0025258737
5	0xbda902c6	-0.08252482
6	0x3d529bc9	0.0514181
7	0xbde47135	-0.11154405
8	0xbe28fab9	-0.16501893
9	0xbde49a22	-0.11162211
10	0xbd074a72	-0.03302998
11	0xbd177323	-0.036975037
12	0x3d0c0820	0.034187436
13	0xbca26a98	-0.019826218
14	0x3e62ce12	0.22148922
15	0x3e4c4c57	0.19950996
16	0x3d4d346f	0.050098833
17	0x3dd48afb	0.10378071
18	0x3dc85998	0.09782714
19	0xbe852892	-0.26007515
20	0xbb3e07b6	-0.0028996295
21	0xbdb9ec1a	-0.09078236
22	0xbe920fb9	-0.2852762
23	0x3e0ce116	0.13757738
24	0xbe6b8aae	-0.23002121
25	0x3d71f6f2	0.059073396
26	0x3e40f17f	0.18842123
27	0xbe3162ed	-0.17322893
28	0xbd816f5a	-0.06320067
29	0x3e0c5950	0.13705945
30	0x3dcd6e34	0.10030785
31	0xbe22dfde	-0.15905711
32	0xbe27d1d8	-0.16388643
33	0x3ca6bf24	0.020354815
34	0xbe101862	-0.14071801
35	0x3d8970ec	0.06710991
36	0xbe962644	-0.2932607
37	0xbc828ccd	-0.01593628
38	0xbde08441	-0.109627254
39	0xbd8da29b	-0.0691578
40	0x3dde1aee	0.1084498
41	0x3e48a222	0.19593099
42	0xbd9d679d	-0.07685778
43	0xbce423a3	-0.027849024
44	0x3dc88df3	0.097927
45	0x3d2bb780	0.041923046
46	0xbc9d9856	-0.019237678
47	0x3c6a5c79	0.014304274
48	0xbd169975	-0.03676744
49	0xbe5aac4a	-0.21354786
50	0x3c3231f3	0.010876167
51	0xbe160b18	-0.1465267
52	0xbdebe42d	-0.115181305
53	0x3dbe7f7c	0.093016595
54	0x3d6956c2	0.056967504
55	0x3e2e9019	0.17047156
56	0x3e3fe904	0.18741232
57	0xbe1363aa	-0.14393488
58	0xbc21f03f	-0.009883939
59	0xbdd61846	-0.104538485
60	0xbd85dede	-0.06536649
61	0xbdfca9fc	-0.123371094
62	0xbd9f9fad	-0.077941276
63	0x3cd63f1f	0.026153145
64	0xbdd1fa4a	-0.10252817
65	0xbd345476	-0.04402586
66	0x3da98364	0.08277014
67	0xbc649236	-0.013950875
68	0x3d8440e7	0.06457692
69	0x3e14e7ad	0.14541502
70	0xbc932ff3	-0.0179672
71	0xbe2c9a59	-0.16855754
72	0x3df3090f	0.11866962
73	0x3c7702a9	0.015076318
74	0x3cf27b21	0.029599728
75	0x3e6c3827	0.23068295
76	0xbe142e14	-0.14470702
77	0x3d29966c	0.04140322
78	0x3e0acfce	0.13555834
79	0x3da4ab8b	0.08040532
80	0x3d346f47	0.044051435
81	0x3cd2df0e	0.025741126
82	0x3df1cfad	0.11807189
83	0xbda1759f	-0.078837626
84	0xbea6665c	-0.3249997
85	0xbd8fa592	-0.07014002
86	0xbe2f7023	-0.1713262
87	0x3e269b41	0.16270162
88	0x3dde6044	0.10858205
89	0x3e5da4aa	0.21644846
90	0x3d9ed3cc	0.07755241
91	0xbd6e81f4	-0.0582294
92	0xbc8dd0a4	-0.017311402
93	0xbdfd7567	-0.12375908
94	0x3c858875	0.01630042
95	0xbe1c853d	-0.15285201
96	0x3dc53a04	0.09630206
97	0x3db327f4	0.08747855
98	0x3d2f1431	0.042743865
99	0x3e23726c	0.15961617
100	0xbd57e125	-0.05270495
101	0xbe87dee3	-0.26537237
102	0x3e2dc82d	0.16970892
103	0x3cd02a03	0.025410658
104	0x3c003580	0.007825255
105	0xbd5fa0d8	-0.054596752
106	0xbbcda245	-0.0062754476
107	0x3e30f6ea	0.1728169
108	0x3e2d6a4d	0.16935082
109	0xbcbc30f8	-0.022972569
110	0xbcfc3faa	-0.030792076
111	0xbe2dbd64	-0.16966778
112	0x3d520dc4	0.05128266
113	0xbdbb0d7a	-0.0913343
114	0xbe91ed6c	-0.2850145
115	0xbdc2a8a6	-0.095048234
116	0x3d929270	0.07156837
117	0xbdd0b980	-0.10191631
118	0xbeb463f8	-0.3523252
119	0xbd9567d4	-0.07295194
120	0x3c6f9af7	0.014624349
121	0xbe20b5ac	-0.15694302
122	0x3e639db2	0.22228125
123	0xbe384fe1	-0.17999221
124	0xbd7cd265	-0.061724085
125	0x3dd19746	0.10233931
126	0x3e0fcfd9	0.14044131
127	0xbc99fcf9	-0.018797385
128	0xbe869539	-0.26285723
129	0xbdfce02b	-0.12347444
130	0xbccb42f6	-0.024812203
131	0x3c266cfb	0.010157819
132	0xbdb41ebe	-0.08794926
133	0xbe02ed59	-0.12785853
134	0x3ba6bf0a	0.0050886916
135	0x3dd49fd5	0.10382048
136	0x3dc97de3	0.09838464
137	0xbe109a03	-0.14121251
138	0xbe40d586	-0.18831453
139	0xbc7bbeb1	-0.015365289
140	0xbe10c37c	-0.14137071
141	0xbe36a4b9	-0.17836274
142	0xbdcce9e1	-0.10005546
143	0xbd90aa7e	-0.07063769
144	0x3e791c0f	0.2432711
145	0x3d1d0f9e	0.03834497
146	0xbe298638	-0.16555107
147	0x3e1f68fa	0.15567389
148	0x3d0bd8b8	0.034142226
149	0x3c12e96f	0.008966788
150	0xbdb242cd	-0.087041475
151	0x3e42a44d	0.19007988
152	0x3e5154b2	0.20442465
153	0x3e78d0ae	0.24298355
154	0x3bd62f91	0.006536432
155	0x3d3e7503	0.04649831
156	0x3e14b9cf	0.14524005
157	0x3e30111e	0.1719403
158	0xbdc0afde	-0.09408544
159	0xbddfe9c2	-0.10933258
160	0x3d04519e	0.0323044
161	0xbe813990	-0.2523923
162	0x3e6c1145	0.23053463
163	0xbc60573d	-0.013692674
164	0xbca6fa90	-0.02038315
165	0xbe12ab43	-0.14323144
166	0x3e11ef4e	0.14251444
167	0x3b8b39f9	0.0042488542
168	0xbd80a9c0	-0.06282377
169	0xbc30fbf9	-0.010802262
170	0x3e206483	0.15663342
171	0x3e5459ae	0.20737335
172	0xbe0e733c	-0.13911146
173	0x3c43a987	0.011942274
174	0x3e3786a0	0.17922449
175	0x3e4e0273	0.20118122
176	0x3d2a1b8d	0.04153018
177	0x3de14b27	0.11000662
178	0xbe40f446	-0.18843183
179	0x3c8f6a6a	0.017506797
180	0x3db73dd8	0.08947343
181	0x3c1b4731	0.009477423
182	0x3db824c0	0.089913845
183	0xbe0d2e40	-0.13787174
184	0x3d88e673	0.0668458
185	0x3dc7d08f	0.09756576
186	0xbc87d351	-0.016580256
187	0x3e558b61	0.2085395
188	0xbd98c8dd	-0.07460187
189	0xbdbb3e15	-0.091427006
190	0xbe62d446	-0.22151288
191	0x3e186336	0.14881596
192	0x3d9c1899	0.07621879
193	0xbc34bfca	-0.011032054
194	0xbcc6057d	-0.024172539
195	0x3d0504be	0.032475226
196	0x3cc4dc4f	0.024030833
197	0xbda58d46	-0.080835864
198	0x3d37d6e5	0.044882674
199	0x3ddc9e31	0.1077236
200	0x3cab20aa	0.020889599
201	0x3d95f01a	0.07321186
202	0xbdd62628	-0.104564965
203	0x3e36ef0a	0.17864624
204	0x3d1c6bb5	0.038188655
205	0x3e67f5d4	0.2265237
206	0xbea85e5b	-0.32884488
207	0x3e29de3e	0.16588685
208	0x3e3e97e9	0.18612637
209	0x3d0b2353	0.033969235
210	0x3e3851de	0.1799998
211	0x3d191096	0.037369333
212	0xbe704bcf	-0.23466419
213	0x3cdfdbe3	0.02732653
214	0xbddfdb5a	-0.1093051
215	0xbe818243	-0.25294694
216	0xbc904169	-0.017609315
217	0xbcd067ee	-0.025440183
218	0x3e8d8df5	0.27647367
219	0xbe210ab8	-0.15726745
220	0x3d29f57c	0.041493878
221	0x3d720b89	0.059093032
222	0x3e843f39	0.25829485
223	0xbc962723	-0.018329209
224	0xbe4657ee	-0.1936948
225	0xbcdf461f	-0.027255116
226	0xbda2d7a5	-0.07951287
227	0x3e3f7403	0.18696599
228	0xbd902def	-0.07040011
229	0x3d62ed20	0.05540192
230	0x3c9993ce	0.018747237
231	0xbd67071c	-0.056403264
232	0xbd6e65d0	-0.058202565
233	0xbbc2e934	-0.00594821
234	0x3ccae976	0.024769526
235	0xbe58b963	-0.2116447
236	0xbe456b87	-0.192793
237	0x3ddc781b	0.10765096
238	0xbbf52038	-0.0074806474
239	0x3e45d4da	0.19319478
240	0x3c3ff3ee	0.011715872
241	0xbc81307e	-0.015770193
242	0x3de55eac	0.11199698
243	0xbdd41032	-0.103546515
244	0x3d081e77	0.03323218
245	0xbdeec996	-0.11659543
246	0x3e5ac4ab	0.21364085
247	0x3d9142be	0.07092808
248	0x3dc694f1	0.09696377
249	0x3d37137b	0.044696312
250	0x3cad3af0	0.021146268
251	0xbbddd832	-0.0067701573
252	0xbe28e548	-0.16493714
253	0x3e06b89d	0.13156362
254	0xbe02e895	-0.12784036
255	0xbcd6da39	-0.026227104

0.fc2.bias f4 [10]
0	0xbca3d86a	-0.020000655
1	0x3e1e100c	0.15435809
2	0xbd95c38e	-0.0731269
3	0xbcf5e7a9	-0.03001769
4	0xbbdd86c1	-0.0067604487
5	0x3d6a84e8	0.057255656
6	0x3d4f6dbf	0.05064177
7	0x3d1866f5	0.037207562
8	0x3d36c281	0.044619087
9	0x3cc47d5f	0.023985563
