mnist_autoencoder.pt (torch_old, 780286 bytes, 13 tensors)

encoder.0.weight f4 [32, 1, 3, 3]
000000 4d 2d 75 bd 89 ca b6 3e 1d 79 0a be 1b 8a d6 3e
       -0.059857655 0.35701397 -0.13522764 0.4190224
000010 40 21 70 3f 3e fd d8 3d 50 26 c3 3d 64 4b d0 3e
       0.93800735 0.10595177 0.09528792 0.40682518
000020 2f e8 8d be 24 c7 26 00 74 f9 23 00 59 ee 1d 00
       -0.27716205 3.561187e-39 3.303729e-39 2.748732e-39
000030 52 38 0f 00 54 76 0f 00 bb b6 1d 00 71 f2 1a 00
       1.397736e-39 1.41998e-39 2.728781e-39 2.474694e-39
000040 ee 2e 1a 00 ed 12 0b 00 49 ae b5 3e a2 d0 ed bc
       2.404558e-39 1.01698e-39 0.35484532 -0.029030148
000050 ec 90 c2 be 3f e0 7d 3e df 37 9d 3e 0a de 28 3e
       -0.38001192 0.24792574 0.3070669 0.16490951
000060 06 8c f5 3d fc a9 87 3e 87 17 29 3e 48 57 4d 3e
       0.11989598 0.26496875 0.16512881 0.20052826
000070 53 b7 a3 3e c6 79 60 3e 78 e7 90 3e 6f 9f 46 3b
       0.31975803 0.21921453 0.28301597 0.0030307432
000080 1a 17 dc bd f5 32 d3 3e 52 b2 97 3e 63 b3 a6 3e
       -0.10746594 0.41249815 0.29628235 0.32558736
000090 46 a1 ab 3d a1 2f 06 3f 0e 9d a4 3e 17 67 11 3e
       0.0838037 0.52416426 0.32151073 0.14199482
0000a0 8d e3 cb 3e 6d 1a 0f bd df 86 98 bd 51 c6 ec bd
       0.39822045 -0.03493731 -0.074475996 -0.11561263
0000b0 2c fd 0d bf fc 6f 94 be 5d a6 e9 3e 25 2e cf 3e
       -0.55464435 -0.28991687 0.45634738 0.40464893
0000c0 f8 1e 28 bf 8b f9 a5 3e 2a 8e 6f 3e 63 e4 c6 be
       -0.65672255 0.3241695 0.23394075 -0.3884612
0000d0 40 42 1c 3e 92 8c 49 3e 11 c9 01 80 eb 12 03 00
       0.15259647 0.1968253 -1.63965e-40 2.82293e-40
0000e0 68 7c 0d 80 6f e6 10 00 d7 b8 08 00 d6 d1 02 80
       -1.23849e-39 1.552032e-39 8.00992e-40 -2.58946e-40
0000f0 a2 23 2b 00 57 a8 3a 00 da e6 0f 00 01 86 0c 3e
       3.961709e-39 5.386848e-39 1.460346e-39 0.13722993
000100 1c 90 27 be 93 d1 32 3e 9f a5 ec bd 79 cc 31 bf
       -0.16363567 0.17462759 -0.11555027 -0.69452626
000110 65 d6 77 bd a6 d1 4f 3e 5e f8 84 be fa 85 79 3e
       -0.060507197 0.20294818 -0.2597074 0.24367514
000120 87 dc 02 3f ff 3d 37 3e 18 63 93 3d 59 6b a8 3e
       0.5111775 0.17894743 0.07196635 0.328944
000130 28 e1 a4 3d 83 4c 97 3d f6 d9 a9 bd be 83 6c 3e
       0.08050758 0.0738764 -0.08293526 0.2309713
000140 1d a8 ad 3e f5 72 9b 3e a3 98 7d bc 41 59 55 3e
       0.33917323 0.30361143 -0.015478286 0.20834829
000150 13 c9 02 3f 9f f4 8c 3e 7c 92 b0 3e a1 c3 92 3e
       0.51088065 0.2753038 0.3448676 0.28664878
000160 2b c9 5e be c7 ea ac be 7e 66 ef bd 7e 46 36 bf
       -0.21756427 -0.3377287 -0.11689471 -0.7120131
000170 51 f1 55 bf d6 65 ed 3e 4f 7e 56 3e 8a ee f0 3d
       -0.83571345 0.46366757 0.2094662 0.11764248
000180 28 fc 88 3e ad b7 b6 3e c9 19 b3 3e da 73 0a be
       0.2675488 0.35687009 0.3498061 -0.13520756
000190 fc 84 90 bc a6 59 bb 3e 25 58 f1 bc 72 46 8b 3e
       -0.017641537 0.36591834 -0.029460976 0.27202183
0001a0 fe 4b 20 3e be e4 a4 3e f3 df 6e 3e 03 f0 7c be
       0.15653989 0.32205766 0.23327617 -0.24700932
0001b0 28 09 ea 3e b3 17 21 3f 1d 77 6a 3e ac 0f ba 3e
       0.4571011 0.6292679 0.22897 0.36340082
0001c0 a3 42 32 be 4b a9 54 be 27 33 04 bf bd bc 4d bf
       -0.17408232 -0.20767705 -0.5164055 -0.80366117
0001d0 3e cb 85 bd fa 67 59 3d 03 b3 c0 bd 83 35 11 3d
       -0.06532906 0.053077675 -0.09409144 0.035451423
0001e0 85 55 41 bf 48 d7 9a be 83 da d5 3e b1 92 e7 be
       -0.7552112 -0.30242372 0.41768274 -0.45229104
0001f0 82 31 9d 3e df 0d bd 3e 3c 39 a0 3e d2 af ee bd
       0.30701834 0.36924645 0.31293666 -0.11654629
000200 bb 76 10 3d 0b bd 74 3e b0 33 53 bd e9 57 9d bd
       0.03526948 0.23900239 -0.051562965 -0.07682783
000210 7b e6 be 3e 6d bd c5 3e 08 93 c2 3d 28 ad 10 bf
       0.37285218 0.38621083 0.095007 -0.56514215
000220 dc 41 02 bf a1 ca da 3d c8 dd 14 bf 9c 42 73 3e
       -0.50881743 0.1068318 -0.5815091 0.23755878
000230 ab fb ee 3e 93 0b 0b 3e a8 a5 15 3f c8 cd 94 3e
       0.46676382 0.13578634 0.58455896 0.2906325
000240 44 46 f7 bd a8 cc bf 3d a8 72 b0 3b 01 3f c5 3e
       -0.12073949 0.09365207 0.005384762 0.3852463
000250 d6 55 4b 3e af 6a 68 3e 8c fd 7b 3e df b4 61 be
       0.19856963 0.22696947 0.24608439 -0.22041653
000260 e5 5a 89 3e 9e 07 9a 3d ea db d2 bc 3e d6 85 3e
       0.2682716 0.07520984 -0.025739629 0.26140016
000270 73 89 c0 3d 19 1c 49 3e 3e b6 a6 3e 9f 78 21 bf
       0.09401216 0.19639625 0.32560915 -0.6307468
000280 de 56 03 bf 6a 9b 70 bd 72 1c 57 3e b4 1b c0 3e
       -0.51304424 -0.058741964 0.21006945 0.37521136
000290 2a d3 28 bd 63 e1 1c 3f d5 6b 10 3e e3 36 f5 be
       -0.041217007 0.6128141 0.14103635 -0.47893438
0002a0 4a 73 f6 3e e9 62 c0 be f6 ea 0d bf 99 df 0c 80
       0.48134834 -0.37575462 -0.55436647 -1.182238e-39
0002b0 31 1a 00 00 69 c0 01 80 f8 46 06 80 6b 33 0c 80
       9.396e-42 -1.60859e-40 -5.76472e-40 -1.120471e-39
0002c0 17 5b 1b 80 63 d7 10 80 2f 1b 03 80 3b 43 11 80
       -2.512235e-39 -1.546634e-39 -2.85258e-40 -1.585321e-39
0002d0 9d d2 d4 bd c5 f6 fa bd 95 1f 12 bd 9e 12 5d 3e
       -0.10391734 -0.12254099 -0.03567465 0.21589133
0002e0 3e ad 8d 3e 2f a1 0e 3f 05 fc cf bd ef d1 2a bd
       0.27671236 0.55714697 -0.10155491 -0.041704115
0002f0 f9 f7 cd 3e 6d 93 22 3e 13 bc 8a 3e cc 35 2c 3f
       0.4022825 0.15876551 0.27096614 0.6726959
000300 91 f7 88 3c 5e 3b 67 3e c0 8b f1 3e bf f8 46 bd
       0.016719611 0.2258124 0.47176933 -0.048577067
000310 22 c0 6f 3d fd af 0e bb 70 ae 5a be df a3 0c 3e
       0.05853284 -0.0021772378 -0.21355605 0.13734387
000320 1b ab 34 3e 9d 58 8c 3d fc 0c af 3e 82 6a 95 3e
       0.17643397 0.06852839 0.34189594 0.29182822
000330 b3 7d c8 3e 96 7c d9 3e bb e4 93 3e fd 2e 84 3e
       0.391584 0.42477864 0.28885445 0.258171
000340 d7 59 3b 3e 82 92 00 bf ca f7 bb 3e c9 1f 55 3e
       0.1829599 -0.50223553 0.36712486 0.20812906
000350 33 b7 47 bf f1 3c fc 3e 6f f6 ca 3e de 98 b9 be
       -0.78013915 0.49265245 0.3964114 -0.3624944
000360 e4 c8 ed 3d 6f 0e 40 3e 37 d3 1c 3f ea e0 5d be
       0.116105825 0.18755506 0.6125979 -0.21667829
000370 2a 95 93 be 62 ad a9 be 8b de 50 3d 6f 2f 19 be
       -0.2882474 -0.33140093 0.050993484 -0.149595
000380 70 74 8c be 3f b3 e4 be 63 7f 6d be b9 ff ea 3c
       -0.27432585 -0.44668004 -0.23193125 0.028686391
000390 36 c6 1d 3d 11 8d 25 3e 5b 27 f8 3e c8 84 b4 3e
       0.038519107 0.16167094 0.48467526 0.35257554
0003a0 1f c7 f7 3e 4c c1 13 3e a0 38 69 3e ac ec 4e 3d
       0.48394105 0.14429206 0.22775507 0.050518677
0003b0 bc 7a f2 3d d6 64 35 3d 92 f5 ac be 2b 29 58 3e
       0.11839816 0.044285618 -0.33781105 0.21109454
0003c0 98 a8 0e 3e 5f e8 e4 3d da 61 d7 3e b1 17 59 be
       0.13931501 0.11177134 0.42066842 -0.21200444
0003d0 26 a3 d7 be 05 59 5f bd 18 55 32 be a0 c3 97 be
       -0.4211666 -0.054528255 -0.17415273 -0.29641438
0003e0 f4 15 32 be 6d 31 d7 3e e9 c8 c6 3e 61 3f fe 3d
       -0.17391187 0.42029896 0.38825157 0.12414432
0003f0 b5 24 b3 3e 1a 1c 18 3d bc 64 eb bd 05 8e 4b be
       0.34988943 0.037136175 -0.11493823 -0.19878395

encoder.0.bias f4 [32]
000000 e9 e6 2b b8 f3 b9 0e 00 11 35 bc 37 68 19 5a 38
       -4.098463e-05 1.352403e-39 2.2436057e-05 5.199891e-05
000010 47 1d 42 3b da 42 af 39 c6 5d 23 00 6f 18 09 3f
       0.0029619501 0.0003342841 3.247882e-39 0.5355291
000020 30 47 52 b9 ba c8 f3 39 40 76 7f 3d 7b 10 c8 b8
       -0.0002005368 0.00046498125 0.06236863 -9.539813e-05
000030 aa 36 b9 3d 32 49 d2 3e 1c 52 a3 b8 a3 41 cc 38
       0.090436295 0.4107147 -7.78774e-05 9.739704e-05
000040 11 96 16 b9 3d 20 a0 3e 95 a1 2b 3c 54 78 12 80
       -0.00014361019 0.31274596 0.010475536 -1.696205e-39
000050 58 40 91 38 2f dc dc b7 e2 af 1d b9 88 6b 36 3d
       6.926124e-05 -2.6328575e-05 -0.00015038208 0.044536144
000060 cf 9c 91 3e b1 df 37 39 0a 83 b3 bd 58 40 bb 3e
       0.28439948 0.00017535572 -0.08765228 0.36572528
000070 ca a0 ea 3e 2e 93 1c 3b 4f 7f 85 b9 a3 28 35 b8
       0.45825797 0.0023891437 -0.0002546259 -4.319161e-05

encoder.3.weight f4 [64, 32, 3, 3]
000000 89 69 15 3c d2 3e e9 bb e6 1d c7 3d 55 58 b1 3a
       0.0091194 -0.0071180845 0.097224995 0.0013530353
000010 e3 6c 94 3b 47 8f 0d bd 85 af 9a bc 0b d2 0e 3d
       0.004529582 -0.034560468 -0.018882522 0.03486828
000020 23 b9 6c 3d d9 3f 0b 80 11 0c 0d 80 21 fb 0f 00
       0.057793748 -1.033095e-39 -1.19819e-39 1.46762e-39
000030 f9 1f 09 80 63 0c 11 80 28 b0 03 80 d0 a7 09 80
       -8.37989e-40 -1.565647e-39 -3.387e-40 -8.86719e-40
000040 2f f0 12 80 50 b1 0f 00 47 69 55 3b 20 7c 24 bd
       -1.7392e-39 1.44114e-39 0.003256397 -0.040157437
000050 ff 78 b8 3d 09 38 7c 3c 2b 05 03 bc 52 1b 5c 3d
       0.09007453 0.015394219 -0.007996838 0.053736992
000060 2a 76 55 bc f1 03 dd 3c 83 99 24 ba 6d f7 19 b9
       -0.013028661 0.026979418 -0.00062789785 -0.0001468339
000070 cb c7 17 bb fb 31 af 3d 1e dc c9 3c 54 2d 86 3c
       -0.0023159857 0.08554455 0.024641093 0.016379036
000080 e1 f1 01 3d d7 ed cc 3b b2 d6 87 3d 77 34 8e 3d
       0.031724814 0.0062539387 0.06632747 0.069436006
000090 79 90 cf bb da 65 5c ba f6 27 38 3b e7 f1 68 3c
       -0.006334361 -0.0008407511 0.002809999 0.01421783
0000a0 f0 c8 66 bc 82 f0 38 bd 3f a2 05 bc cf 13 5e 3a
       -0.014085993 -0.04515124 -0.008156358 0.00084715796
0000b0 4e 83 dd 3d 31 c2 65 bd 97 7f 67 3d f0 40 36 bd
       0.1081606 -0.0560934 0.056518164 -0.044495523
0000c0 f8 e6 7f bd 81 0f 38 3d 5e 5f b3 bc 5c 4d 28 bd
       -0.06247613 0.04493666 -0.02189606 -0.0410894
0000d0 0e 29 3f 3d c5 2d c6 bd 75 04 0f 80 99 ed 0c 80
       0.046670012 -0.096766986 -1.379131e-39 -1.18726e-39
0000e0 f5 f7 0a 00 e2 4a 03 80 78 00 0a 00 0d 60 02 00
       1.007305e-39 -3.0237e-40 9.18523e-40 2.18128e-40
0000f0 11 9b 0a 80 de 0b 09 80 a2 3f 08 80 2b 02 1c 3c
       -9.73982e-40 -8.30777e-40 -7.57511e-40 0.009522001
000100 f9 29 85 3c e7 85 c6 bd e2 07 b1 3c a1 32 d9 3c
       0.016255366 -0.096935086 0.021610204 0.0265134
000110 2b 76 e1 bd 20 0d 42 3d 23 05 6a bd a4 46 d1 bd
       -0.11008867 0.0473758 -0.057133805 -0.10218552
000120 dd c2 59 bc a1 95 c3 bc 3d 04 89 3d 7e 76 59 3a
       -0.013291088 -0.02387506 0.066902615 0.000829555
000130 31 d5 cd 3b 92 19 27 3d 25 cf e7 3c 1b 75 7a 3d
       0.006281518 0.04079587 0.028297016 0.061146837
000140 78 3e 3f 3b 2a a8 4f 3c 25 31 bb bc 1b 5c 7f 3c
       0.0029181521 0.012674371 -0.022850582 0.0155859245
000150 24 4b 6c 3c f6 fd 6f bc 8c b1 61 bc 26 e7 6e 3b
       0.014422212 -0.014647951 -0.013775241 0.0036453693
000160 c3 50 19 bc 44 a1 e6 3d 69 03 4b 3c 68 38 0d bd
       -0.009357634 0.11261228 0.01239095 -0.03447762
000170 09 c3 55 3c fa 41 2e 3d 90 58 a7 bc f3 08 9e 3b
       0.013046988 0.04254339 -0.020427972 0.004822844
000180 a6 73 bb ba 04 54 9c bc d4 82 fa bd 9f b6 d8 bc
       -0.0014301434 -0.01908303 -0.12231985 -0.026454268
000190 15 5b ab 3c bf 85 c3 bc e5 48 4c bc 51 37 da 3c
       0.020917455 -0.023867486 -0.012468551 0.026637705
0001a0 5e 41 10 bd 20 69 50 bd 15 0d 88 3c 0f e2 af 3d
       -0.03521859 -0.050881505 0.0166078 0.08588039
0001b0 6a a8 59 3c 49 e0 da bc 0c 8a 71 3c 31 db 94 3d
       0.013284782 -0.026718276 0.014742386 0.0726837
0001c0 8e ad 92 3c d3 2d b8 bd 78 ce 82 3d 93 4c 15 be
       0.017905023 -0.08993115 0.06387037 -0.14579992
0001d0 40 03 30 3d bb c6 45 bd cd a6 a8 3c c8 28 08 be
       0.04297185 -0.048285227 0.02058735 -0.13296807
0001e0 cc c0 7e bd ec 54 28 3c c7 13 d3 bd 52 a0 82 3c
       -0.062195584 0.010274153 -0.103065066 0.015945587
0001f0 ae 71 64 3a f5 07 1e be ac 09 7b 3c da 51 f2 bc
       0.00087144494 -0.15432723 0.01532213 -0.029580045
000200 01 43 31 3d 2d 4e f7 3c 8e e2 27 b9 69 2c 65 3c
       0.04327679 0.030188644 -0.0001601076 0.013987639
000210 d9 bb 43 bc 2c d4 61 3c be 6f b1 3c 06 c2 0d bd
       -0.011946642 0.013783496 0.021659728 -0.034608863
000220 27 4a dd 3d a5 0c bc bd e0 a1 b6 bc 69 c4 63 bb
       0.10805159 -0.09182099 -0.022293985 -0.003475452
000230 22 74 7e bd 9c 3f 24 bd b1 f3 70 3d e7 da 80 bd
       -0.06212247 -0.040099725 0.058826152 -0.06291752
000240 87 95 a1 bb aa ba 74 3c 9e 57 8b 3d a4 cd 2b bc
       -0.004931155 0.014937082 0.06803821 -0.01048604
000250 21 85 b3 3c b1 24 15 3d c2 51 89 3c f8 ee 86 3c
       0.021914067 0.036411945 0.016762618 0.016471371
000260 12 bf 05 3d d6 7a 7a bc 32 15 79 3b 65 53 97 bb
       0.032652922 -0.015288075 0.0038007018 -0.0046180957
000270 5a 5a c1 3c cf 17 fb 3c 7a 35 9d bc 2f 61 0e 3d
       0.023602653 0.030651001 -0.019190539 0.03476065
000280 3d d7 17 bd 4a f3 6a bd 76 fc fa 3c cc df ec bc
       -0.0370705 -0.057360925 0.03063796 -0.028915308
000290 99 f7 a4 bc bd 2f 95 bc e9 1e a3 bd 6c 8b bd bd
       -0.020137595 -0.01821124 -0.0796488 -0.09255108
0002a0 75 22 dd 3c 4f fc dc bd 14 cd 03 3e ce f7 0c 00
       0.02699397 -0.107903115 0.128712 1.190922e-39
0002b0 e5 64 03 80 9d 9e 0d 80 3e e8 0d 00 b9 af 02 00
       -3.117e-40 -1.250761e-39 1.277174e-39 2.46708e-40
0002c0 75 0c 07 00 8e 8b 0a 80 e3 ed 0f 00 f7 6a 08 80
       6.47317e-40 -9.68418e-40 1.46287e-39 -7.73056e-40
0002d0 9f 9e f6 bc 2f a7 8f 3d 5a 72 67 3c ab 3c ec bc
       -0.030104933 0.070143096 0.014126385 -0.028837522
0002e0 51 66 02 3c e2 5c 5f 3b 61 58 10 bc fc c2 76 3c
       0.007958964 0.0034082462 -0.008810134 0.015061136
0002f0 93 11 ed bc 26 37 7d bd 58 43 65 3d 39 33 a5 3c
       -0.028939044 -0.06182017 0.055972427 0.020166026
000300 64 fb 53 bd d4 33 17 3d 12 07 06 bd dc 04 1c bd
       -0.051753417 0.03691466 -0.032721587 -0.03809057
000310 e7 8c 08 3d 8a 8f 5a 3d fd a2 27 bd ac 16 91 3d
       0.0333375 0.053359546 -0.040926922 0.070844024
000320 27 dc 47 3d 50 7e 9b bc 38 df 48 3d e8 b8 fc 3c
       0.048793938 -0.018981129 0.049041003 0.030849889
000330 53 f7 64 bd 1b 3a 5d 3d 0f 7b 88 3d c7 3e 1d 3d
       -0.05589993 0.05401049 0.066640966 0.038389947
000340 f9 c1 c5 bd 1a 6b e7 3d e0 38 95 bc d0 a7 b1 bd
       -0.09656138 0.11299725 -0.018215597 -0.08674586
000350 9a 44 8d bc 6c 15 c8 bc a0 9c d7 bd 43 dd a9 bb
       -0.017244626 -0.024424277 -0.10527921 -0.005183847
000360 22 94 f5 bc 23 0a e0 ba dd 7b d3 bc cf be a1 3c
       -0.029977862 -0.0017092865 -0.025815899 0.019744305
000370 b8 44 e0 bc fa c8 1b bd 6d 04 5d bb 45 6c 96 bd
       -0.027376518 -0.038033463 -0.0033724562 -0.073448695
000380 76 39 38 3c 15 05 ef bc ee 03 c6 3d 6d 71 95 bc
       0.0112441685 -0.029177228 0.09668718 -0.018242562
000390 41 f5 d4 bb 10 38 a1 3c b0 12 b9 3b 22 aa 46 bd
       -0.006498963 0.019680053 0.0056479797 -0.048502095
0003a0 9d f9 39 3d b5 9c f9 3c e0 c1 d9 bc db 36 14 3c
       0.045404065 0.030470232 -0.026581705 0.009046282
0003b0 c3 75 39 3c 3e 7e fb bb 6c d9 90 3c 0f f4 3d 3d
       0.0113195805 -0.0076749614 0.0176818 0.04637533
0003c0 70 a4 a6 bb d1 14 19 3d 2a db 9c 3c 2f 70 80 3c
       -0.0050855204 0.037373368 0.019147474 0.015678493
0003d0 f8 75 20 3b bb 93 66 bd 1b ae 07 3d a4 9c dd 39
       0.0024484377 -0.05629323 0.033125024 0.0004226911
0003e0 03 0e 27 bd 29 03 3e bc 84 67 c6 bb 23 05 cf bd
       -0.040784847 -0.011597433 -0.0060548205 -0.101084016
0003f0 df 9b e4 3b 7c 4e 80 bc 80 37 14 bd 56 aa ed 3b
       0.006976589 -0.015662424 -0.03618574 0.0072529716

encoder.3.bias f4 [64]
000000 0c bd b1 bb 50 08 14 bd 60 b9 66 9f 2e 50 cb 3d
       -0.0054241475 -0.03614074 -4.8857733e-20 0.099274024
000010 b0 34 b4 3a 55 ca 12 bd b5 b5 97 bb 0d 34 2f bd
       0.0013748612 -0.03583749 -0.0046298155 -0.04277425
000020 a8 16 41 bc e1 ac 17 bd 09 e6 3e b2 78 7f 18 3d
       -0.011785187 -0.037030105 -1.11117595e-08 0.03723094
000030 24 d1 9e 80 65 88 47 80 dc f1 5f bc 5d f3 83 bd
       -1.4585034e-38 -6.56925e-39 -0.013668504 -0.06442902
000040 e7 14 e2 bd f7 36 c1 b3 06 40 2e bd 42 8b 80 3c
       -0.11039143 -8.997261e-08 -0.042541526 0.015691403
000050 e0 e3 e4 3b 11 25 55 bb 67 77 61 3d d8 d2 7f 3c
       0.0069851726 -0.0032523314 0.05504551 0.015614234
000060 0b f5 28 bc 95 38 5d bd fb 8d 05 bd 60 e6 40 3c
       -0.010312329 -0.05400904 -0.032606106 0.011773676
000070 f8 76 98 3c 91 44 77 3c a6 ee 3c 80 5a 5d 09 bd
       0.018611416 0.015092031 -5.59574e-39 -0.033536293
000080 0c d4 09 bd fe 18 ad b9 49 04 e4 3c c0 7a 34 bc
       -0.03364949 -0.00033015752 0.027834075 -0.011015594
000090 94 78 0a 3a 29 48 f8 bb 32 53 6d 80 45 38 e5 ba
       0.000528225 -0.0075769615 -1.0039914e-38 -0.0017488083
0000a0 68 c5 b3 bc 57 ec de bc 91 f5 79 bd 87 d4 7f bd
       -0.021944717 -0.027212305 -0.061025206 -0.06245854
0000b0 13 96 2b bc 99 d2 c2 b9 ab fb 65 bd f1 a4 00 bc
       -0.010472792 -0.0003715947 -0.056148212 -0.007851825
0000c0 8d b1 85 3c 81 02 f9 3b 71 80 79 bd 71 2d d7 3c
       0.016320014 0.0075991754 -0.060913507 0.026266785
0000d0 7a d5 df bc 8a 71 9b 3c 07 48 5f 01 17 e1 49 3d
       -0.027323473 0.018975038 4.1010308e-38 0.049286928
0000e0 5b 66 c7 81 da 5b ae ba 36 6a f9 bb 6e 34 56 bc
       -7.324793e-38 -0.001330252 -0.0076115383 -0.013074024
0000f0 10 3e 48 bd 58 4b 1b 3c 30 b2 2f bd 83 50 e9 bc
       -0.048887312 0.009478413 -0.042894542 -0.028480774

encoder.6.weight f4 [128, 64, 3, 3]
000000 fc c5 a4 bc 6e 77 e5 3c ec 3b ab 3b 92 16 b6 bc
       -0.020113938 0.02801105 0.005225649 -0.02222756
000010 9b 71 75 3c e2 36 51 bd a2 c8 df 3c 58 b3 0d bd
       0.014980699 -0.05107773 0.027317349 -0.034594864
000020 0b e6 1a 3d 55 cd 55 bc af 6e da 3c 35 0a 83 3c
       0.037817042 -0.013049443 0.026664106 0.015996078
000030 62 a1 57 3d 69 69 77 bc 8b 86 39 bb 88 e2 24 bd
       0.05264414 -0.015100815 -0.0028308954 -0.0402551
000040 f4 f3 3e bc aa 66 64 bd ba f0 08 80 d2 23 07 00
       -0.011654843 -0.05576197 -8.2104e-40 6.55698e-40
000050 68 7b 07 00 e4 1b 08 00 5c a4 05 00 4f ff 01 00
       6.87118e-40 7.44689e-40 5.18139e-40 1.83423e-40
000060 ac 3e 04 80 16 4f 06 00 56 84 06 00 85 b3 28 3c
       -3.89824e-40 5.79384e-40 5.98486e-40 0.010296707
000070 f6 bb df 3b 81 b7 8f 3c 96 7c 21 3d 1c a5 97 3c
       0.0068278266 0.017543556 0.039425455 0.018511347
000080 99 01 83 bb e8 19 8d 3c 77 9b ad 3c 3c a1 4f 3c
       -0.003997993 0.017224267 0.021192295 0.012672719
000090 6c 5e df bd 5b 51 c2 3c b0 0e 03 3e 00 66 78 3d
       -0.109066814 0.023720434 0.12798572 0.06064415
0000a0 56 3a a0 3c e4 7a 86 bc 89 71 69 bd a0 42 08 3d
       0.019559067 -0.01641602 -0.05699304 0.033266664
0000b0 62 c9 9d bd 63 66 44 3d 60 68 f2 bc 9a 68 8e bd
       -0.07704426 0.047949206 -0.029590786 -0.06953545
0000c0 61 c7 f9 3c 3c ed b1 bc 32 fd f9 39 76 f4 81 3d
       0.03049058 -0.021719567 0.00047681626 0.06345455
0000d0 f9 70 98 bb 59 26 4a 3c 88 5e 6d bb fd 97 1b 3c
       -0.0046521393 0.012338244 -0.0036219675 0.009496686
0000e0 fe 09 e4 bb 6d 46 85 bd ea cd 0c bc 00 e7 12 3d
       -0.006959199 -0.06507573 -0.008594016 0.03586483
0000f0 39 07 b9 bc 45 e9 2b bd c2 34 21 bd 71 3c 35 bd
       -0.022586452 -0.04197051 -0.039356954 -0.044247095
000100 f5 c9 a7 3d 4c d3 0f bb 5f cd 25 3d 37 9a f3 bc
       0.08192817 -0.002194601 0.04047906 -0.029736621
000110 1c ca 03 3d 0f 84 70 bd 80 20 27 3c e8 47 90 bd
       0.03217517 -0.05871969 0.01020062 -0.07044965
000120 a9 ef 7b bd 89 45 03 bc 00 e2 78 3d f4 15 ca 3c
       -0.061507855 -0.008012184 0.060762405 0.024668671
000130 73 be d1 3c 5b a2 49 bd c2 95 a9 3c e1 ba 20 bd
       0.025603509 -0.0492271 0.020701293 -0.03924072
000140 48 67 74 3d 57 21 e1 3c ce d2 67 3c 6e d8 3c bc
       0.05966881 0.027481718 0.014149381 -0.01152621
000150 dc 77 37 3c bf 23 0c bd b0 ee 85 3b 5c 22 b3 3d
       0.01119801 -0.034213778 0.0040872917 0.08746788
000160 3c b8 20 bc ea db 38 ba 38 b7 01 00 64 02 d0 90
       -0.00980955 -0.0007051813 1.57562e-40 -8.204522e-29
000170 e6 8d 01 80 e4 1f 00 80 17 7f dc 99 64 e6 5c 0a
       -1.42739e-40 -1.144e-41 -2.2798798e-23 1.0635946e-32
000180 e1 c6 02 00 9a 50 5a 97 af 78 04 00 7e c4 ef 3c
       2.55015e-40 -7.0541333e-25 4.10635e-40 0.0292685
000190 84 df 01 bd 70 b5 4f bd d3 40 39 bb 9c 45 34 3d
       -0.0317073 -0.05071014 -0.0028267398 0.044011697
0001a0 21 be 72 39 3d 78 26 bc e5 8a 06 bd 88 c4 2d 3c
       0.00023149747 -0.010160503 -0.032847304 0.010605939
0001b0 ef 58 0a 80 c3 32 11 80 ea c9 05 00 2a a1 0d 80
       -9.50258e-40 -1.579413e-39 5.3161e-40 -1.251676e-39
0001c0 f7 43 09 80 5a 2d 01 80 24 74 0d 80 61 85 00 00
       -8.509e-40 -1.08105e-40 -1.235525e-39 4.7847e-41
0001d0 4e 8d 0b 80 9c 56 09 80 d7 9e 0e 00 8a ae 01 00
       -1.060881e-39 -8.57589e-40 1.342678e-39 1.54448e-40
0001e0 8e 7d 0b 80 36 bd 0b 80 cc 02 0e 80 1b 1d 0a 00
       -1.055231e-39 -1.078067e-39 -1.2867e-39 9.28796e-40
0001f0 15 9a 09 80 62 0c 11 80 d8 4b 95 bc 2c 48 ac 3c
       -8.81794e-40 -1.565646e-39 -0.018224642 0.021030508
000200 90 f3 8d 3c 67 bb 9e 3c ec fe 1f bc c5 83 91 bd
       0.017328054 0.01937647 -0.009765368 -0.07105211
000210 4b 8c 3a 3d af 6a f9 3c 1c 13 82 3d 2f ce 1c 3c
       0.04554395 0.030446379 0.06351301 0.009570642
000220 fe 3d 56 3c 22 b0 26 bd c9 df 22 3d 38 db 98 bc
       0.0130763035 -0.040695317 0.0397642 -0.01865922
000230 50 f0 d4 3a 24 de ea bc a4 1f df bc e8 2a 83 bd
       0.0016245935 -0.028670378 -0.027236767 -0.06404668
000240 3f ae 1e bb c6 12 c4 3c 6a 42 21 3c 5a fc 9a 3c
       -0.0024212745 0.023934733 0.0098424945 0.018919159
000250 c7 f9 da bc 83 14 3f 3d 8e a6 10 bd b6 79 04 bd
       -0.026730431 0.04665042 -0.03531509 -0.032342635
000260 2f 6d a2 bd 87 89 06 00 c4 ac 02 80 11 a4 06 80
       -0.07930981 6.00348e-40 -2.45648e-40 -6.09869e-40
000270 e1 1f 02 80 2a 24 02 00 65 11 07 00 fa 32 07 80
       -1.95107e-40 1.96644e-40 6.49088e-40 -6.61135e-40
000280 bc c4 04 00 59 fc 03 00 5d 87 d5 3c 12 23 5a 3c
       4.37917e-40 3.66032e-40 0.026065523 0.0133140255
000290 62 cb c1 bc d0 18 87 bc b0 fb 4c bd c8 c1 24 3d
       -0.02365655 -0.016491324 -0.050044715 0.040223867
0002a0 85 df 33 3d fb 23 4c bb 5b 01 79 3d 49 fd 7d 3c
       0.043914337 -0.0031149376 0.06079231 0.015502282
0002b0 8e 0c 08 3b 5b 36 1e bc c3 04 53 3d 2e 93 7e ba
       0.0020759436 -0.009656514 0.051518213 -0.00097112625
0002c0 02 31 80 bb 28 f5 d9 bb ac c2 a8 bb aa 21 ba bc
       -0.003912092 -0.0066515394 -0.00515016 -0.02272113
0002d0 eb 10 72 3d 1a 93 3f 3c e6 6d 78 bd 01 94 86 3c
       0.059098165 0.011692787 -0.060651682 0.016427996
0002e0 83 46 a5 3b 27 a5 eb bc a5 56 00 bb 64 09 d3 bc
       0.005043806 -0.028765274 -0.0019582894 -0.025761314
0002f0 32 37 90 3b c1 38 f2 3c 39 52 a0 bc 5a fb 0b 3d
       0.004401111 0.029568078 -0.019570457 0.034175254
000300 1e 40 53 3c 9e 83 a4 3a 1c 59 c9 bc 12 e7 b9 bc
       0.012893705 0.0012551432 -0.024578623 -0.02269319
000310 34 7a 63 bc b5 9f a6 bc 53 8d 4b bd 4e 5b 32 bc
       -0.013884116 -0.020339826 -0.049695324 -0.010886027
000320 c6 5c dd 3c e1 7c aa 3c cd 7d ef bc 9b 47 32 3c
       0.027021777 0.0208115 -0.029234791 0.01088133
000330 83 c4 16 3d f3 09 9c bc 14 70 7a 3c 97 0e 75 bd
       0.036808502 -0.019047713 0.015285511 -0.059828367
000340 c8 05 d6 bb d8 fc ef bc 8a 1f 98 bc ca e0 85 bd
       -0.006531451 -0.02929537 -0.018569726 -0.06537016
000350 58 3a 4a 3c cd d7 b2 3c e0 3d 2d bd 82 f1 71 bd
       0.012343012 0.021831417 -0.042295337 -0.05906821
000360 ba 09 c8 3d 4e f4 a9 bc aa 3f 09 bd d1 00 77 3d
       0.0976748 -0.020746376 -0.03350798 0.060303513
000370 76 8f dd 3a 35 ad 44 3a 02 41 8e bb 32 a6 37 3d
       0.0016903717 0.00075026165 -0.0043412456 0.04483623
000380 9e e6 2b bd 57 f5 0c bd 1f 57 7c 3c 7a 18 5b bc
       -0.04196798 -0.03441366 0.015401631 -0.013372535
000390 82 35 48 3d fb bd 47 bc 6f 93 57 3d 87 3e 9a bb
       0.048879154 -0.012191291 0.052630838 -0.004707161
0003a0 a1 49 6a bb 44 39 13 bd 7e 7b fa 3c 1c 16 e6 b7
       -0.0035749453 -0.035943285 0.030576464 -2.7428432e-05
0003b0 26 12 88 bc 2d 86 c2 bc d8 61 a0 3a f9 d3 00 bc
       -0.016610216 -0.02374562 0.0012236191 -0.007863038
0003c0 65 7c f6 3c 05 9a f3 bc e3 16 17 3a d4 15 30 bc
       0.030088613 -0.029736528 0.0005763603 -0.010747392
0003d0 e5 cf 36 bd 33 90 dd bb b9 f8 69 3d ca dd 68 3c
       -0.044631857 -0.0067615747 0.057121966 0.014213035
0003e0 f6 80 88 bd 12 17 57 bd 4d 4e b9 3b 16 69 07 3d
       -0.06665222 -0.052512236 0.005655086 0.033059202
0003f0 bb 03 00 bd 5f fc a0 bc 0a 7d 02 3d 28 43 dd 3b
       -0.031253558 -0.01965159 0.031857528 0.0067523904

encoder.6.bias f4 [128]
000000 a9 a1 72 3c 59 b0 2e bc c9 85 e0 b8 7c 24 a9 3b
       0.014809051 -0.010662162 -0.00010706072 0.00516182
000010 ba 8c 3e bc 60 2c 3e bb 1b 2a 67 3a 3d ed 80 3c
       -0.0116302315 -0.0029018149 0.0008818225 0.015738124
000020 7e 92 18 bb fa 05 dd 3c 4c 85 0f 3a f8 47 49 3c
       -0.0023280676 0.026980389 0.000547488 0.012285225
000030 c1 20 f6 3a 3e f7 9d 3c 5a fd 71 bc 30 4f ec bb
       0.0018778072 0.019282933 -0.014769876 -0.0072115883
000040 2c 57 c8 3a 6f 70 c1 3c d7 b5 51 3c b1 ef 51 bc
       0.0015284768 0.023613183 0.012799702 -0.012813495
000050 09 1c a4 bb 10 4e d1 3a 2d 2b 66 bc 87 0e 97 39
       -0.005008225 0.0015968699 -0.01404838 0.00028811788
000060 3f 52 a2 bc 4c 92 5a bc 36 90 11 bc ab 53 8f 3b
       -0.019814609 -0.013340544 -0.00888448 0.0043739877
000070 65 49 d1 3b 90 13 3d 3d 81 13 b2 3c bd 05 84 bc
       0.006386923 0.046161234 0.021737816 -0.016116017
000080 e5 a0 c5 bb dd 73 86 bb ea 19 31 bc dc 38 7e bb
       -0.006031143 -0.0041031674 -0.010809401 -0.0038791215
000090 5f 53 03 bb 7d 4a a5 bb 7b 34 95 3c ca 59 c2 3b
       -0.0020038707 -0.00504428 0.018213501 0.005931114
0000a0 48 15 51 bb 2f a6 b5 3b 16 57 8b 3c 18 e4 35 3c
       -0.0031903554 0.0055434923 0.0170093 0.011101745
0000b0 f3 e2 78 3b ef 9d bf ba 3c e0 2b bb 36 4c b9 bb
       0.003797707 -0.0014619211 -0.0026226183 -0.005654837
0000c0 7b 96 21 3d c2 91 2a 3c ac 22 41 39 25 ab 50 3c
       0.03945015 0.010410728 0.0001841883 0.012736117
0000d0 9d a3 cb 3a e5 46 07 3d 5b 6b fc ba 31 b6 87 3c
       0.0015536431 0.033026595 -0.0019258069 0.016566368
0000e0 c8 27 d2 bb 97 2e 9c bc 4f 01 20 bc 41 f5 11 3c
       -0.0064134337 -0.019065185 -0.009765937 0.008908571
0000f0 26 b6 a2 bc 5e 4c 9c 3c c3 7e 3a 3a f1 e0 ef 3c
       -0.019862246 0.019079383 0.0007114226 0.029282065
000100 93 cd 00 bc 84 45 e6 b9 61 49 07 3b c1 b2 68 3c
       -0.007861513 -0.00043920812 0.0020643102 0.0142027745
000110 88 a3 75 3b 95 09 0c bb 1c 96 85 bb 92 d0 30 3c
       0.0037481505 -0.0021368016 -0.0040767323 0.010791915
000120 b5 f0 dd 3a ea 53 63 39 c4 69 52 3b 19 d3 db bc
       0.0016932698 0.00021679667 0.0032106498 -0.026834058
000130 73 a1 05 bc 34 de e2 3b ac 0c 68 3c 41 50 33 36
       -0.008156168 0.0069234613 0.014163177 2.6719792e-06
000140 e9 41 36 bc 01 29 f0 39 f7 7b 3d bc 40 30 ec 3b
       -0.011124113 0.00045806917 -0.0115652 0.0072079003
000150 f1 16 9d 3b 4b 9e e9 bb b8 4c 6e bb d6 db a3 bb
       0.0047939946 -0.0071294657 -0.0036361646 -0.0050005717
000160 27 fa b9 3b 5f fe c5 bb 78 89 97 bc a5 ac 47 bc
       0.0056755724 -0.0060422863 -0.018498167 -0.012187158
000170 fc f6 71 3c ad 04 2b 3c a2 6f ed 3c 1d 1c 69 3c
       0.014768358 0.0104381265 0.028983895 0.014227894
000180 18 f0 b8 bb ab bb 0f 3c d9 bd e4 3c a7 a9 55 b9
       -0.005643856 0.008772771 0.027922558 -0.00020376463
000190 07 43 bc ba 1a 0c e4 bc 83 13 fd bb f7 e6 6a bb
       -0.0014363237 -0.027837802 -0.0077232732 -0.0035843232
0001a0 47 7f 24 bc d0 ee 35 bc 11 c5 ae 3c a4 0b 84 bb
       -0.010040111 -0.011104301 0.021334203 -0.004029708
0001b0 74 25 8d bb 7c fd 3f bc a2 17 e2 3c b6 20 ca bc
       -0.0043074433 -0.01171815 0.02759916 -0.0246738
0001c0 1e 9e 60 3c 58 a0 b5 bc e3 8f fa ba 6c 33 6b bc
       0.013709573 -0.022171184 -0.0019116368 -0.014355522
0001d0 4c d0 73 bc 65 94 46 bc 96 87 f4 bb 21 3e b8 bc
       -0.014881205 -0.012120341 -0.007462452 -0.022490563
0001e0 6d 51 45 bc ad 46 e1 3a fb 14 81 3c be 5d 17 3b
       -0.012043339 0.0017187201 0.015757075 0.0023096646
0001f0 35 74 8e ba 03 6c 67 bc 7c 35 84 bc dd 48 39 bc
       -0.0010868373 -0.014124873 -0.016138785 -0.011308876

decoder.0.weight f4 [128, 64, 3, 3]
000000 61 1b 1a ba 75 d3 88 3c 07 0f a9 bc 27 0a b1 b9
       -0.00058787136 0.016702393 -0.020637048 -0.00033767635
000010 45 53 9b 3b 49 11 a9 3c 59 f7 9b 38 1e 32 37 3b
       0.004740151 0.020638125 7.437048e-05 0.0027953456
000020 3d 6f 92 bc c3 6e 4a 3d aa 67 ed 3b 4a 74 9a bd
       -0.017875308 0.049422037 0.0072450237 -0.07541712
000030 56 0e 4e bd ea 9f a9 3b 7b 8e f4 bc 56 40 37 bd
       -0.05030664 0.005176534 -0.029853096 -0.04473909
000040 04 73 4d 3d 96 4a 0b 3d e3 c2 14 bd 4e d0 77 bc
       0.050158516 0.034006678 -0.03631867 -0.015125347
000050 7b 4b 0b bc c0 bb 98 3d ac ef 54 3d 79 07 00 3d
       -0.008501883 0.074576855 0.05198638 0.031257126
000060 34 0e 0a 3d 80 02 6d bc a9 4b e7 3c 4f 74 65 3d
       0.03370495 -0.014465928 0.02823432 0.056019124
000070 7c ec 80 bc 05 d6 58 bd af c1 50 3d 19 15 80 3b
       -0.015737765 -0.05293848 0.05096596 0.003908765
000080 d4 8f db 3b 0a 62 e8 3c 4c b2 ce 3c 80 1f 58 bc
       0.0067004953 0.028367061 0.025231503 -0.013191104
000090 9a 87 f7 bc 6c 38 83 3c 1e 3d 0b bd c1 31 79 3c
       -0.030216027 0.016018115 -0.033993833 0.015209616
0000a0 95 0e a2 bb a0 d4 5a 3d bb b0 81 ba 3b 88 8b 38
       -0.004945586 0.05342543 -0.0009894589 6.6534114e-05
0000b0 de 86 32 bc 03 3d 3c bb 7a 2b 86 3d 1a 21 5d 3d
       -0.010896413 -0.002872289 0.06551261 0.053986646
0000c0 23 30 8f bc 6e f9 8c bc 02 76 c5 b9 aa c1 03 bd
       -0.017479008 -0.017208781 -0.0003766269 -0.032167114
0000d0 46 a5 03 bd 6c 03 21 34 17 84 1d 3c 75 e0 26 b4
       -0.03214004 1.4995538e-07 0.009614012 -1.5541612e-07
0000e0 ed f6 02 bc d6 5f 36 bc 69 99 57 3d f5 41 b9 bb
       -0.007993442 -0.0111312475 0.052636538 -0.0056536146
0000f0 16 64 35 38 4e c9 0f ba ba 57 a3 3c f1 be 50 3d
       4.3246975e-05 -0.0005485014 0.019939292 0.050963346
000100 5c a4 76 bd 20 a8 e7 a2 a7 8b 64 3c b0 f4 c2 bb
       -0.06021534 -6.2790685e-18 0.013949311 -0.005949579
000110 6f a8 49 3c a6 cb d8 bc 43 70 1d 3c 98 87 95 bc
       0.012308224 -0.026464295 0.009609285 -0.018253133
000120 d3 f1 3a 3c 6a 99 da b9 51 cf 40 3c c2 ad 2c 3b
       0.011410194 -0.00041694503 0.011768178 0.0026348685
000130 60 91 97 ba 1e 4a 85 bb 9f a4 15 bc f9 e5 a5 bd
       -0.0011563711 -0.0040676733 -0.009133487 -0.081005044
000140 bc d0 12 3c cf 90 37 bc 35 05 97 3a 2a 76 97 9e
       0.008960899 -0.011203959 0.0011521938 -1.6036618e-20
000150 d7 67 2c 37 b5 1f 30 bb 89 d2 12 3b 2c 71 10 0c
       1.0276176e-05 -0.0026874368 0.002240332 1.1127413e-31
000160 ca 17 93 bc 52 14 bc bc cc 46 e7 bc 9f 76 2d 3d
       -0.01795568 -0.022958908 -0.028232 0.042349454
000170 f2 11 3b 3d a4 33 1c bb ec 5e ab bd 8c e5 59 bc
       0.04567141 -0.002383449 -0.08367714 -0.013299357
000180 a3 88 1d 3b 0b 7a e0 ba ba 5e 11 3c 6a eb 70 bd
       0.002403774 -0.0017126215 0.008872682 -0.05881826
000190 01 36 29 bd e6 90 17 3d a8 b1 75 3c 7a e3 a1 3c
       -0.041311268 0.03700342 0.01499597 0.01976179
0001a0 08 73 3d bd 19 fb f6 bd 5a 11 ce 3c e6 59 0d 3c
       -0.04625228 -0.12059612 0.025154758 0.0086273905
0001b0 df c6 d8 bc 46 52 13 3d 90 c9 45 3d d6 7a 90 3b
       -0.026462017 0.035967134 0.048287928 0.0044091744
0001c0 e2 5a 66 bb 61 28 d2 bc a2 b5 2b bb a8 35 8c 3c
       -0.0035149385 -0.02565402 -0.002620079 0.017115429
0001d0 50 2d 76 3c 25 49 8c b5 a8 85 25 3d 38 f8 0d 3d
       0.015025452 -1.0452101e-06 0.040410668 0.034660548
0001e0 ea 8c 88 3b 20 81 22 39 94 a8 02 39 ae 5f 2b ad
       0.004167189 0.00015497627 0.00012460566 -9.74147e-12
0001f0 e1 18 c4 b8 b1 9c d0 bc b8 84 dd 3c aa 9d 01 3d
       -9.350642e-05 -0.025465341 0.027040824 0.0316445
000200 7b fd 0b bd c0 86 53 bd d9 e0 c4 3c 0d 9b ef bc
       -0.034177285 -0.05164218 0.024032997 -0.029248739
000210 39 67 4d 3c 9e ba 39 3d e2 8d 5d bb 44 1c b7 bc
       0.012536817 0.045343988 -0.0033806493 -0.022352345
000220 6a 80 14 2c 69 ba 15 bb f2 81 eb 3c 23 ea 09 3d
       2.110335e-12 -0.0022846705 0.028748486 0.033670556
000230 c3 d8 7f 3c 11 25 17 bd 34 dd 94 3c 3e df 96 bb
       0.015615645 -0.036900584 0.018171884 -0.0046042493
000240 63 87 f6 bb af d3 e7 3c 42 7c 34 3c 0a b4 72 bc
       -0.0075234636 0.02829918 0.0110159535 -0.0148134325
000250 f1 96 d7 bb 05 b1 c0 3c 9f 89 35 bd 63 1c 21 3c
       -0.006579273 0.02352191 -0.0443207 0.009833428
000260 44 57 66 3c 34 91 91 ac fd 4f dd 3a 9d 53 c0 2f
       0.014058892 -4.1372687e-12 0.00168848 3.4984007e-10
000270 4f 78 47 bd 6f d6 fc bb 53 23 55 3b 08 f5 80 16
       -0.04869872 -0.007715992 0.0032522276 2.0834152e-25
000280 80 22 c7 bc b1 71 58 85 dd ea e8 bc e5 8a e6 ba
       -0.024308443 -1.0177153e-35 -0.028432304 -0.0017589001
000290 7e cc eb 3b 1e d0 a6 ba cd 9f a9 3b d6 bc 4b bd
       0.007196008 -0.0012726819 0.0051765204 -0.049740635
0002a0 2a 89 03 bc 18 f1 f2 3c c1 bf 19 3b 21 7d b9 ad
       -0.008028308 0.029655978 0.0023460242 -2.1087633e-11
0002b0 a0 b9 2b bc f9 76 bd bc 45 7c 68 bc 45 8b cb 3b
       -0.010481268 -0.02312802 -0.014189784 0.0062116706
0002c0 86 d3 34 3c 2c f1 4f bc 37 02 cc b3 74 84 42 bc
       0.011036759 -0.012691777 -9.499893e-08 -0.0118724
0002d0 5a 0e 26 3c ac ec f8 3c 33 29 94 bc 89 36 99 39
       0.010135258 0.030386291 -0.018086052 0.00029223066
0002e0 e5 af 16 bd 31 fd 1e ae 44 4e aa 37 c2 c2 40 bb
       -0.03678884 -3.614992e-11 2.0302024e-05 -0.002941296
0002f0 4c 7d b4 35 03 a3 66 3c d8 3c d5 3b 6f e5 a2 bd
       1.3447511e-06 0.014076951 0.0065074973 -0.07953917
000300 c0 54 cb 3c 0b 75 11 3b 80 54 27 3d 1e 66 ef bc
       0.024820685 0.0022195007 0.04085207 -0.029223498
000310 ef 37 e1 3c bb 9f 4f bd 13 02 02 80 ab 6b a7 3c
       0.027492492 -0.05068944 -1.84415e-40 0.020437082
000320 93 18 63 3b 55 34 02 00 3e 1d 84 b5 a7 d8 54 14
       0.0034652099 2.02444e-40 -9.843277e-07 1.0745992e-26
000330 57 c4 d0 3c ef 44 03 80 62 f7 04 00 df 62 c7 3c
       0.025484247 -3.00235e-40 4.56086e-40 0.024339138
000340 57 f8 1b 3c 53 da 2d bb cf 47 ae 3c 27 5e 4c 3d
       0.009519658 -0.0026527836 0.021274475 0.04989448
000350 86 25 b3 bb 03 36 b5 3c 44 c9 89 3c 2d 22 d9 3c
       -0.0054671196 0.022120481 0.016819604 0.026505554
000360 fa f2 06 80 3f 14 b1 3b be 58 0b 80 e5 d1 26 9e
       -6.38177e-40 0.005404025 -1.042025e-39 -8.831372e-21
000370 b4 5f 7f 3c 03 bf 85 bc 1d 29 01 00 b1 72 36 81
       0.015586782 -0.016326433 1.06584e-40 -3.3510408e-38
000380 f1 d2 a6 bc 93 ba 08 3c 9d 4f b2 3c 26 3b c5 3b
       -0.020364257 0.008345264 0.021766478 0.006019014
000390 af 08 44 bc 68 00 35 3b 68 43 0f 3d 6b 26 22 bd
       -0.011964961 0.002761865 0.034976393 -0.03958742
0003a0 ae cf fa 3c f3 6a 63 3d 3d 75 6c bd 42 50 8e 3d
       0.030616608 0.055521917 -0.057728995 0.06948902
0003b0 03 aa 96 3d 68 44 df ba 70 83 b6 bc 19 08 45 3d
       0.07356646 -0.0017033936 -0.022279471 0.048103426
0003c0 e0 a1 93 bc 35 35 0e 3b 7d 1b 91 bc 96 2e 8c 2a
       -0.018021524 0.0021699194 -0.017713303 2.490132e-13
0003d0 a4 7b 82 bd d9 b8 1e 8b 4e 2c 55 35 5d 8d 5e bd
       -0.06371239 -3.0568757e-32 7.9413155e-07 -0.054334033
0003e0 13 62 cb 2b 5c 67 03 bc ef 16 5f ba e5 1e b8 bb
       1.4451239e-12 -0.008020248 -0.0008510192 -0.0056189173
0003f0 33 d3 02 bd f5 9d 2c 3d a0 36 95 bd f4 04 2a bd
       -0.031939697 0.042142827 -0.072858095 -0.04150863

decoder.0.bias f4 [64]
000000 aa b3 00 3d c8 63 be 3d 3d 44 52 3d 12 e9 a5 3d
       0.03142134 0.092963755 0.05133461 0.08101095
000010 53 04 8b 3d 55 9c 1a 3d 74 a1 f1 3c 3a 4a c8 ba
       0.06787934 0.037746746 0.029495932 -0.001528091
000020 4f f4 9a 3c 39 c3 2b bb a4 f4 28 3e 27 0e d8 3d
       0.018915324 -0.002620889 0.16499573 0.10549574
000030 2e 91 78 3d c5 54 b3 3c 42 84 a7 3d 44 d5 07 bc
       0.06068533 0.021891007 0.08179523 -0.008290593
000040 0f 2e 17 3d 7c 1b 2a 3a ea 92 e2 3d 24 59 29 3b
       0.03690916 0.0006489081 0.11063178 0.0025840485
000050 a1 56 54 3c 0d 13 67 3d 62 49 0e bc 35 e3 03 3e
       0.012960107 0.056414653 -0.008684488 0.12879641
000060 5b 6b 1e bc 54 17 37 3c 53 fe 56 3d 1a 1a 7c bb
       -0.00966915 0.011174995 0.052488636 -0.0038467706
000070 88 71 fb 3d 36 04 84 3d 67 fe b9 bb a0 92 75 3d
       0.12277514 0.06446116 -0.005676079 0.059954286
000080 b7 bc d8 3c 1b 9f 1b 3d 93 d7 1f bc e2 69 df 3d
       0.026457174 0.03799353 -0.009755987 0.109088674
000090 24 2e a8 3d d4 3c 05 3d 04 00 8d 3d 92 c4 27 3d
       0.082119256 0.032528713 0.068847686 0.04095895
0000a0 d3 c6 7f 3d 45 f4 73 bb 3d b4 91 3c 41 89 b5 3c
       0.062445473 -0.0037224453 0.01778614 0.022160174
0000b0 1e ba d4 ba f3 b5 53 3c b2 23 bb 3b ab 73 e5 3d
       -0.0016229784 0.012921798 0.0057110423 0.112037025
0000c0 a8 28 8e 3d ce 8d ef 3c dc bb a4 3d 8f 6a 41 3d
       0.06941348 0.029242422 0.08043644 0.047220763
0000d0 c5 75 82 3d 8b 7a de 3c 30 e5 19 3d 3d e5 b9 3b
       0.06370119 0.027158042 0.037572086 0.0056730793
0000e0 df 34 e8 3b 46 a8 83 bb eb 1c b8 3d e6 cb 8c 3d
       0.007086381 -0.0040178625 0.08989891 0.06874828
0000f0 07 cc 1a 3e bf 0c 05 3d 6a 34 20 3d 31 8c 05 3d
       0.15116893 0.03248286 0.039112486 0.0326044

decoder.2.weight f4 [64, 32, 3, 3]
000000 4b 3a ec 3b 00 3c 7d 3c bb ef 89 bc 7e fc dc 3c
       0.0072090975 0.0154562 -0.016837945 0.026975866
000010 ad 0c 17 bd ba 18 71 bc 74 34 27 3d e1 1f 0a bd
       -0.036877323 -0.014715368 0.040821508 -0.03372181
000020 43 93 05 bd 29 df e3 3d e8 3f 05 bd db a1 0c bc
       -0.032611143 0.11126549 -0.03253165 -0.008583511
000030 bd ca ae 3d bb 02 64 bc 5a 43 54 3d 9b 2e 6f 3d
       0.08534763 -0.013916667 0.051822044 0.058394056
000040 df 49 43 bd e3 fa 0a 3a cc 2c 66 bd 2d 00 0b 3d
       -0.04767787 0.0005301667 -0.056195065 0.033935715
000050 36 5e 98 3b a8 f9 77 3d ca a6 d3 bc 8a 70 72 bb
       0.0046499027 0.060540825 -0.025836367 -0.0036993348
000060 5f c3 c8 bc 4f 92 dd 3c 4b 93 aa 3c 72 5e f5 bc
       -0.024507223 0.027047304 0.020822188 -0.029952262
000070 06 bf 34 bd 28 65 fd 3b d6 be b6 3c fe 23 c2 bd
       -0.044127487 0.007733006 0.022307795 -0.09479521
000080 91 a0 20 3b 66 59 80 ba a4 72 3d bc b1 b8 f5 3b
       0.0024509768 -0.0009792268 -0.011562977 0.0074988236
000090 1a 10 01 3c cf ef 93 3b ad 6e 0f bb 67 dd 56 bd
       0.007877374 0.0045146714 -0.0021886036 -0.05245724
0000a0 f6 1c 42 bd cc f9 87 3b 77 3f a0 bc 92 ca 7c bc
       -0.0473909 0.004149651 -0.019561512 -0.015429156
0000b0 81 b2 01 bb 03 95 b9 bb 97 5d 85 3c 2d ae b1 bb
       -0.0019790235 -0.0056635155 0.016279979 -0.0054223747
0000c0 0a e8 2b bd 35 18 8b 3c 30 18 81 bc 9f 7f a6 3b
       -0.041969337 0.016979316 -0.015758604 0.0050811316
0000d0 e7 fd c1 bc 71 75 17 bd bc 2b f8 bc fd bb e4 3c
       -0.02368064 -0.036977235 -0.030294292 0.027921671
0000e0 39 76 f2 3b 06 75 7b bc 55 a7 16 bd 5a 91 a1 bc
       0.007399347 -0.015347725 -0.036780674 -0.01972263
0000f0 1f 84 30 3d 46 9c ba bb fe 22 a3 3c 25 6c c5 bd
       0.04309475 -0.005694899 0.019914147 -0.096397676
000100 50 f2 91 bc 43 73 2d bc 8c 45 2b bd fb 59 88 3c
       -0.017815739 -0.010586563 -0.041814372 0.016644469
000110 c8 41 31 3b 1b 70 06 bd 7c f3 5a 3c 2d db 5a bc
       0.0027047265 -0.032821756 0.013363715 -0.01335792
000120 2b 2a 8e bc f7 12 3d 3c 05 2e 5a bc c2 8a ef b9
       -0.017354092 0.011540166 -0.013316636 -0.00045689015
000130 c8 65 83 bd 74 de 63 bc 27 bd a6 3c 35 74 16 bc
       -0.064158976 -0.013908017 0.020353867 -0.009182979
000140 83 be 87 bc c9 9c 08 3d 40 44 0b 3a e9 ff 16 3a
       -0.016570335 0.033352647 0.0005312599 0.00057601795
000150 a6 98 a6 3d f0 6a e5 bc 3d bb 36 bc 21 73 6a 3c
       0.08134584 -0.028005093 -0.0111530395 0.014309675
000160 13 3f 80 bb a2 52 45 3b 26 e6 c1 3d 47 02 67 bd
       -0.003913769 0.0030109067 0.094677255 -0.056398656
000170 93 d3 ef 3b 54 54 a3 bd 78 3f 04 3d fe 06 ba 3c
       0.007318923 -0.07975069 0.03228709 0.022708412
000180 7b fa dc bc 9c bd 0c bd 1d 5d c7 bc 89 be 2c bd
       -0.026974907 -0.034360513 -0.024336392 -0.042173896
000190 87 3d 4d bc 10 0a 5d bc 5e 8d 00 bd ed 71 cd bc
       -0.012526876 -0.013491169 -0.03138482 -0.025078738
0001a0 8c e3 aa 3c 56 d6 1c bd ee 49 e5 3c 1c 68 0a 3c
       0.020860456 -0.038290344 0.027989354 0.008447673
0001b0 4b 13 8f 3c 3f 4e 3a 3c cd b7 68 3c 37 8f 41 3d
       0.017465254 0.011371194 0.014203978 0.04725572
0001c0 6e f7 35 3b af 23 77 bc 30 43 35 3c 81 9f b2 3c
       0.0027765888 -0.015084191 0.011063382 0.021804573
0001d0 8e 30 18 3c c8 36 c4 bb 6f 27 c2 bc 28 49 01 3c
       0.00928892 -0.0059879757 -0.023700444 0.007890977
0001e0 a9 4e 07 bd fd 1b 2c 3d e6 0e d9 3b a1 0e 9c bc
       -0.033034 0.04201888 0.0066240905 -0.019049944
0001f0 3f 5e 84 3b dc 15 c5 3b 95 1f 96 bd 74 86 e4 39
       0.0040395553 0.0060145687 -0.073302425 0.00043587724
000200 d9 66 64 3b d3 db be 39 c5 e6 b1 bc 58 3d e9 b9
       0.003485134 0.00036403406 -0.021716485 -0.00044486928
000210 41 82 19 bc d6 9a 67 3c 6e b0 3c 3c cd 0a f0 bc
       -0.009369434 0.014136037 0.0115166735 -0.029302025
000220 7c fe 86 3c 2d 83 2d bb 92 fd 0c bd 6e 06 05 3a
       0.01647877 -0.0026475892 -0.03442151 0.00050745055
000230 14 2c a8 bc b1 1c 07 3c dd 7c e7 bb e6 b0 a5 3c
       -0.02052883 0.008246587 -0.0070644454 0.020225953
000240 64 02 5e bd 64 75 14 3d f6 35 26 3a c7 07 03 bd
       -0.0542015 0.036244765 0.0006340438 -0.03198984
000250 cf 7d a4 bc 72 0c 54 3b cc b9 ba 3b 90 be 3d 3c
       -0.020079521 0.003235605 0.0056984182 0.011581078
000260 be 50 b1 3c da fb 7b bd b0 9f ed 39 13 e9 2e bc
       0.021644946 -0.06151948 0.0004532314 -0.010675686
000270 d3 43 c7 bc 43 76 a9 3c 60 c8 60 bc 9b 97 82 3d
       -0.024324333 0.020686274 -0.013719648 0.06376573
000280 fe e1 24 bb 5f f7 c1 bc 1b 97 db 3c b3 26 e4 bb
       -0.0025159116 -0.023677526 0.026805451 -0.006962621
000290 75 2b d7 bc 85 ad cd 3d 94 bb 9d bd 8f 08 68 3a
       -0.02626584 0.10042862 -0.07701793 0.0008851373
0002a0 47 f8 96 3c 91 ee 43 3d e1 eb a3 3c a4 d0 dd 3c
       0.018428935 0.047834937 0.020009937 0.027077027
0002b0 03 10 1c 3d a5 e7 c0 bb 3c 02 8a bc b9 7f ba bc
       0.038101207 -0.005886989 -0.016846769 -0.022765981
0002c0 80 c8 c2 bc 0e b9 d8 bc b6 21 53 bd 65 ff ea bc
       -0.023777246 -0.026455428 -0.05154582 -0.028686235
0002d0 77 55 b5 3d 66 bc 35 bd f6 b8 6d bc b9 3a cd bd
       0.08854192 -0.044369124 -0.01450943 -0.10020966
0002e0 64 01 2a bd ed 63 3b bd a1 54 8b bc 8e d6 3f ba
       -0.041505232 -0.045749594 -0.017008128 -0.0007318043
0002f0 8a e7 33 bd a4 05 77 3d ec 88 62 3d 7d 9b bb 3c
       -0.043921985 0.060308114 0.05530636 0.022901291
000300 c3 cf 7e 3d 20 50 41 3d be 48 a0 bb a9 c0 c7 bb
       0.062209856 0.047195554 -0.004891484 -0.006095965
000310 15 05 26 3d 28 38 ef 3c c6 1e 2c 3d 9a 23 30 bd
       0.04053219 0.029201582 0.042021535 -0.043002702
000320 74 c6 87 bc ac 10 1a bc 25 69 ce bc 2c 1b e4 3c
       -0.016574122 -0.009403389 -0.025196621 0.027844988
000330 b3 d0 d6 3c fd a6 55 bd 66 3a 25 3b 47 4c 0e ba
       0.026222562 -0.052161206 0.002521181 -0.00054282363
000340 63 21 09 bd 63 84 4f bb 71 8d b9 bc a3 b6 f6 3b
       -0.033479106 -0.0031664602 -0.022650452 0.007529096
000350 42 11 e7 bb ff 8e 58 3b b6 fe 03 bc 2f 79 ef bc
       -0.007051618 0.0033044217 -0.008056333 -0.02923259
000360 33 0b 97 3d f7 78 88 bd 77 6f aa 3c 65 ec 42 3d
       0.07375183 -0.06663697 0.020805104 0.047588725
000370 9e 21 b6 3c 40 f7 4b 3c 22 cb a0 3c a4 ec e6 bc
       0.022232827 0.012449086 0.019628111 -0.02818901
000380 6f d2 73 39 06 16 74 bc fe 4d 6d bd 9e 16 62 b8
       0.00023252679 -0.014897829 -0.057935707 -5.3903663e-05
000390 dd f4 05 3d 05 24 ac bc 30 2c a2 3b ab fb 2b 39
       0.032704223 -0.02101327 0.004949115 0.00016401584
0003a0 51 6f 8b bc 31 5c 7d bc a4 58 96 bc 66 02 f7 3c
       -0.017020853 -0.015463875 -0.018352814 0.03015251
0003b0 5a 60 fd bc a9 cf a7 bd 9c e9 0d 3c 3b 2f 32 bd
       -0.030929733 -0.08193905 0.008661654 -0.043502074
0003c0 8e 6b 13 bd b3 64 19 bc b3 05 f3 bc e6 c1 08 bc
       -0.035991244 -0.0093623875 -0.029665804 -0.00834701
0003d0 fb bd 94 bc ae d1 82 bb eb 98 5e bd e4 29 86 3b
       -0.018156996 -0.003992281 -0.054345053 0.004094349
0003e0 f4 a1 38 bc 36 fe e9 3c 80 f6 bc bd af 73 6e bb
       -0.011269081 0.0285636 -0.09226704 -0.003638487
0003f0 70 10 7b 3c 57 e9 67 bc 26 dc 05 bd a6 89 02 3d
       0.015323743 -0.014154754 -0.032680653 0.031869553

decoder.2.bias f4 [32]
000000 99 4c a0 bd 8f 95 25 3d c5 ec 80 3d 23 a3 bf be
       -0.0782711 0.040425833 0.0629516 -0.3742915
000010 b3 e9 29 bd 1f b6 83 bd cb 54 88 bd 22 ac 09 bd
       -0.04148264 -0.06431221 -0.06656798 -0.033611424
000020 13 48 98 bd 06 e7 29 3d 13 4a 38 bd bc cd 4b 3d
       -0.07435622 0.041480087 -0.044992518 0.04975675
000030 88 7d 92 bc eb e7 a0 bd 13 e0 32 3c 1f db 3f 3d
       -0.017882124 -0.07856735 0.010917681 0.04683983
000040 17 ef 42 3a 81 a9 e8 bc 42 5b b8 ba f2 db c6 bd
       0.000743614 -0.028401138 -0.0014065283 -0.0970992
000050 1a 78 88 bd b1 7c 74 3d 04 4c c4 bc ee d6 47 3c
       -0.066635326 0.059689227 -0.023962028 0.012197239
000060 05 4c 78 3d e9 84 35 bd 7f 3f 3c bd ec b7 4e bd
       0.060619373 -0.044316206 -0.045958992 -0.05046837
000070 7d 7a 2e bc 74 9d 55 3c e3 04 ca bc 4f d0 54 bd
       -0.010649321 0.013038028 -0.024660533 -0.05195647
