mnist_simple_full.pt (torch_old, 699337 bytes, 6 tensors)

0.conv1.weight f4 [8, 1, 3, 3]
0.57868934 0.5148869 -0.014321265 0.23813245 0.6207291 0.7762512 0.6902783 0.7400792
0.62038994 0.33307636 0.40392432 0.33330166 -0.007245897 -0.050819017 0.04302205 0.23608063
0.17924078 0.1718591 -0.08501997 0.67696816 0.3502996 0.49996215 0.4582036 0.7155187
0.72231734 0.2806302 0.6381589 0.8126706 0.43721083 0.10477843 0.825717 0.36974686
0.3943254 0.58818275 0.3477135 -0.10987503 -0.30336255 0.078566365 -0.21562004 -0.033689458
0.25435254 -0.14625402 -0.18317242 0.05232358 0.027709657 0.026954394 0.090066135 0.47574106
0.027975492 -0.32196093 -0.086151406 -0.10344883 -0.18960515 -0.28904295 -0.13743876 0.03441625
0.27833253 0.03647315 -0.036881443 0.41838384 0.21825853 -0.15087545 0.041848663 0.0779853
-0.32529527 0.003436293 -0.200332 -0.2012673 0.49324235 0.37167686 0.49991935 0.43601793
00000000: fc24 143f a1cf 033f bda3 6abc fed8 733e
00000010: 1ae8 1e3f 66b8 463f 14b6 303f d575 3d3f
00000020: e0d1 1e3f fc88 aa3e 2bcf ce3e 84a6 aa3e
00000030: fd6e edbb 9a27 50bd e437 303d 1fbf 713e
00000040: e58a 373e d5fb 2f3e f31e aebd c94d 2d3f
00000050: 785a b33e 0afb ff3e aa99 ea3e 3c2c 373f
00000060: cae9 383f c3ae 8f3e 625e 233f 2e0b 503f
00000070: 19da df3e 1396 d63d 3062 533f 764f bd3e
00000080: 05e5 c93e 2593 163f 8107 b23e 2906 e1bd
00000090: 5652 9bbe 67e7 a03d 80cb 5cbe f5fd 09bd
000000a0: 7f3a 823e 9dc3 15be 8d91 3bbe 4051 563d
000000b0: 5dff e23c 76cf dc3c 9874 b83d 5594 f33e
000000c0: dc2c e53c 10d8 a4be 2670 b0bd fbdc d3bd
000000d0: da27 42be 70fd 93be bfbc 0cbe 0ef8 0c3d
000000e0: 9a81 8e3e df64 153d ff10 17bd 6836 d63e
000000f0: 2a7f 5f3e 187f 1abe 8169 2b3d c2b6 9f3d
00000100: 1a8d a6be 6e33 613b d523 4dbe 0419 4ebe
00000110: 438a fc3e 6e4c be3e 6ef5 ff3e be3d df3e

0.conv1.bias f4 [8]
0.29517 -0.1455904 0.33970502 0.31157997 -0.24464075 0.2471272 0.000103801845 0.00029463088
00000000: 8620 973e a615 15be d1ed ad3e 6987 9f3e
00000010: 1b83 7abe ea0e 7d3e 31b0 d938 b078 9a39

0.fc1.weight f4 [128, 1352]
0.021210723 -0.004615145 -0.019441474 0.00910645 0.011655644 -0.007067708 0.0029490364 0.013958681
0.0058226464 -0.0023759394 -0.016591037 -0.0146178035 0.0071175536 0.005464377 0.012784078 0.017366149
-0.026717145 0.019152297 0.019833833 -0.023764323 0.004983832 0.012002744 -0.028227758 -0.019711796
-0.025843954 0.027901439 0.010377826 0.020797381 0.016610045 -0.01917306 -0.019925768 -0.01162198
0.020962713 0.028401366 0.0043167835 -0.009147919 0.019746408 -0.007438992 -0.018622508 -0.0023328227
0.00731563 0.00036013025 0.020718798 0.011240033 0.05459016 0.009048376 -0.018325323 -0.001763613
0.0066541145 0.031504482 0.031759154 0.03673768 0.024588047 -0.012588016 0.027470864 0.051988594
0.024093268 0.05514895 0.019690778 -0.01981701 -0.0024795562 -0.011008058 -0.010920971 0.035301015
-0.008884596 -0.019228281 0.007191999 -0.007069376 0.013509822 -0.0202852 0.003464773 0.013264723
-0.018891959 -0.043828152 -0.00012746458 -0.006614383 0.004513019 0.029431531 0.010258651 0.011364874
0.0037701027 -0.0072642514 -0.024660371 -0.016800603 -0.025021132 -0.016551571 -0.027756337 -0.040297236
0.0045749824 -0.025616042 0.004216562 -0.025216106 -0.010451697 -0.018987102 -0.00026879765 -0.02456503
0.01305234 -0.0040758285 -0.037720583 -0.01706959 -0.013514827 -0.0007618529 -0.004708379 0.00047454002
-0.015887922 0.0051783547 0.008303831 -0.023565212 0.019047588 0.025800124 0.0017318805 -0.024581265
-0.014866706 -0.01688426 -0.0129995365 0.03140998 -0.012760754 -0.0070318165 0.013422572 0.0110325925
0.02148698 0.005449783 0.01456712 0.0028951652 0.005833109 -0.0064142607 -0.012217468 -0.014124236
0.030174458 0.005099544 0.009377959 0.007855971 -0.020444084 0.034161653 0.010792334 0.034790896
1.0945125e-05 -0.011443263 0.031414714 0.021918986 -0.018163621 -0.013127216 -0.0058366726 -0.0063134218
0.012946466 -0.00392943 0.017517311 -0.0022107682 -0.0046694516 0.048687782 0.010001865 0.015026256
0.01730161 -0.008088832 0.022583947 0.01983831 0.0074344515 0.0041274396 -0.028584503 -0.026764667
0.014768061 -0.0010837868 0.00486957 -0.011151039 -0.015071602 -0.0074360166 0.026706912 -0.0121178515
0.0031259982 0.014878634 0.021533227 0.009651043 -0.0041361 0.0048479554 -0.024457237 0.004039923
0.011488154 0.015459001 -0.010137439 0.0043871924 -0.01519297 -0.019227717 0.021777358 0.026473815
-0.015642468 0.022799376 0.02480921 0.0018921362 0.014828504 0.0127302725 -0.01342198 0.026284505
0.007695347 -0.0058032456 -0.0069169737 -0.023578294 0.012177726 -0.009400029 0.010628384 0.024218196
-0.007944139 -0.016145045 0.016195744 -0.014698115 -0.0195674 0.00025908274 -0.013155934 0.0030191278
0.0039430773 0.011522337 -0.020369247 -0.00430191 0.025825499 0.01777529 -0.021989828 0.0008752621
0.007466689 0.0042080893 0.024634367 -0.0013993864 -0.024269894 0.0021491398 -0.018554363 0.0070857666
-0.017568931 0.023046575 -0.015211794 -0.0006344865 0.022977592 0.0032788415 -0.01539336 0.024081368
0.031149918 -0.0058670603 -0.003218131 0.008860815 -0.01714229 -0.004654027 0.007698208 0.0009935691
-0.016227014 -0.0033973516 -0.010077956 -0.0044008377 -0.013670621 -0.0029485002 -0.007362253 -0.014772109
0.012099665 -0.024311775 -0.022724574 -0.02255978 -0.0031469609 -0.023448154 0.010884385 -0.016020149
00000000: 1cc2 ad3c a43a 97bb ba43 9fbc 3833 153c
00000010: 50f7 3e3c 3b98 e7bb 9f44 413b f4b2 643c
00000020: e6cb be3b a6b5 1bbb ede9 87bc 837f 6fbc
00000030: 5e3a e93b 840e b33b 4f74 513c 7443 8e3c
00000040: eadd dabc 47e5 9c3c 907a a23c 66ad c2bc
00000050: 6a4f a33b 28a7 443c e63d e7bc a27a a1bc
00000060: b3b6 d3bc 8f91 e43c c207 2a3c 455f aa3c
00000070: ca11 883c d210 9dbc 5d3b a3bc 1e6a 3ebc
00000080: ffb9 ab3c fba9 e83c ce73 8d3b 27e1 15bc
00000090: 38c3 a13c cac2 f3bb 3b8e 98bc 45e2 18bb
000000a0: f4b7 ef3b ddcf bc39 78ba a93c 1e28 383c
000000b0: ee99 5f3d a43f 143c fd1e 96bc 0829 e7ba
000000c0: c20a da3b d80a 013d e315 023d 407a 163d
000000d0: df6c c93c f73d 4ebc 940a e13c fef1 543d
000000e0: 3f5f c53c dee3 613d 8e4e a13c 4857 a2bc
000000f0: 0d80 22bb 245b 34bc dfed 32bc cc97 103d
00000100: b290 11bc a184 9dbc dcaa eb3b 39a6 e7bb
00000110: 4d58 5d3c 262d a6bc 3f11 633b 4854 593c
00000120: 4fc3 9abc 2685 33bd 03a8 05b9 77bd d8bb
00000130: f3e1 933b 651a f13c e713 283c bd33 3a3c
00000140: d413 773b f508 eebb 8c04 cabc 6ba1 89bc
00000150: 1ef9 ccbc 2997 87bc 4261 e3bc b70e 25bd
00000160: bce9 953b bcd8 d1bc 162b 8a3b 0292 cebc
00000170: 983d 2bbc d78a 9bbc 69ed 8cb9 9a3c c9bc
00000180: 7bd9 553c 878e 85bb e680 1abd 86d5 8bbc
00000190: 4b6d 5dbc 15b7 47ba bf48 9abb afcb f839
000001a0: 6327 82bc 30af a93b cb0c 083c d50b c1bc
000001b0: b009 9c3c c85a d33c 4400 e33a a65e c9bc
000001c0: 7c93 73bc dc50 8abc 02fc 54bc c0a7 003d
000001d0: 7b12 51bc 276b e6bb 59ea 5b3c 0cc2 343c
000001e0: 7705 b03c 1894 b23b eeaa 6e3c d0bc 3d3b
000001f0: aa23 bf3b b82e d2bb c62b 48bc 5769 67bc
00000200: 6d30 f73c 131a a73b 03a6 193c 55b6 003c
00000210: 5a7a a7bc 17ed 0b3d 54d2 303c e680 0e3d
00000220: f4a0 3737 867c 3bbc b7ac 003d 728f b33c
00000230: e0cb 94bc 8913 57bc 8f41 bfbb d2e0 cebb
00000240: 6a1d 543c 73c2 80bb 7780 8f3c 89e2 10bb
00000250: 3302 99bb d76c 473d ddde 233c b030 763c
00000260: 1bbc 8d3c 0587 04bc f801 b93c f483 a23c
00000270: b39c f33b 793f 873b 0c2a eabc 9341 dbbc
00000280: bdf5 713c da0d 8eba ea90 9f3b d9b2 36bc
00000290: e1ee 76bc d4a9 f3bb 74c8 da3c f489 46bc
000002a0: 8cdd 4c3b 84c5 733c 7366 b03c 691f 1e3c
000002b0: 1f88 87bb 99db 9e3b 8b5a c8bc 5561 843b
000002c0: cf38 3c3c c047 7d3c 8017 26bc 70c2 8f3b
000002d0: efeb 78bc 7283 9dbc 6e66 b23c 9ddf d83c
000002e0: a224 80bc c2c5 ba3c af3c cb3c 8e01 f83a
000002f0: 41f3 723c a292 503c dde7 5bbc 9a52 d73c
00000300: 4029 fc3b 2729 bebb c8a7 e2bb 4427 c1bc
00000310: 1685 473c 9402 1abc ac22 2e3c 3d65 c63c
00000320: 2228 02bc 9d42 84bc f0ac 843c 5dd0 70bc
00000330: d04b a0bc 7fd5 8739 fd8b 57bc 8fdc 453b
00000340: ee34 813b 2fc8 3c3c 68dd a6bc 09f7 8cbb
00000350: ff8f d33c 7c9d 913c 0324 b4bc d871 653a
00000360: 21ab f43b 03e4 893b 03ce c93c 9e6b b7ba
00000370: a8d1 c6bc 95d8 0c3b 52ff 97bc b82f e83b
00000380: b8ec 8fbc 2ccc bc3c e33a 79bc ab53 26ba
00000390: 813b bc3c d5e1 563b 6e34 7cbc 4a46 c53c
000003a0: 1d2e ff3c 7840 c0bb 47e7 52bb f42c 113c
000003b0: fd6d 8cbc cf80 98bb 4041 fc3b a63a 823a
000003c0: 84ee 84bc 1aa6 5ebb 031e 25bc e734 90bb
000003d0: befa 5fbc a03b 41bb 0e3f f1bb b706 72bc
000003e0: ac3d 463c 7d29 c7bc e328 babc 4acf b8bc
000003f0: 3e3d 4ebb 5816 c0bc 6b54 323c b03c 83bc

0.fc1.bias f4 [128]
0.019208802 -0.021815958 0.03207819 0.04591598 0.02178527 0.003132977 0.023987401 0.031148685
0.009279011 0.027845701 0.01086599 0.016917177 0.0077587776 -0.001258054 0.032189254 0.015490379
0.024952687 -0.0047355504 0.013466719 0.018438367 -0.0077715195 0.0026861408 -0.020875253 0.04091234
0.010351795 -0.007200083 -0.00870273 0.008963774 -0.012293708 0.006538192 0.008292665 0.03442794
0.018722717 0.012204823 0.020277947 -0.028297553 -0.016370518 0.025893796 0.014130736 0.023570912
0.038808733 0.013294956 -0.010524056 -0.019380752 0.0021721453 0.029225439 0.021762075 0.025564637
-0.0064151664 -0.019950146 0.0023273185 -0.009394291 -0.012160611 -0.013860432 0.007684428 -0.01017148
0.0206049 -4.2610514e-05 0.020603133 0.0257597 0.023658015 -0.022902535 -0.026457502 0.01383442
0.022277305 -0.0047892192 0.015506979 0.0026570593 -0.015973566 0.00438768 -0.017747939 0.027897956
-0.0050369194 0.011408473 0.023535846 0.0043714023 -0.017129965 0.018118469 0.031700443 0.008957648
-0.0041273236 -0.023974672 2.5936322e-05 -0.024666682 0.016937515 0.016761443 0.04351232 0.022158932
0.036065914 -0.015073534 0.029804623 -0.01454731 -0.01837819 -0.022224367 0.023476152 0.012261788
-0.0033446809 0.0038543053 -0.0067597367 -0.020059537 -0.015221239 0.0073751337 0.033700794 0.021754855
-0.008270261 0.0010293818 0.0078083416 0.0082088215 -0.0098854005 -0.011737828 0.012150109 0.0403636
-0.0031874792 0.0132083045 0.032113675 0.014329993 0.02078972 0.0038375398 0.015033938 0.020567277
-0.010006739 0.028811308 0.0012073838 -0.0018379982 0.007073138 -0.011543878 -0.011536204 -0.00090725237
00000000: c75b 9d3c 61b7 b2bc 6c64 033d 6512 3c3d
00000010: 0677 b23c a252 4d3b 3a81 c43c 872b ff3c
00000020: fe06 183c ab1c e43c 4407 323c e495 8a3c
00000030: 583d fe3b 4ae5 a4ba e1d8 033d 5ccb 7d3c
00000040: 9469 cc3c ad2c 9bbb 83a3 5c3c 0f0c 973c
00000050: 3ba8 febb f709 303b 9402 abbc b393 273d
00000060: 939a 293c adee ebbb e595 0ebc cbdc 123c
00000070: 8c6b 49bc 543e d63b f5dd 073c 5004 0d3d
00000080: 6260 993c bdf6 473c f01d a63c 45d0 e7bc
00000090: 771b 86bc 3a1f d43c 9a84 673c c917 c13c
000000a0: e8f5 1e3d 16d3 593c 176d 2cbc 62c4 9ebc
000000b0: 8d5a 0e3b 306a ef3c 6146 b23c ee6c d13c
000000c0: 5136 d2bb 7d6e a3bc ed85 183b 83ea 19bc
000000d0: 4d3d 47bc de16 63bc a7cd fb3b 47a6 26bc
000000e0: 9bcb a83c b1b8 32b8 e7c7 a83c 0206 d33c
000000f0: 74ce c13c 199e bbbc 67bd d8bc c3a9 623c
00000100: e57e b63c e2ee 9cbb fc10 7e3c 0f22 2e3b
00000110: ffda 82bc 87c6 8f3b 2064 91bc 418a e43c
00000120: be0c a5bb 9bea 3a3c 3fce c03c fb3d 8f3b
00000130: 2454 8cbc 2f6d 943c 53d8 013d 19c3 123c
00000140: 803e 87bb 8866 c4bc d491 d937 c811 cabc
00000150: 8bc0 8a3c 4b4f 893c f939 323d a686 b53c
00000160: dab9 133d fcf6 76bc d328 f43c d757 6ebc
00000170: dc8d 96bc e00f b6bc 0f51 c03c abe5 483c
00000180: 6f32 5bbb 8398 7c3b c880 ddbb e653 a4bc
00000190: 8162 79bc 1bab f13b d809 0a3d 3d37 b23c
000001a0: fd7f 07bc 52ec 863a 1edd ff3b 4b7e 063c
000001b0: 60f6 21bc 0550 40bc 4011 473c 4d54 253d
000001c0: 07e5 50bb a567 583c a189 033d 59c8 6a3c
000001d0: 344f aa3c 3c7f 7b3b e850 763c b57c a83c
000001e0: 4ef3 23bc b105 ec3c 1441 9e3a fce8 f0ba
000001f0: c8c5 e73b 8922 3dbc 5902 3dbc add4 6dba

0.fc2.weight f4 [10, 128]
0.05461625 0.09406359 -0.120806314 0.006556558 0.074600846 0.050984945 0.06118578 0.12948963
0.10123238 -0.07784521 -0.089796335 0.06897923 0.03959239 0.021599734 0.051520303 0.019179316
-0.03248828 -0.07714369 0.060088824 -0.15834646 0.06745773 -0.19713137 0.21344034 -0.073889345
-0.03178362 0.052297793 -0.025535801 0.11035283 0.1661797 -0.041499186 0.0659481 -0.073291
0.008018902 -0.1974772 -0.08916934 -0.006342056 0.09945979 0.1253368 0.13240892 0.08137405
-0.13476291 -0.06718194 -0.010873669 -0.04787382 -0.033853177 -0.0075320452 -0.008173861 -0.07225045
0.20078929 0.085815124 -0.075819105 -0.02891493 0.019316606 -0.021261843 -0.1081012 -0.07472408
0.020784965 -0.011309986 0.14436911 0.02105093 -0.068393365 0.017898422 -0.033526123 -0.18879054
-0.0027567737 0.16133462 -0.099997185 0.048619837 -0.042447507 0.15348692 0.029726079 -0.08100055
-0.062883295 0.07146296 -0.0004941032 0.0025882344 -0.15106194 -0.063276045 -0.15825464 0.0014809119
-0.18919061 -0.031696748 0.05710392 -0.041686658 0.09351892 0.068645865 0.039537005 -0.14645226
0.06768235 -0.13023697 -0.17247681 -0.17857139 0.09732586 -0.002255522 -0.14493152 -0.015845956
-0.020654766 0.11693159 0.13412641 -0.05675956 0.15203407 -0.0035868348 -0.14719686 0.085741825
-0.04916681 0.01051423 -0.008000103 -0.070879735 -0.0645959 -0.08212344 0.10160771 0.13202468
-0.057902873 0.10045318 -0.06578867 0.03183667 0.071264625 -0.07525646 -0.08187049 0.18840632
-0.07084223 -0.016765308 0.010056959 0.11244555 -0.11512089 0.10518274 -0.06881917 0.034205377
0.010696681 -0.0007522859 0.1170366 0.09792015 -0.056359343 0.11500909 0.1482627 -0.065117255
-0.07142196 -0.13294214 -0.08405867 0.12312343 0.04050535 0.09378378 0.060002986 0.060529515
0.1185293 -0.017538246 0.11116486 0.21254808 0.099081025 -0.043345474 -0.19853464 0.15957043
0.023388714 -0.056812413 -0.13696793 -0.06986883 -0.12482584 0.14108545 0.04700461 0.121350504
0.053743463 0.16792442 -0.09475651 -0.044580616 -0.040910535 -0.0283839 -0.10184284 -0.06478249
0.063700646 -0.028376428 0.083689444 0.057988364 0.116866075 0.008153113 0.12256691 -0.057054795
-0.230413 0.081451595 -0.0044526807 0.123687126 -0.07361551 0.07716835 -0.0135922395 -0.028592536
0.108533725 -0.042010203 -0.08859697 0.15703776 0.01605816 -0.06722748 -0.14868686 0.04678439
0.09927105 0.028557695 0.048208054 -0.032482807 -0.008775927 -0.15886751 0.046096794 -0.031928696
0.012129951 0.04316433 0.08592878 -0.012601707 -0.13823524 -0.035161205 0.1860835 0.059336804
0.19205354 -0.14573607 0.036053266 0.059685342 -0.16420788 0.0061374283 0.16104284 -0.051951755
0.067195654 -0.09557961 0.17731689 -0.080975614 0.005587254 -0.0005976247 -0.12994531 -0.08338642
-0.10686219 -0.12593032 -0.115000315 0.09006141 -0.031081434 0.16199417 0.13867144 -0.10474679
0.08028108 -0.0984175 -0.101008825 -0.08130082 0.09125024 -0.14395411 -0.14981619 0.081395544
0.11625916 -0.021387912 -0.08388983 0.0040784543 -0.057629015 -0.06673358 0.09780532 -0.18069728
-0.09520396 -0.026000556 -0.15078536 -0.22043996 -0.14222884 -0.022865178 -0.13216645 0.07526661
00000000: 4ab5 5f3d 69a4 c03d 4d69 f7bd 65d8 d63b
00000010: 54c8 983d 97d5 503d f19d 7a3d ee98 043e
00000020: ec52 cf3d 4f6d 9fbd 24e7 b7bd fc44 8d3d
00000030: a12b 223d edf1 b03c f406 533d f11d 9d3c
00000040: 6e12 05bd 83fd 9dbd b31f 763d 9325 22be
00000050: 4727 8a3d cedc 49be 1b90 5a3e 4c53 97bd
00000060: 8b2f 02bd 3636 563d 7530 d1bc aa00 e23d
00000070: 032b 2a3e 0dfb 29bd cc0f 873d 9819 96bd
00000080: b661 033c 7737 4abe 6a9e b6bd 06d1 cfbb
00000090: 93b1 cb3d 4a58 003e 3496 073e 70a7 a63d
000000a0: 4aff 09be af96 89bd 7927 32bc 5717 44bd
000000b0: a1a9 0abd 60cf f6bb a8eb 05bc 0bf8 93bd
000000c0: b59b 4d3e d7bf af3d 0c47 9bbd 01df ecbc
000000d0: dc3d 9e3c 512d aebc 2964 ddbd f008 99bd
000000e0: 3b45 aa3c 854d 39bc 7fd5 133e 0073 ac3c
000000f0: d211 8cbd b69f 923c b052 09bd 4f52 41be
00000100: fdaa 34bb e734 253e 53cb ccbd 9825 473d
00000110: 70dd 2dbd ad2b 1d3e 1b84 f33c 9ee3 a5bd
00000120: f5c8 80bd 2c5b 923d b486 01ba 5e9f 293b
00000130: fbaf 1abe df96 81bd 810d 22be 281b c23a
00000140: 2fbb 41be 73d4 01bd cde5 693d a1bf 2abd
00000150: d986 bf3d 3496 8c3d 8ef1 213d 95f7 15be
00000160: 0b9d 8a3d d75c 05be c39d 30be 6bdb 36be
00000170: c852 c73d 61d1 13bb ee68 14be 61cf 81bc
00000180: 2f34 a9bc d479 ef3d 6f58 093e b67c 68bd
00000190: d2ae 1b3e 1a11 6bbb c6ba 16be 6999 af3d
000001a0: 2363 49bd e043 2c3c dd12 03bc 6529 91bd
000001b0: db4a 84bd 5630 a8bd b417 d03d 7a31 073e
000001c0: 902b 6dbd 66ba cd3d 36bc 86bd 2b67 023d
000001d0: 30f3 913d 0f20 9abd b7ab a7bd 96ed 403e
000001e0: bb15 91bd 6657 89bc f2c5 243c da49 e63d
000001f0: 80c4 ebbd 0c6a d73d 11f1 8cbd f01a 0c3d
00000200: 2241 2f3c 0d35 45ba e3b0 ef3d 5c8a c83d
00000210: 0ed9 66bd e389 eb3d 2dd2 173e 325c 85bd
00000220: ad45 92bd fc21 08be f426 acbd 2328 fc3d
00000230: f0e8 253d b611 c03d b1c5 753d cced 773d
00000240: 7dbf f23d 5eac 8fbc 67aa e33d 34a6 593e
00000250: feea ca3d 068b 31bd aa4c 4bbe 6e66 233e
00000260: b099 bf3c 22b4 68bd 5241 0cbe 6417 8fbd
00000270: b1a4 ffbd b478 103e e887 403d 9d86 f83d
00000280: 1b22 5c3d 61f4 2b3e b30f c2bd 2a9a 36bd
00000290: ce91 27bd 5a85 e8bc fb92 d0bd afac 84bd
000002a0: 7c75 823d af75 e8bc 5f65 ab3d 3585 6d3d
000002b0: 7b57 ef3d a294 053c 5c04 fb3d 4ab2 69bd
000002c0: 63f1 6bbe 18d0 a63d cbe7 91bb ad4f fd3d
000002d0: bac3 96bd 710a 9e3d fcb1 5ebc e53a eabc
000002e0: ee46 de3d e412 2cbd 5472 b5bd 82ce 203e
000002f0: 678c 833c 90ae 89bd 5e41 18be fda0 3f3d
00000300: 9f4e cb3d d4f1 e93c cf75 453d b10c 05bd
00000310: e8c8 0fbc 2aae 22be fecf 3c3d aac7 02bd
00000320: b4bc 463c 15cd 303d 6efb af3d 6477 4ebc
00000330: 8a8d 0dbe 3205 10bd ac8c 3e3e 260b 733d
00000340: afa9 443e d63b 15be 97ac 133d 9e78 743d
00000350: 1c26 28be 7b1c c93b 6ae8 243e 5dcb 54bd
00000360: e09d 893d 3ebf c3bd 8f92 353e 8bd6 a5bd
00000370: 4915 b73b eaa9 1cba 6210 05be 80c6 aabd
00000380: 90da dabd e1f3 00be 4985 ebbd 1e72 b83d
00000390: 7e9e febc cde1 253e e3ff 0d3e 7c85 d6bd
000003a0: 686a a43d 1d8f c9bd b7dd cebd 0b81 a6bd
000003b0: 68e1 ba3d b568 13be 6a69 19be b5b2 a63d
000003c0: 4819 ee3d b435 afbc 6ece abbd 8ea4 853b
000003d0: 670c 6cbd 9dab 88bd 284e c83d b508 39be
000003e0: 4bfa c2bd 1eff d4bc 7a67 1abe 03bb 61be
000003f0: 70a4 11be c14f bbbc a456 07be 6125 9a3d

0.fc2.bias f4 [10]
0.024805421 0.09308431 -0.08609314 0.021013485 0.07617895 0.07909201 0.08733808 -0.00753316
-0.05854919 0.012795859
00000000: bd34 cb3c fda2 be3d 9a51 b0bd 7924 ac3c
00000010: b603 9c3d fefa a13d 4fde b23d bad8 f6bb
00000020: 47d1 6fbd b9a5 513c
