mnist_autoencoder_cnn.pt (torch_old, 443615 bytes, 10 tensors)

0.0.0.weight f4 [32, 1, 3, 3]
-0.059857655 0.35701397 -0.13522764 0.4190224 0.93800735 0.10595177 0.09528792 0.40682518
-0.27716205 3.561187e-39 3.303729e-39 2.748732e-39 1.397736e-39 1.41998e-39 2.728781e-39 2.474694e-39
2.404558e-39 1.01698e-39 0.35484532 -0.029030148 -0.38001192 0.24792574 0.3070669 0.16490951
0.11989598 0.26496875 0.16512881 0.20052826 0.31975803 0.21921453 0.28301597 0.0030307432
-0.10746594 0.41249815 0.29628235 0.32558736 0.0838037 0.52416426 0.32151073 0.14199482
0.39822045 -0.03493731 -0.074475996 -0.11561263 -0.55464435 -0.28991687 0.45634738 0.40464893
-0.65672255 0.3241695 0.23394075 -0.3884612 0.15259647 0.1968253 -1.63965e-40 2.82293e-40
-1.23849e-39 1.552032e-39 8.00992e-40 -2.58946e-40 3.961709e-39 5.386848e-39 1.460346e-39 0.13722993
-0.16363567 0.17462759 -0.11555027 -0.69452626 -0.060507197 0.20294818 -0.2597074 0.24367514
0.5111775 0.17894743 0.07196635 0.328944 0.08050758 0.0738764 -0.08293526 0.2309713
0.33917323 0.30361143 -0.015478286 0.20834829 0.51088065 0.2753038 0.3448676 0.28664878
-0.21756427 -0.3377287 -0.11689471 -0.7120131 -0.83571345 0.46366757 0.2094662 0.11764248
0.2675488 0.35687009 0.3498061 -0.13520756 -0.017641537 0.36591834 -0.029460976 0.27202183
0.15653989 0.32205766 0.23327617 -0.24700932 0.4571011 0.6292679 0.22897 0.36340082
-0.17408232 -0.20767705 -0.5164055 -0.80366117 -0.06532906 0.053077675 -0.09409144 0.035451423
-0.7552112 -0.30242372 0.41768274 -0.45229104 0.30701834 0.36924645 0.31293666 -0.11654629
0.03526948 0.23900239 -0.051562965 -0.07682783 0.37285218 0.38621083 0.095007 -0.56514215
-0.50881743 0.1068318 -0.5815091 0.23755878 0.46676382 0.13578634 0.58455896 0.2906325
-0.12073949 0.09365207 0.005384762 0.3852463 0.19856963 0.22696947 0.24608439 -0.22041653
0.2682716 0.07520984 -0.025739629 0.26140016 0.09401216 0.19639625 0.32560915 -0.6307468
-0.51304424 -0.058741964 0.21006945 0.37521136 -0.041217007 0.6128141 0.14103635 -0.47893438
0.48134834 -0.37575462 -0.55436647 -1.182238e-39 9.396e-42 -1.60859e-40 -5.76472e-40 -1.120471e-39
-2.512235e-39 -1.546634e-39 -2.85258e-40 -1.585321e-39 -0.10391734 -0.12254099 -0.03567465 0.21589133
0.27671236 0.55714697 -0.10155491 -0.041704115 0.4022825 0.15876551 0.27096614 0.6726959
0.016719611 0.2258124 0.47176933 -0.048577067 0.05853284 -0.0021772378 -0.21355605 0.13734387
0.17643397 0.06852839 0.34189594 0.29182822 0.391584 0.42477864 0.28885445 0.258171
0.1829599 -0.50223553 0.36712486 0.20812906 -0.78013915 0.49265245 0.3964114 -0.3624944
0.116105825 0.18755506 0.6125979 -0.21667829 -0.2882474 -0.33140093 0.050993484 -0.149595
-0.27432585 -0.44668004 -0.23193125 0.028686391 0.038519107 0.16167094 0.48467526 0.35257554
0.48394105 0.14429206 0.22775507 0.050518677 0.11839816 0.044285618 -0.33781105 0.21109454
0.13931501 0.11177134 0.42066842 -0.21200444 -0.4211666 -0.054528255 -0.17415273 -0.29641438
-0.17391187 0.42029896 0.38825157 0.12414432 0.34988943 0.037136175 -0.11493823 -0.19878395
00000000: 4d2d 75bd 89ca b63e 1d79 0abe 1b8a d63e
00000010: 4021 703f 3efd d83d 5026 c33d 644b d03e
00000020: 2fe8 8dbe 24c7 2600 74f9 2300 59ee 1d00
00000030: 5238 0f00 5476 0f00 bbb6 1d00 71f2 1a00
00000040: ee2e 1a00 ed12 0b00 49ae b53e a2d0 edbc
00000050: ec90 c2be 3fe0 7d3e df37 9d3e 0ade 283e
00000060: 068c f53d fca9 873e 8717 293e 4857 4d3e
00000070: 53b7 a33e c679 603e 78e7 903e 6f9f 463b
00000080: 1a17 dcbd f532 d33e 52b2 973e 63b3 a63e
00000090: 46a1 ab3d a12f 063f 0e9d a43e 1767 113e
000000a0: 8de3 cb3e 6d1a 0fbd df86 98bd 51c6 ecbd
000000b0: 2cfd 0dbf fc6f 94be 5da6 e93e 252e cf3e
000000c0: f81e 28bf 8bf9 a53e 2a8e 6f3e 63e4 c6be
000000d0: 4042 1c3e 928c 493e 11c9 0180 eb12 0300
000000e0: 687c 0d80 6fe6 1000 d7b8 0800 d6d1 0280
000000f0: a223 2b00 57a8 3a00 dae6 0f00 0186 0c3e
00000100: 1c90 27be 93d1 323e 9fa5 ecbd 79cc 31bf
00000110: 65d6 77bd a6d1 4f3e 5ef8 84be fa85 793e
00000120: 87dc 023f ff3d 373e 1863 933d 596b a83e
00000130: 28e1 a43d 834c 973d f6d9 a9bd be83 6c3e
00000140: 1da8 ad3e f572 9b3e a398 7dbc 4159 553e
00000150: 13c9 023f 9ff4 8c3e 7c92 b03e a1c3 923e
00000160: 2bc9 5ebe c7ea acbe 7e66 efbd 7e46 36bf
00000170: 51f1 55bf d665 ed3e 4f7e 563e 8aee f03d
00000180: 28fc 883e adb7 b63e c919 b33e da73 0abe
00000190: fc84 90bc a659 bb3e 2558 f1bc 7246 8b3e
000001a0: fe4b 203e bee4 a43e f3df 6e3e 03f0 7cbe
000001b0: 2809 ea3e b317 213f 1d77 6a3e ac0f ba3e
000001c0: a342 32be 4ba9 54be 2733 04bf bdbc 4dbf
000001d0: 3ecb 85bd fa67 593d 03b3 c0bd 8335 113d
000001e0: 8555 41bf 48d7 9abe 83da d53e b192 e7be
000001f0: 8231 9d3e df0d bd3e 3c39 a03e d2af eebd
00000200: bb76 103d 0bbd 743e b033 53bd e957 9dbd
00000210: 7be6 be3e 6dbd c53e 0893 c23d 28ad 10bf
00000220: dc41 02bf a1ca da3d c8dd 14bf 9c42 733e
00000230: abfb ee3e 930b 0b3e a8a5 153f c8cd 943e
00000240: 4446 f7bd a8cc bf3d a872 b03b 013f c53e
00000250: d655 4b3e af6a 683e 8cfd 7b3e dfb4 61be
00000260: e55a 893e 9e07 9a3d eadb d2bc 3ed6 853e
00000270: 7389 c03d 191c 493e 3eb6 a63e 9f78 21bf
00000280: de56 03bf 6a9b 70bd 721c 573e b41b c03e
00000290: 2ad3 28bd 63e1 1c3f d56b 103e e336 f5be
000002a0: 4a73 f63e e962 c0be f6ea 0dbf 99df 0c80
000002b0: 311a 0000 69c0 0180 f846 0680 6b33 0c80
000002c0: 175b 1b80 63d7 1080 2f1b 0380 3b43 1180
000002d0: 9dd2 d4bd c5f6 fabd 951f 12bd 9e12 5d3e
000002e0: 3ead 8d3e 2fa1 0e3f 05fc cfbd efd1 2abd
000002f0: f9f7 cd3e 6d93 223e 13bc 8a3e cc35 2c3f
00000300: 91f7 883c 5e3b 673e c08b f13e bff8 46bd
00000310: 22c0 6f3d fdaf 0ebb 70ae 5abe dfa3 0c3e
00000320: 1bab 343e 9d58 8c3d fc0c af3e 826a 953e
00000330: b37d c83e 967c d93e bbe4 933e fd2e 843e
00000340: d759 3b3e 8292 00bf caf7 bb3e c91f 553e
00000350: 33b7 47bf f13c fc3e 6ff6 ca3e de98 b9be
00000360: e4c8 ed3d 6f0e 403e 37d3 1c3f eae0 5dbe
00000370: 2a95 93be 62ad a9be 8bde 503d 6f2f 19be
00000380: 7074 8cbe 3fb3 e4be 637f 6dbe b9ff ea3c
00000390: 36c6 1d3d 118d 253e 5b27 f83e c884 b43e
000003a0: 1fc7 f73e 4cc1 133e a038 693e acec 4e3d
000003b0: bc7a f23d d664 353d 92f5 acbe 2b29 583e
000003c0: 98a8 0e3e 5fe8 e43d da61 d73e b117 59be
000003d0: 26a3 d7be 0559 5fbd 1855 32be a0c3 97be
000003e0: f415 32be 6d31 d73e e9c8 c63e 613f fe3d
000003f0: b524 b33e 1a1c 183d bc64 ebbd 058e 4bbe

0.0.0.bias f4 [32]
-4.098463e-05 1.352403e-39 2.2436057e-05 5.199891e-05 0.0029619501 0.0003342841 3.247882e-39 0.5355291
-0.0002005368 0.00046498125 0.06236863 -9.539813e-05 0.090436295 0.4107147 -7.78774e-05 9.739704e-05
-0.00014361019 0.31274596 0.010475536 -1.696205e-39 6.926124e-05 -2.6328575e-05 -0.00015038208 0.044536144
0.28439948 0.00017535572 -0.08765228 0.36572528 0.45825797 0.0023891437 -0.0002546259 -4.319161e-05
00000000: e9e6 2bb8 f3b9 0e00 1135 bc37 6819 5a38
00000010: 471d 423b da42 af39 c65d 2300 6f18 093f
00000020: 3047 52b9 bac8 f339 4076 7f3d 7b10 c8b8
00000030: aa36 b93d 3249 d23e 1c52 a3b8 a341 cc38
00000040: 1196 16b9 3d20 a03e 95a1 2b3c 5478 1280
00000050: 5840 9138 2fdc dcb7 e2af 1db9 886b 363d
00000060: cf9c 913e b1df 3739 0a83 b3bd 5840 bb3e
00000070: caa0 ea3e 2e93 1c3b 4f7f 85b9 a328 35b8

0.0.3.weight f4 [64, 32, 3, 3]
0.0091194 -0.0071180845 0.097224995 0.0013530353 0.004529582 -0.034560468 -0.018882522 0.03486828
0.057793748 -1.033095e-39 -1.19819e-39 1.46762e-39 -8.37989e-40 -1.565647e-39 -3.387e-40 -8.86719e-40
-1.7392e-39 1.44114e-39 0.003256397 -0.040157437 0.09007453 0.015394219 -0.007996838 0.053736992
-0.013028661 0.026979418 -0.00062789785 -0.0001468339 -0.0023159857 0.08554455 0.024641093 0.016379036
0.031724814 0.0062539387 0.06632747 0.069436006 -0.006334361 -0.0008407511 0.002809999 0.01421783
-0.014085993 -0.04515124 -0.008156358 0.00084715796 0.1081606 -0.0560934 0.056518164 -0.044495523
-0.06247613 0.04493666 -0.02189606 -0.0410894 0.046670012 -0.096766986 -1.379131e-39 -1.18726e-39
1.007305e-39 -3.0237e-40 9.18523e-40 2.18128e-40 -9.73982e-40 -8.30777e-40 -7.57511e-40 0.009522001
0.016255366 -0.096935086 0.021610204 0.0265134 -0.11008867 0.0473758 -0.057133805 -0.10218552
-0.013291088 -0.02387506 0.066902615 0.000829555 0.006281518 0.04079587 0.028297016 0.061146837
0.0029181521 0.012674371 -0.022850582 0.0155859245 0.014422212 -0.014647951 -0.013775241 0.0036453693
-0.009357634 0.11261228 0.01239095 -0.03447762 0.013046988 0.04254339 -0.020427972 0.004822844
-0.0014301434 -0.01908303 -0.12231985 -0.026454268 0.020917455 -0.023867486 -0.012468551 0.026637705
-0.03521859 -0.050881505 0.0166078 0.08588039 0.013284782 -0.026718276 0.014742386 0.0726837
0.017905023 -0.08993115 0.06387037 -0.14579992 0.04297185 -0.048285227 0.02058735 -0.13296807
-0.062195584 0.010274153 -0.103065066 0.015945587 0.00087144494 -0.15432723 0.01532213 -0.029580045
0.04327679 0.030188644 -0.0001601076 0.013987639 -0.011946642 0.013783496 0.021659728 -0.034608863
0.10805159 -0.09182099 -0.022293985 -0.003475452 -0.06212247 -0.040099725 0.058826152 -0.06291752
-0.004931155 0.014937082 0.06803821 -0.01048604 0.021914067 0.036411945 0.016762618 0.016471371
0.032652922 -0.015288075 0.0038007018 -0.0046180957 0.023602653 0.030651001 -0.019190539 0.03476065
-0.0370705 -0.057360925 0.03063796 -0.028915308 -0.020137595 -0.01821124 -0.0796488 -0.09255108
0.02699397 -0.107903115 0.128712 1.190922e-39 -3.117e-40 -1.250761e-39 1.277174e-39 2.46708e-40
6.47317e-40 -9.68418e-40 1.46287e-39 -7.73056e-40 -0.030104933 0.070143096 0.014126385 -0.028837522
0.007958964 0.0034082462 -0.008810134 0.015061136 -0.028939044 -0.06182017 0.055972427 0.020166026
-0.051753417 0.03691466 -0.032721587 -0.03809057 0.0333375 0.053359546 -0.040926922 0.070844024
0.048793938 -0.018981129 0.049041003 0.030849889 -0.05589993 0.05401049 0.066640966 0.038389947
-0.09656138 0.11299725 -0.018215597 -0.08674586 -0.017244626 -0.024424277 -0.10527921 -0.005183847
-0.029977862 -0.0017092865 -0.025815899 0.019744305 -0.027376518 -0.038033463 -0.0033724562 -0.073448695
0.0112441685 -0.029177228 0.09668718 -0.018242562 -0.006498963 0.019680053 0.0056479797 -0.048502095
0.045404065 0.030470232 -0.026581705 0.009046282 0.0113195805 -0.0076749614 0.0176818 0.04637533
-0.0050855204 0.037373368 0.019147474 0.015678493 0.0024484377 -0.05629323 0.033125024 0.0004226911
-0.040784847 -0.011597433 -0.0060548205 -0.101084016 0.006976589 -0.015662424 -0.03618574 0.0072529716
00000000: 8969 153c d23e e9bb e61d c73d 5558 b13a
00000010: e36c 943b 478f 0dbd 85af 9abc 0bd2 0e3d
00000020: 23b9 6c3d d93f 0b80 110c 0d80 21fb 0f00
00000030: f91f 0980 630c 1180 28b0 0380 d0a7 0980
00000040: 2ff0 1280 50b1 0f00 4769 553b 207c 24bd
00000050: ff78 b83d 0938 7c3c 2b05 03bc 521b 5c3d
00000060: 2a76 55bc f103 dd3c 8399 24ba 6df7 19b9
00000070: cbc7 17bb fb31 af3d 1edc c93c 542d 863c
00000080: e1f1 013d d7ed cc3b b2d6 873d 7734 8e3d
00000090: 7990 cfbb da65 5cba f627 383b e7f1 683c
000000a0: f0c8 66bc 82f0 38bd 3fa2 05bc cf13 5e3a
000000b0: 4e83 dd3d 31c2 65bd 977f 673d f040 36bd
000000c0: f8e6 7fbd 810f 383d 5e5f b3bc 5c4d 28bd
000000d0: 0e29 3f3d c52d c6bd 7504 0f80 99ed 0c80
000000e0: f5f7 0a00 e24a 0380 7800 0a00 0d60 0200
000000f0: 119b 0a80 de0b 0980 a23f 0880 2b02 1c3c
00000100: f929 853c e785 c6bd e207 b13c a132 d93c
00000110: 2b76 e1bd 200d 423d 2305 6abd a446 d1bd
00000120: ddc2 59bc a195 c3bc 3d04 893d 7e76 593a
00000130: 31d5 cd3b 9219 273d 25cf e73c 1b75 7a3d
00000140: 783e 3f3b 2aa8 4f3c 2531 bbbc 1b5c 7f3c
00000150: 244b 6c3c f6fd 6fbc 8cb1 61bc 26e7 6e3b
00000160: c350 19bc 44a1 e63d 6903 4b3c 6838 0dbd
00000170: 09c3 553c fa41 2e3d 9058 a7bc f308 9e3b
00000180: a673 bbba 0454 9cbc d482 fabd 9fb6 d8bc
00000190: 155b ab3c bf85 c3bc e548 4cbc 5137 da3c
000001a0: 5e41 10bd 2069 50bd 150d 883c 0fe2 af3d
000001b0: 6aa8 593c 49e0 dabc 0c8a 713c 31db 943d
000001c0: 8ead 923c d32d b8bd 78ce 823d 934c 15be
000001d0: 4003 303d bbc6 45bd cda6 a83c c828 08be
000001e0: ccc0 7ebd ec54 283c c713 d3bd 52a0 823c
000001f0: ae71 643a f507 1ebe ac09 7b3c da51 f2bc
00000200: 0143 313d 2d4e f73c 8ee2 27b9 692c 653c
00000210: d9bb 43bc 2cd4 613c be6f b13c 06c2 0dbd
00000220: 274a dd3d a50c bcbd e0a1 b6bc 69c4 63bb
00000230: 2274 7ebd 9c3f 24bd b1f3 703d e7da 80bd
00000240: 8795 a1bb aaba 743c 9e57 8b3d a4cd 2bbc
00000250: 2185 b33c b124 153d c251 893c f8ee 863c
00000260: 12bf 053d d67a 7abc 3215 793b 6553 97bb
00000270: 5a5a c13c cf17 fb3c 7a35 9dbc 2f61 0e3d
00000280: 3dd7 17bd 4af3 6abd 76fc fa3c ccdf ecbc
00000290: 99f7 a4bc bd2f 95bc e91e a3bd 6c8b bdbd
000002a0: 7522 dd3c 4ffc dcbd 14cd 033e cef7 0c00
000002b0: e564 0380 9d9e 0d80 3ee8 0d00 b9af 0200
000002c0: 750c 0700 8e8b 0a80 e3ed 0f00 f76a 0880
000002d0: 9f9e f6bc 2fa7 8f3d 5a72 673c ab3c ecbc
000002e0: 5166 023c e25c 5f3b 6158 10bc fcc2 763c
000002f0: 9311 edbc 2637 7dbd 5843 653d 3933 a53c
00000300: 64fb 53bd d433 173d 1207 06bd dc04 1cbd
00000310: e78c 083d 8a8f 5a3d fda2 27bd ac16 913d
00000320: 27dc 473d 507e 9bbc 38df 483d e8b8 fc3c
00000330: 53f7 64bd 1b3a 5d3d 0f7b 883d c73e 1d3d
00000340: f9c1 c5bd 1a6b e73d e038 95bc d0a7 b1bd
00000350: 9a44 8dbc 6c15 c8bc a09c d7bd 43dd a9bb
00000360: 2294 f5bc 230a e0ba dd7b d3bc cfbe a13c
00000370: b844 e0bc fac8 1bbd 6d04 5dbb 456c 96bd
00000380: 7639 383c 1505 efbc ee03 c63d 6d71 95bc
00000390: 41f5 d4bb 1038 a13c b012 b93b 22aa 46bd
000003a0: 9df9 393d b59c f93c e0c1 d9bc db36 143c
000003b0: c375 393c 3e7e fbbb 6cd9 903c 0ff4 3d3d
000003c0: 70a4 a6bb d114 193d 2adb 9c3c 2f70 803c
000003d0: f875 203b bb93 66bd 1bae 073d a49c dd39
000003e0: 030e 27bd 2903 3ebc 8467 c6bb 2305 cfbd
000003f0: df9b e43b 7c4e 80bc 8037 14bd 56aa ed3b

0.0.3.bias f4 [64]
-0.0054241475 -0.03614074 -4.8857733e-20 0.099274024 0.0013748612 -0.03583749 -0.0046298155 -0.04277425
-0.011785187 -0.037030105 -1.11117595e-08 0.03723094 -1.4585034e-38 -6.56925e-39 -0.013668504 -0.06442902
-0.11039143 -8.997261e-08 -0.042541526 0.015691403 0.0069851726 -0.0032523314 0.05504551 0.015614234
-0.010312329 -0.05400904 -0.032606106 0.011773676 0.018611416 0.015092031 -5.59574e-39 -0.033536293
-0.03364949 -0.00033015752 0.027834075 -0.011015594 0.000528225 -0.0075769615 -1.0039914e-38 -0.0017488083
-0.021944717 -0.027212305 -0.061025206 -0.06245854 -0.010472792 -0.0003715947 -0.056148212 -0.007851825
0.016320014 0.0075991754 -0.060913507 0.026266785 -0.027323473 0.018975038 4.1010308e-38 0.049286928
-7.324793e-38 -0.001330252 -0.0076115383 -0.013074024 -0.048887312 0.009478413 -0.042894542 -0.028480774
00000000: 0cbd b1bb 5008 14bd 60b9 669f 2e50 cb3d
00000010: b034 b43a 55ca 12bd b5b5 97bb 0d34 2fbd
00000020: a816 41bc e1ac 17bd 09e6 3eb2 787f 183d
00000030: 24d1 9e80 6588 4780 dcf1 5fbc 5df3 83bd
00000040: e714 e2bd f736 c1b3 0640 2ebd 428b 803c
00000050: e0e3 e43b 1125 55bb 6777 613d d8d2 7f3c
00000060: 0bf5 28bc 9538 5dbd fb8d 05bd 60e6 403c
00000070: f876 983c 9144 773c a6ee 3c80 5a5d 09bd
00000080: 0cd4 09bd fe18 adb9 4904 e43c c07a 34bc
00000090: 9478 0a3a 2948 f8bb 3253 6d80 4538 e5ba
000000a0: 68c5 b3bc 57ec debc 91f5 79bd 87d4 7fbd
000000b0: 1396 2bbc 99d2 c2b9 abfb 65bd f1a4 00bc
000000c0: 8db1 853c 8102 f93b 7180 79bd 712d d73c
000000d0: 7ad5 dfbc 8a71 9b3c 0748 5f01 17e1 493d
000000e0: 5b66 c781 da5b aeba 366a f9bb 6e34 56bc
000000f0: 103e 48bd 584b 1b3c 30b2 2fbd 8350 e9bc

0.0.6.weight f4 [128, 64, 3, 3]
-0.020113938 0.02801105 0.005225649 -0.02222756 0.014980699 -0.05107773 0.027317349 -0.034594864
0.037817042 -0.013049443 0.026664106 0.015996078 0.05264414 -0.015100815 -0.0028308954 -0.0402551
-0.011654843 -0.05576197 -8.2104e-40 6.55698e-40 6.87118e-40 7.44689e-40 5.18139e-40 1.83423e-40
-3.89824e-40 5.79384e-40 5.98486e-40 0.010296707 0.0068278266 0.017543556 0.039425455 0.018511347
-0.003997993 0.017224267 0.021192295 0.012672719 -0.109066814 0.023720434 0.12798572 0.06064415
0.019559067 -0.01641602 -0.05699304 0.033266664 -0.07704426 0.047949206 -0.029590786 -0.06953545
0.03049058 -0.021719567 0.00047681626 0.06345455 -0.0046521393 0.012338244 -0.0036219675 0.009496686
-0.006959199 -0.06507573 -0.008594016 0.03586483 -0.022586452 -0.04197051 -0.039356954 -0.044247095
0.08192817 -0.002194601 0.04047906 -0.029736621 0.03217517 -0.05871969 0.01020062 -0.07044965
-0.061507855 -0.008012184 0.060762405 0.024668671 0.025603509 -0.0492271 0.020701293 -0.03924072
0.05966881 0.027481718 0.014149381 -0.01152621 0.01119801 -0.034213778 0.0040872917 0.08746788
-0.00980955 -0.0007051813 1.57562e-40 -8.204522e-29 -1.42739e-40 -1.144e-41 -2.2798798e-23 1.0635946e-32
2.55015e-40 -7.0541333e-25 4.10635e-40 0.0292685 -0.0317073 -0.05071014 -0.0028267398 0.044011697
0.00023149747 -0.010160503 -0.032847304 0.010605939 -9.50258e-40 -1.579413e-39 5.3161e-40 -1.251676e-39
-8.509e-40 -1.08105e-40 -1.235525e-39 4.7847e-41 -1.060881e-39 -8.57589e-40 1.342678e-39 1.54448e-40
-1.055231e-39 -1.078067e-39 -1.2867e-39 9.28796e-40 -8.81794e-40 -1.565646e-39 -0.018224642 0.021030508
0.017328054 0.01937647 -0.009765368 -0.07105211 0.04554395 0.030446379 0.06351301 0.009570642
0.0130763035 -0.040695317 0.0397642 -0.01865922 0.0016245935 -0.028670378 -0.027236767 -0.06404668
-0.0024212745 0.023934733 0.0098424945 0.018919159 -0.026730431 0.04665042 -0.03531509 -0.032342635
-0.07930981 6.00348e-40 -2.45648e-40 -6.09869e-40 -1.95107e-40 1.96644e-40 6.49088e-40 -6.61135e-40
4.37917e-40 3.66032e-40 0.026065523 0.0133140255 -0.02365655 -0.016491324 -0.050044715 0.040223867
0.043914337 -0.0031149376 0.06079231 0.015502282 0.0020759436 -0.009656514 0.051518213 -0.00097112625
-0.003912092 -0.0066515394 -0.00515016 -0.02272113 0.059098165 0.011692787 -0.060651682 0.016427996
0.005043806 -0.028765274 -0.0019582894 -0.025761314 0.004401111 0.029568078 -0.019570457 0.034175254
0.012893705 0.0012551432 -0.024578623 -0.02269319 -0.013884116 -0.020339826 -0.049695324 -0.010886027
0.027021777 0.0208115 -0.029234791 0.01088133 0.036808502 -0.019047713 0.015285511 -0.059828367
-0.006531451 -0.02929537 -0.018569726 -0.06537016 0.012343012 0.021831417 -0.042295337 -0.05906821
0.0976748 -0.020746376 -0.03350798 0.060303513 0.0016903717 0.00075026165 -0.0043412456 0.04483623
-0.04196798 -0.03441366 0.015401631 -0.013372535 0.048879154 -0.012191291 0.052630838 -0.004707161
-0.0035749453 -0.035943285 0.030576464 -2.7428432e-05 -0.016610216 -0.02374562 0.0012236191 -0.007863038
0.030088613 -0.029736528 0.0005763603 -0.010747392 -0.044631857 -0.0067615747 0.057121966 0.014213035
-0.06665222 -0.052512236 0.005655086 0.033059202 -0.031253558 -0.01965159 0.031857528 0.0067523904
00000000: fcc5 a4bc 6e77 e53c ec3b ab3b 9216 b6bc
00000010: 9b71 753c e236 51bd a2c8 df3c 58b3 0dbd
00000020: 0be6 1a3d 55cd 55bc af6e da3c 350a 833c
00000030: 62a1 573d 6969 77bc 8b86 39bb 88e2 24bd
00000040: f4f3 3ebc aa66 64bd baf0 0880 d223 0700
00000050: 687b 0700 e41b 0800 5ca4 0500 4fff 0100
00000060: ac3e 0480 164f 0600 5684 0600 85b3 283c
00000070: f6bb df3b 81b7 8f3c 967c 213d 1ca5 973c
00000080: 9901 83bb e819 8d3c 779b ad3c 3ca1 4f3c
00000090: 6c5e dfbd 5b51 c23c b00e 033e 0066 783d
000000a0: 563a a03c e47a 86bc 8971 69bd a042 083d
000000b0: 62c9 9dbd 6366 443d 6068 f2bc 9a68 8ebd
000000c0: 61c7 f93c 3ced b1bc 32fd f939 76f4 813d
000000d0: f970 98bb 5926 4a3c 885e 6dbb fd97 1b3c
000000e0: fe09 e4bb 6d46 85bd eacd 0cbc 00e7 123d
000000f0: 3907 b9bc 45e9 2bbd c234 21bd 713c 35bd
00000100: f5c9 a73d 4cd3 0fbb 5fcd 253d 379a f3bc
00000110: 1cca 033d 0f84 70bd 8020 273c e847 90bd
00000120: a9ef 7bbd 8945 03bc 00e2 783d f415 ca3c
00000130: 73be d13c 5ba2 49bd c295 a93c e1ba 20bd
00000140: 4867 743d 5721 e13c ced2 673c 6ed8 3cbc
00000150: dc77 373c bf23 0cbd b0ee 853b 5c22 b33d
00000160: 3cb8 20bc eadb 38ba 38b7 0100 6402 d090
00000170: e68d 0180 e41f 0080 177f dc99 64e6 5c0a
00000180: e1c6 0200 9a50 5a97 af78 0400 7ec4 ef3c
00000190: 84df 01bd 70b5 4fbd d340 39bb 9c45 343d
000001a0: 21be 7239 3d78 26bc e58a 06bd 88c4 2d3c
000001b0: ef58 0a80 c332 1180 eac9 0500 2aa1 0d80
000001c0: f743 0980 5a2d 0180 2474 0d80 6185 0000
000001d0: 4e8d 0b80 9c56 0980 d79e 0e00 8aae 0100
000001e0: 8e7d 0b80 36bd 0b80 cc02 0e80 1b1d 0a00
000001f0: 159a 0980 620c 1180 d84b 95bc 2c48 ac3c
00000200: 90f3 8d3c 67bb 9e3c ecfe 1fbc c583 91bd
00000210: 4b8c 3a3d af6a f93c 1c13 823d 2fce 1c3c
00000220: fe3d 563c 22b0 26bd c9df 223d 38db 98bc
00000230: 50f0 d43a 24de eabc a41f dfbc e82a 83bd
00000240: 3fae 1ebb c612 c43c 6a42 213c 5afc 9a3c
00000250: c7f9 dabc 8314 3f3d 8ea6 10bd b679 04bd
00000260: 2f6d a2bd 8789 0600 c4ac 0280 11a4 0680
00000270: e11f 0280 2a24 0200 6511 0700 fa32 0780
00000280: bcc4 0400 59fc 0300 5d87 d53c 1223 5a3c
00000290: 62cb c1bc d018 87bc b0fb 4cbd c8c1 243d
000002a0: 85df 333d fb23 4cbb 5b01 793d 49fd 7d3c
000002b0: 8e0c 083b 5b36 1ebc c304 533d 2e93 7eba
000002c0: 0231 80bb 28f5 d9bb acc2 a8bb aa21 babc
000002d0: eb10 723d 1a93 3f3c e66d 78bd 0194 863c
000002e0: 8346 a53b 27a5 ebbc a556 00bb 6409 d3bc
000002f0: 3237 903b c138 f23c 3952 a0bc 5afb 0b3d
00000300: 1e40 533c 9e83 a43a 1c59 c9bc 12e7 b9bc
00000310: 347a 63bc b59f a6bc 538d 4bbd 4e5b 32bc
00000320: c65c dd3c e17c aa3c cd7d efbc 9b47 323c
00000330: 83c4 163d f309 9cbc 1470 7a3c 970e 75bd
00000340: c805 d6bb d8fc efbc 8a1f 98bc cae0 85bd
00000350: 583a 4a3c cdd7 b23c e03d 2dbd 82f1 71bd
00000360: ba09 c83d 4ef4 a9bc aa3f 09bd d100 773d
00000370: 768f dd3a 35ad 443a 0241 8ebb 32a6 373d
00000380: 9ee6 2bbd 57f5 0cbd 1f57 7c3c 7a18 5bbc
00000390: 8235 483d fbbd 47bc 6f93 573d 873e 9abb
000003a0: a149 6abb 4439 13bd 7e7b fa3c 1c16 e6b7
000003b0: 2612 88bc 2d86 c2bc d861 a03a f9d3 00bc
000003c0: 657c f63c 059a f3bc e316 173a d415 30bc
000003d0: e5cf 36bd 3390 ddbb b9f8 693d cadd 683c
000003e0: f680 88bd 1217 57bd 4d4e b93b 1669 073d
000003f0: bb03 00bd 5ffc a0bc 0a7d 023d 2843 dd3b

0.0.6.bias f4 [128]
0.014809051 -0.010662162 -0.00010706072 0.00516182 -0.0116302315 -0.0029018149 0.0008818225 0.015738124
-0.0023280676 0.026980389 0.000547488 0.012285225 0.0018778072 0.019282933 -0.014769876 -0.0072115883
0.0015284768 0.023613183 0.012799702 -0.012813495 -0.005008225 0.0015968699 -0.01404838 0.00028811788
-0.019814609 -0.013340544 -0.00888448 0.0043739877 0.006386923 0.046161234 0.021737816 -0.016116017
-0.006031143 -0.0041031674 -0.010809401 -0.0038791215 -0.0020038707 -0.00504428 0.018213501 0.005931114
-0.0031903554 0.0055434923 0.0170093 0.011101745 0.003797707 -0.0014619211 -0.0026226183 -0.005654837
0.03945015 0.010410728 0.0001841883 0.012736117 0.0015536431 0.033026595 -0.0019258069 0.016566368
-0.0064134337 -0.019065185 -0.009765937 0.008908571 -0.019862246 0.019079383 0.0007114226 0.029282065
-0.007861513 -0.00043920812 0.0020643102 0.0142027745 0.0037481505 -0.0021368016 -0.0040767323 0.010791915
0.0016932698 0.00021679667 0.0032106498 -0.026834058 -0.008156168 0.0069234613 0.014163177 2.6719792e-06
-0.011124113 0.00045806917 -0.0115652 0.0072079003 0.0047939946 -0.0071294657 -0.0036361646 -0.0050005717
0.0056755724 -0.0060422863 -0.018498167 -0.012187158 0.014768358 0.0104381265 0.028983895 0.014227894
-0.005643856 0.008772771 0.027922558 -0.00020376463 -0.0014363237 -0.027837802 -0.0077232732 -0.0035843232
-0.010040111 -0.011104301 0.021334203 -0.004029708 -0.0043074433 -0.01171815 0.02759916 -0.0246738
0.013709573 -0.022171184 -0.0019116368 -0.014355522 -0.014881205 -0.012120341 -0.007462452 -0.022490563
-0.012043339 0.0017187201 0.015757075 0.0023096646 -0.0010868373 -0.014124873 -0.016138785 -0.011308876
00000000: a9a1 723c 59b0 2ebc c985 e0b8 7c24 a93b
00000010: ba8c 3ebc 602c 3ebb 1b2a 673a 3ded 803c
00000020: 7e92 18bb fa05 dd3c 4c85 0f3a f847 493c
00000030: c120 f63a 3ef7 9d3c 5afd 71bc 304f ecbb
00000040: 2c57 c83a 6f70 c13c d7b5 513c b1ef 51bc
00000050: 091c a4bb 104e d13a 2d2b 66bc 870e 9739
00000060: 3f52 a2bc 4c92 5abc 3690 11bc ab53 8f3b
00000070: 6549 d13b 9013 3d3d 8113 b23c bd05 84bc
00000080: e5a0 c5bb dd73 86bb ea19 31bc dc38 7ebb
00000090: 5f53 03bb 7d4a a5bb 7b34 953c ca59 c23b
000000a0: 4815 51bb 2fa6 b53b 1657 8b3c 18e4 353c
000000b0: f3e2 783b ef9d bfba 3ce0 2bbb 364c b9bb
000000c0: 7b96 213d c291 2a3c ac22 4139 25ab 503c
000000d0: 9da3 cb3a e546 073d 5b6b fcba 31b6 873c
000000e0: c827 d2bb 972e 9cbc 4f01 20bc 41f5 113c
000000f0: 26b6 a2bc 5e4c 9c3c c37e 3a3a f1e0 ef3c
00000100: 93cd 00bc 8445 e6b9 6149 073b c1b2 683c
00000110: 88a3 753b 9509 0cbb 1c96 85bb 92d0 303c
00000120: b5f0 dd3a ea53 6339 c469 523b 19d3 dbbc
00000130: 73a1 05bc 34de e23b ac0c 683c 4150 3336
00000140: e941 36bc 0129 f039 f77b 3dbc 4030 ec3b
00000150: f116 9d3b 4b9e e9bb b84c 6ebb d6db a3bb
00000160: 27fa b93b 5ffe c5bb 7889 97bc a5ac 47bc
00000170: fcf6 713c ad04 2b3c a26f ed3c 1d1c 693c
00000180: 18f0 b8bb abbb 0f3c d9bd e43c a7a9 55b9
00000190: 0743 bcba 1a0c e4bc 8313 fdbb f7e6 6abb
000001a0: 477f 24bc d0ee 35bc 11c5 ae3c a40b 84bb
000001b0: 7425 8dbb 7cfd 3fbc a217 e23c b620 cabc
000001c0: 1e9e 603c 58a0 b5bc e38f faba 6c33 6bbc
000001d0: 4cd0 73bc 6594 46bc 9687 f4bb 213e b8bc
000001e0: 6d51 45bc ad46 e13a fb14 813c be5d 173b
000001f0: 3574 8eba 036c 67bc 7c35 84bc dd48 39bc

0.2.weight f4 [128, 128]
0.011800993 0.15772094 0.15327723 0.008269889 0.07282737 -0.10026947 0.095114045 -0.052803833
-0.107609205 -0.018384276 -0.042370297 -0.0029500672 -0.015685963 0.019483106 -0.10257545 -0.08648231
-0.061869945 0.15319963 -0.10509413 -0.0860069 -0.062071927 0.06183236 -0.007436702 -0.12375774
0.00067772344 0.11318496 -0.03258792 0.039941043 0.0614921 -0.1523566 -0.04571343 -0.10675107
0.03458796 -0.051985115 -0.028695824 0.05582511 -0.12291557 0.02060036 0.03962623 0.10008323
0.027530095 -0.013076981 0.013372354 -0.06967619 -0.2093915 -0.056742996 -0.04268875 0.0138725815
0.13554153 0.07406473 -0.057207588 -0.20033757 -0.07005973 3.481828e-05 0.012906342 -0.19131385
-0.067207344 0.021699449 0.09255067 0.06415331 -0.021248505 0.09267338 0.017944466 -0.09676229
-0.01607625 -0.05993691 -0.043427415 -0.019527715 -0.030464467 -0.017235992 -0.096541554 0.012411643
-0.19586504 -0.0058262614 0.029395873 0.14033476 0.002879762 0.0023078711 -0.004090491 -0.10239112
0.0017236681 -0.10097749 0.019990284 0.025105223 -0.076018184 -0.1202507 0.14840393 0.01690209
0.027825087 -0.070358805 0.0828857 -0.14491312 0.012846655 0.045476668 -0.12461096 0.10830862
-0.020922532 0.121966176 -0.118553974 0.09726482 0.1261994 -0.037751604 -0.066382274 -0.056334767
0.0422313 -0.061862137 -0.17033848 0.15780109 0.07266248 0.08049045 0.078150414 0.18375093
-0.08862177 -0.114129506 -0.11148643 0.14892212 -0.05557305 0.07419081 0.08112148 -0.13235852
-0.06986596 0.07895307 -0.2062799 -0.056673605 -0.13452531 -0.11380955 0.014915115 0.11273435
-0.0654617 0.10598508 0.09734179 -0.004524483 -0.051182784 0.02879428 -0.026165297 0.10069228
-0.08106468 -0.0073382375 -0.1156795 0.22509232 0.121708654 0.016471546 0.0070128753 0.004436473
0.032470558 0.0032925191 -0.08631393 0.07424534 -0.0045318515 -0.043673117 -0.004890597 -0.017396579
0.031284742 0.027396236 0.06277558 -0.064979754 0.039615553 0.06833724 -0.006360584 -0.02881818
-0.026493182 0.100294046 -0.053087045 -0.113163196 0.048002142 0.0588851 0.046621546 0.073519744
0.097145796 0.102300934 0.040786617 0.010368607 0.14580016 -0.016511483 0.13214429 0.10899461
-0.013471322 0.063823655 -0.0104734115 0.0044815317 0.03879077 -0.025506912 -0.05099874 0.08435293
-0.07644558 0.04657422 -0.06099857 -0.017654777 0.08665106 0.024666369 0.023587942 -0.082390755
0.056956965 0.07577861 0.11076636 0.08484053 -0.06880852 0.051675867 -0.060020525 0.042700548
0.11481518 0.0697367 -0.030692942 -0.054789223 0.0029826283 -0.0025807347 0.012434876 0.061066117
0.005655565 -0.01813053 0.07577059 -0.035582136 0.05609923 0.007817621 0.03423442 0.03676519
-0.011688254 -0.045668464 -0.0396256 -0.032924626 0.07083718 -0.067747414 -0.17411016 -0.021158252
0.014400546 -0.101129904 -0.07597605 -0.0032077522 0.023709249 0.13439819 0.15035942 0.0664168
0.00796819 -0.10576972 0.032635868 -0.05528471 0.054041404 0.06964974 0.1299633 -0.060396835
0.037789136 0.138278 -0.015309854 0.047500417 -0.004286188 0.033975083 0.060677867 0.009564444
-0.09537426 0.0508881 0.08582146 -0.01287036 -0.062320676 0.035573177 0.06650457 -0.10760079
00000000: f458 413c 9981 213e b5f4 1c3e 6e7e 073c
00000010: 8426 953d 145a cdbd 27cb c23d d548 58bd
00000020: 3762 dcbd 9f9a 96bc 7a8c 2dbd ea55 41bb
00000030: d97f 80bc 099b 9f3c 1413 d2bd a31d b1bd
00000040: 576b 7dbd 5de0 1c3e 973b d7bd 6324 b0bd
00000050: 223f 7ebd ee43 7d3d 94af f3bb b374 fdbd
00000060: 40a9 313a 84cd e73d e97a 05bd 3899 233d
00000070: 24df 7b3d 5e03 1cbe 013e 3bbd 4ea0 dabd
00000080: 1bac 0d3d 58ee 54bd 8113 ebbc dfa8 643d
00000090: 29bb fbbd 16c2 a83c 1d4f 223d 70f8 cc3d
000000a0: cb86 e13c d540 56bc b817 5b3c 64b2 8ebd
000000b0: ba6a 56be 586b 68bd 66da 2ebd d349 633c
000000c0: 66cb 0a3e 40af 973d 8152 6abd 4b25 4dbe
000000d0: 7a7b 8fbd d809 1238 1f75 533c c7e7 43be
000000e0: 01a4 89bd 0bc3 b13c 358b bd3d d062 833d
000000f0: 5811 aebc 8bcb bd3d 4600 933c 4f2b c6bd
00000100: 57b2 83bc 6880 75bd f2e0 31bd 96f8 9fbc
00000110: 9e90 f9bc 7f32 8dbc 94b7 c5bd 345a 4b3c
00000120: d890 48be 39ea bebb 9dcf f03c eab3 0f3e
00000130: 64ba 3c3b a73f 173b 8709 86bb 6fb2 d1bd
00000140: b4ec e13a 49cd cebd aac2 a33c 78a9 cd3c
00000150: 6caf 9bbd 0046 f6bd 33f7 173e 4076 8a3c
00000160: 70f1 e33c 4718 90bd fabf a93d 1b64 14be
00000170: c77a 523c be45 3a3d 0834 ffbd e9d0 dd3d
00000180: bb65 abbc 67c9 f93d 6dcc f2bd c732 c73d
00000190: 6a3a 013e 6da1 1abd 6ef3 87bd 49bf 66bd
000001a0: bafa 2c3d 2763 7dbd 366d 2ebe 9c96 213e
000001b0: 11d0 943d 2dd8 a43d 530d a03d 3429 3c3e
000001c0: 557f b5bd bbbc e9bd ff52 e4bd 0a7f 183e
000001d0: 91a0 63bd 5af1 973d 0523 a63d fe88 07be
000001e0: e215 8fbd 26b2 a13d 0a3b 53be 9522 68bd
000001f0: 01c1 09be fb14 e9bd 875e 743c 44e1 e63d
00000200: c910 86bd b50e d93d 225b c73d 1d42 94bb
00000210: 0aa5 51bd fbe1 eb3c 9b58 d6bc c137 ce3d
00000220: 3d05 a6bd 9975 f0bb 60e9 ecbd 9a7e 663e
00000230: 6342 f93d 56ef 863c 43cc e53b d55f 913b
00000240: d9ff 043d 4ec7 573b 5cc5 b0bd f10d 983d
00000250: ed7f 94bb 95e2 32bd 4d41 a0bb 4583 8ebc
00000260: 6e24 003d 126e e03c 7c90 803d 1b14 85bd
00000270: eb43 223d 65f4 8b3d 726c d0bb 1b14 ecbc
00000280: 3b08 d9bc f766 cd3d cd71 59bd 1bc2 e7bd
00000290: e59d 443d 8131 713d 3cf6 3e3d 8591 963d
000002a0: 60f4 c63d 2783 d13d de0f 273d 17e1 293c
000002b0: a34c 153e 1743 87bc d550 073e 9138 df3d
000002c0: d2b6 5cbc fab5 823d ac98 2bbc d0d9 923b
000002d0: 12e3 1e3d dff3 d0bc 0ee4 50bd 3bc1 ac3d
000002e0: 808f 9cbd 9cc4 3e3d a3d9 79bd c0a0 90bc
000002f0: 1c76 b13d 2011 ca3c 803b c13c 7cbc a8bd
00000300: b54b 693d d131 9b3d 79d9 e23d dfc0 ad3d
00000310: 7beb 8cbd 13aa 533d 15d8 75bd c5e6 2e3d
00000320: 3924 eb3d 1dd2 8e3d c46f fbbc aa6a 60bd
00000330: 3378 433b 8b21 29bb a6bb 4b3c 7720 7a3d
00000340: 5152 b93b 7a86 94bc 9c2d 9b3d 93be 11bd
00000350: 4ec8 653d 7b15 003c 6439 0c3d 1997 163d
00000360: 1780 3fbc db0e 3bbd 744e 22bd f9db 06bd
00000370: 1513 913d 28bf 8abd ef49 32be 1254 adbc
00000380: 45f0 6b3c 321d cfbd 5599 9bbd 2739 52bb
00000390: e639 c23c ae9f 093e d2f7 193e 8805 883d
000003a0: 038d 023c cc9d d8bd 30ad 053d 3872 62bd
000003b0: 855a 5d3d 86a4 8e3d 1915 053e ac62 77bd
000003c0: c8c8 1a3d bf98 0d3e 2fd6 7abc cc8f 423d
000003d0: 2773 8cbb 7529 0b3d 5b89 783d 30b4 1c3c
000003e0: 9453 c3bd 0a70 503d 29c3 af3d 34de 52bc
000003f0: f743 7fbd 2eb5 113d 8c33 883d ce5d dcbd

0.2.bias f4 [128]
-0.022029618 -0.10844434 0.058549713 -0.048764184 0.11239404 -0.043575387 0.040137738 0.07986308
-0.07493349 -0.0004303232 -0.21825778 -0.05115431 0.025176184 0.117085874 -0.012444738 0.13533632
-0.031224735 -0.09966155 -0.181255 -0.15309007 0.12109303 0.10703252 0.063799314 0.044490833
-0.12323419 -0.021374367 -0.030478694 -0.022490215 0.044655483 -0.010760225 -0.008701801 -0.041732453
-0.023915801 0.076434806 0.05130939 0.026180172 -0.035013527 0.017296316 0.032885846 0.04756201
0.048013918 0.07221752 -0.08569495 0.0018386019 0.1135592 0.1060158 0.11798192 0.11380521
-0.059137255 -0.07045877 -0.06977602 -0.024163753 -0.007723467 0.08152626 0.024492813 0.02527609
-0.055831376 -0.007608673 0.045228325 0.025446009 -0.0022239534 0.030765584 -0.0028511123 0.12797199
0.0004377829 0.06090265 0.014717228 0.06583185 0.063554734 -0.002386044 -0.038870256 -0.119624235
0.024128668 -0.081355 -0.07470633 -0.13833499 -0.028700374 0.038547426 0.1356986 0.068402685
0.09014298 0.04064415 -0.00060814817 0.031054612 -0.025402695 0.0126336515 0.13805088 0.07552339
0.08825889 0.099574365 0.078426436 0.004833879 0.08664372 0.15272658 0.0432552 -0.017164104
0.08274627 0.075295046 0.188643 -0.044525653 0.103577904 -0.064992614 -0.017719064 0.033814017
0.009274231 -0.07213397 -0.09324572 0.03309816 -0.051936552 -0.014976662 0.04463099 0.10204294
-0.02114025 -0.006563104 0.10173563 -0.10195044 0.02957374 -0.080634624 0.033903003 0.027108945
0.009751379 0.044634398 0.12319716 -0.04748009 0.12040315 0.02814384 -0.036082886 -0.16383882
00000000: 7577 b4bc 1118 debd d3d1 6f3d f4bc 47bd
00000010: d92e e63d 1b7c 32bd 7867 243d 418f a33d
00000020: bb76 99bd 019d e1b9 f87e 5fbe 2f87 51bd
00000030: 493e ce3c b8ca ef3d 04e5 4bbc 9b95 0a3e
00000040: 04cb ffbc 5b1b ccbd e99a 39be a5c3 1cbe
00000050: 9fff f73d de33 db3d 37a9 823d 053c 363d
00000060: 3562 fcbd 4c19 afbc 74ae f9bc 663d b8bc
00000070: abe8 363d a84b 30bc 0092 0ebc a6ef 2abd
00000080: 12eb c3bc da89 9c3d cc29 523d cd77 d63c
00000090: 586a 0fbd 01b1 8d3c 4fb3 063d 62d0 423d
000000a0: 3eaa 443d c7e6 933d d580 afbd 3efd f03a
000000b0: ba91 e83d d01e d93d 81a0 f13d b512 e93d
000000c0: e839 72bd b04c 90bd bbe6 8ebd 10f3 c5bc
000000d0: 2315 fdbb 3df7 a63d 27a5 c83c cd0f cf3c
000000e0: 71af 64bd 2d52 f9bb 5641 393d 2674 d03c
000000f0: bfbf 11bb 1b08 fc3c bad9 3abb 170b 033e
00000100: 3a86 e539 0f75 793d 8720 713c d9d2 863d
00000110: fc28 823d 2d5f 1cbb 6b36 1fbd 8dfd f4bd
00000120: 7ca9 c53c 739d a6bd a2ff 98bd b0a7 0dbe
00000130: 0c1d ebbc e8e3 1d3d 93f4 0a3e b516 8c3d
00000140: e29c b83d 7b7a 263d 226c 1fba 3e66 fe3c
00000150: 5019 d0bc 60fd 4e3c 365d 0d3e 02ac 9a3d
00000160: 14c1 b43d a5ed cb3d 0a9e a03d 8465 9e3b
00000170: 4372 b13d 5b64 1c3e 5d2c 313d bc9b 8cbc
00000180: e076 a93d 4a34 9a3d a12b 413e 8860 36bd
00000190: a720 d43d d91a 85bd 9227 91bc 9180 0a3d
000001a0: f2f2 173c faba 93bd 9df7 bebd f091 073d
000001b0: 6cbb 54bd ac60 75bc fcce 363d e4fb d03d
000001c0: 512e adbc 4f0f d7bb c55a d03d 64cb d0bd
000001d0: a144 f23c c423 a5bd e0dd 0a3d 9413 de3c
000001e0: 3fc4 1f3c 8fd2 363d cb4e fc3d 7c7a 42bd
000001f0: ed95 f63d e98d e63c a6cb 13bd 5dc5 27be

0.4.weight f4 [10, 128]
-0.1615926 0.3265475 0.15098318 0.188458 0.41092366 0.062235873 0.051320795 0.19261451
0.32851192 -0.16050066 0.035698082 0.13711795 0.18870276 -0.1297559 -0.1059145 -0.20500612
-0.44121966 -0.010299335 0.34021673 -0.046543244 0.20521228 -0.09697906 0.20222409 -0.0067346836
-0.19868617 -0.2844433 0.14108858 0.064512484 0.0034986462 0.009311462 0.13538717 -0.042890485
0.010970161 0.37812817 -0.18134937 0.48975778 0.16224425 0.3343605 0.042890035 0.17956424
-0.34043157 -0.031773344 0.14466427 -0.27821258 -0.29797414 0.008338745 0.023273312 -0.23446617
-0.37282816 -0.007011562 -0.4647276 0.028013986 -0.02480598 -0.10229911 -0.02289239 -0.10173738
-0.24041492 0.10530468 0.06415006 0.04570072 -0.14446701 0.29232484 -0.08201127 0.2595505
-0.13266878 0.12709707 0.047551066 0.5083108 0.10773722 -0.28147107 -0.05480847 -0.074994065
-0.1436853 -0.18369138 -0.02686184 0.3077347 -0.40803677 -0.13205066 0.06006446 -0.075705096
0.21303669 0.13900253 -0.16708884 0.0024397937 -0.1394073 0.048967384 0.0092090545 0.09466026
0.47583506 0.1295828 -0.57058644 -0.02184083 -0.08363261 0.061702464 0.15815149 -0.31157795
-0.17877962 0.03416016 -0.24956322 -0.023336612 -0.35039625 0.08067224 0.14031693 -0.16390899
0.08423184 -0.2735317 -0.36971167 0.11355627 0.089211635 0.17144883 -0.08688752 -0.029386716
0.22002628 0.50133467 0.15622522 -0.47492203 0.0035544296 0.09444942 -0.031611804 0.061256222
0.030036025 0.25076407 -0.35873887 -0.27004936 -0.1257869 -0.34342486 0.37782675 0.31094506
0.28987524 -0.022942685 -0.44991064 0.045466874 0.31142145 -0.010756458 -0.16451967 -0.27648956
-0.2631587 -0.022194594 -0.55082905 0.062475152 -0.2155469 0.19243808 0.026275406 0.041652877
-0.042616926 -0.46589306 -0.20457584 -0.05983296 -0.086430274 -0.090290256 -0.017758092 0.029193329
-0.09097744 -0.2957932 0.23122683 -0.038380437 -0.10174354 0.21666941 -0.016548853 0.16446011
0.15907611 0.1112606 0.48769033 0.12815426 0.01356944 -0.400464 0.16902621 -0.11063014
0.032108493 -0.26759383 -0.37984484 0.04549855 0.06595313 -0.02436267 -0.08673403 0.36931118
-0.4132939 -0.43720418 -0.21676238 0.24283667 0.27784225 0.45145515 -0.23384413 0.14485131
-0.06985249 0.31197673 -0.23822725 -0.059840754 -0.042742487 -0.061633762 0.10019162 0.53893495
0.11997492 0.15754224 0.40695262 -0.42825702 0.30690196 -0.23453097 0.110008 -0.104826264
0.033553317 -0.12934838 0.092103615 -0.38201848 0.19904299 -0.3414901 0.74421036 0.037240334
-0.073150724 -0.09978089 0.024795711 0.06464882 0.016999574 -0.499812 0.46895128 -0.035145566
0.03731764 0.5868458 -0.39349523 0.5289478 0.009009668 0.06121687 -0.025969047 -0.059556074
-0.06334753 0.15240347 0.5063889 0.08452178 -0.2548651 -0.23146446 -0.06937878 -0.08481446
0.4207041 0.19913921 -0.12712787 0.12357552 -0.09885508 0.023229549 0.17030989 0.16891281
-0.042398717 0.1741582 0.10545527 0.046688218 0.02904571 -0.16508482 -0.018574653 -0.035156813
-0.15905172 -0.21477377 0.372295 0.17553803 -0.08722119 -0.094892845 0.15785347 0.1758912
00000000: 8878 25be 3c31 a73e 569b 1a3e 22fb 403e
00000010: 9664 d23e 0beb 7e3d c135 523d bd3c 453e
00000020: b732 a83e 495a 24be 2738 123d a668 0c3e
00000030: 4c3b 413e bbde 04be b4e9 d8bd 20ed 51be
00000040: 8be7 e1be 8bbe 28bc e330 ae3e 21a4 3ebd
00000050: 2b23 523e f59c c6bd d513 4f3e 9fae dcbb
00000060: 6374 4bbe 8da2 91be 8679 103e 1f1f 843d
00000070: 8b49 653b 1a8f 183c efa2 0a3e efad 2fbd
00000080: 31bc 333c 049a c13e a6b3 39be 88c1 fa3e
00000090: 5b23 263e 4d31 ab3e 76ad 2f3d b0df 373e
000000a0: 0c4d aebe c424 02bd df22 143e e171 8ebe
000000b0: 1190 98be 3b9f 083c aca7 be3c e617 70be
000000c0: 55e3 bebe 3fc1 e5bb c7f0 edbe 967d e53c
000000d0: e935 cbbc 3282 d1bd d288 bbbc b05b d0bd
000000e0: 542f 76be fba9 d73d 1b61 833d ae30 3b3d
000000f0: 29ef 13be 9aab 953e 86f5 a7bd cee3 843e
00000100: 53da 07be bc25 023e e8c4 423d a820 023f
00000110: 55a5 dc3d fa1c 90be d97e 60bd 7d96 99bd
00000120: 3d22 13be 9819 3cbe 5d0d dcbc 678f 9d3e
00000130: 32ea d0be 4a38 07be 2706 763d 460b 9bbd
00000140: 4a26 5a3e ae56 0e3e 5619 2bbe f2e4 1f3b
00000150: cac0 0ebe 0692 483d 93e1 163c 3ddd c13d
00000160: a7a0 f33e 5bb1 043e f411 12bf 8aeb b2bc
00000170: 9347 abbd b9bb 7c3d 77f2 213e 2587 9fbe
00000180: 0112 37be 86eb 0b3d 808d 7fbe 6c2c bfbc
00000190: 2367 b3be 7d37 a53d 3eaf 0f3e c2d7 27be
000001a0: be81 ac3d 590c 8cbe d94a bdbe 3190 e83d
000001b0: 97b4 b63d 4890 2f3e 16f2 b1bd 69bc f0bc
000001c0: 924e 613e 7857 003f 81f9 1f3e fb28 f3be
000001d0: 6ff1 683b b36e c13d 617b 01bd cee7 7a3d
000001e0: 1c0e f63c 2664 803e 9fac b7be e943 8abe
000001f0: 48ce 00be 62d5 afbe 8272 c13e 3134 9f3e
00000200: 876a 943e 4cf2 bbbc b05a e6be 793b 3a3d
00000210: a272 9f3e db3b 30bc d877 28be 0a90 8dbe
00000220: bdbc 86be 70d1 b5bc 2203 0dbf f2e5 7f3d
00000230: 54b8 5cbe 7d0e 453e 853f d73c 359c 2a3d
00000240: 168f 2ebd 8989 eebe 547c 51be 6813 75bd
00000250: 5b02 b1bd 19ea b8bd 6b79 91bc d926 ef3c
00000260: 6152 babd 3572 97be bac6 6c3e ce34 1dbd
00000270: eb5e d0bd 96de 5d3e 7691 87bc 3b68 283e
00000280: d9e4 223e 99dc e33d 8cb2 f93e df3a 033e
00000290: 5b52 5e3c 9e09 cdbe 3515 2d3e 0e92 e2bd
000002a0: 3284 033d 0f02 89be 067b c2be b05c 3a3d
000002b0: 6f12 873d 3994 c7bc 9ca1 b1bd 5b16 bd3e
000002c0: 429b d3be 3ad9 dfbe f5f6 5dbe 2daa 783e
000002d0: 5741 8e3e 2125 e73e d674 6fbe e753 143e
000002e0: d30e 8fbd 6abb 9f3e d8f1 73be 941b 75bd
000002f0: bf12 2fbd af73 7cbd 4431 cd3d a4f7 093f
00000300: 69b5 f53d c152 213e 185c d03e 8144 dbbe
00000310: 4122 9d3e e328 70be e04b e13d 27af d6bd
00000320: 346f 093d e773 04be d2a0 bc3d ed97 c3be
00000330: edd1 4b3e cad7 aebe 9284 3e3f 5289 183d
00000340: 0cd0 95bd ec59 ccbd 6020 cb3c 9a66 843d
00000350: b142 8b3c 5ce7 ffbe 621a f03e ccf4 0fbd
00000360: 62da 183d 873b 163f 3578 c9be 1f69 073f
00000370: 499d 133c 8abe 7a3d 0abd d4bc 12f1 73bd
00000380: 5abc 81bd a80f 1c3e b4a2 013f c119 ad3d
00000390: ae7d 82be 0505 6dbe 7616 8ebd 34b3 adbd
000003a0: 8766 d73e 26eb 4b3e cf2d 02be 2a15 fd3d
000003b0: 8874 cabd e54b be3c b765 2e3e 7bf7 2c3e
000003c0: 47aa 2dbd 8756 323e eff8 d73d 253c 3f3d
000003d0: 45f1 ed3c ff0b 29be df29 98bc 9700 10bd
000003e0: 74de 22be a8ed 5bbe 739d be3e 3ec0 333e
000003f0: 06a1 b2bd 2e57 c2bd 57a4 213e d31c 343e

0.4.bias f4 [10]
-0.16755247 0.19428988 0.028140469 0.089436285 0.053584017 0.11094634 -0.14363867 0.114839576
-0.11372793 0.040806934
00000000: e092 2bbe edf3 463e d786 e63c 5f2a b73d
00000010: ea7a 5b3d d637 e33d 0416 13be 0331 eb3d
00000020: 30ea e8bd 2c25 273d
