mnist_model3.pt (torch_old, 524924 bytes, 14 tensors)

0.conv1.weight f4 [16, 1, 3, 3]
0	0x3ee7d8f5	0.45282713
1	0x3efe8bac	0.49715936
2	0x3edd7bbe	0.4325847
3	0x3dfb3c04	0.122673064
4	0xbcaf9266	-0.021432113
5	0x3f1c33f7	0.6101679
6	0xbf2073dc	-0.6267679
7	0xbe218fee	-0.15777561
8	0x3df351b4	0.11880818
9	0x3ec4c687	0.38432714
10	0x3bcec198	0.0063096993
11	0xbeddd7d4	-0.43328726
12	0x3d55d26b	0.052202623
13	0xbd7fccad	-0.062451053
14	0xbefcf1e9	-0.49403313
15	0x3ea96dbd	0.33091536
16	0x3f19c9a4	0.60073304
17	0x3e982478	0.29715323
18	0x3e87b44e	0.2650475
19	0xbe21ab74	-0.1578806
20	0x3eb35c6a	0.35031444
21	0x3ddc8c65	0.10768966
22	0xbea4159e	-0.32047743
23	0x3e8158a9	0.25262955
24	0x3e528372	0.20557955
25	0xbd830cc4	-0.06398919
26	0x3e9ec84e	0.31012195
27	0x3ee5439c	0.44778144
28	0x3f1ede25	0.62057716
29	0x3ea6cd7f	0.32578656
30	0x3e8944e5	0.26810375
31	0x3e8f0f1b	0.27941212
32	0xbe2accca	-0.16679683
33	0xbdcff57e	-0.10154246
34	0xbd85144f	-0.06498014
35	0xbd076fe1	-0.03306568
36	0x3f243807	0.6414799
37	0x3ea73262	0.32655627
38	0xbde41ad4	-0.111379296
39	0x3f4cd72e	0.8001584
40	0x3ee21d85	0.44163147
41	0xbdd290fa	-0.10281558
42	0x3e784da4	0.24248368
43	0x3ecbb381	0.39785388
44	0x3ef50b37	0.4786012
45	0xbeb5d867	-0.35516664
46	0x3d679b47	0.05654457
47	0x3e7a7b80	0.24461174
48	0x3d619e90	0.055082858
49	0x3ea3e477	0.32010242
50	0x3f53df1e	0.82762325
51	0x3e8d7548	0.2762854
52	0x3f4ae253	0.79251593
53	0x3f49cff0	0.7883291
54	0xbe26d752	-0.16293076
55	0xbdcc340d	-0.099708654
56	0x3e28aa59	0.16471232
57	0xbe21eb83	-0.15812497
58	0x3d9b613f	0.075869076
59	0xbdb2dbad	-0.08733306
60	0xbdecb951	-0.11558784
61	0xbd4cb6a5	-0.04997887
62	0xbd80511f	-0.062654726
63	0xbd94144c	-0.07230434
64	0xbe8878b0	-0.26654577
65	0x3ea9f677	0.3319585
66	0xbe7beaa0	-0.24601221
67	0xbe863236	-0.26210183
68	0xbcc1fb71	-0.023679467
69	0xbd1e8cc0	-0.03870845
70	0xbe791d90	-0.24327683
71	0xbe1fdeb3	-0.15612297
72	0x3d69cbf9	0.05707929
73	0xbd70a2a6	-0.058748864
74	0xbdfd2dd0	-0.12362254
75	0xbe46abcf	-0.19401477
76	0xbdce14b0	-0.100625396
77	0x3b3e0200	0.0028992891
78	0x3e8b1163	0.27161703
79	0xbe141eca	-0.1446487
80	0xbe358273	-0.17725544
81	0x3f14eaba	0.58170664
82	0x3ef39a5a	0.47578698
83	0x3d95fd7a	0.073237374
84	0xbea0c49d	-0.31400004
85	0x3e076479	0.13221921
86	0x3d2c9417	0.042133417
87	0xbf115d5c	-0.5678308
88	0xbebc0e68	-0.3672974
89	0xbe8496eb	-0.2589639
90	0xbe91d418	-0.28482127
91	0x3c98df40	0.018661141
92	0x3d6f46e8	0.05841723
93	0xbe19cef0	-0.15020347
94	0xbd959e5c	-0.07305595
95	0xbd747e08	-0.059690505
96	0xbe45fe23	-0.19335227
97	0xbdddf776	-0.10838215
98	0x3da91b50	0.082571626
99	0x3e7aa2ec	0.24476212
100	0x3e3fb816	0.18722567
101	0x3f061adc	0.52384734
102	0xbe99420f	-0.2993321
103	0xbe0dbed7	-0.13842331
104	0xbe6e2b57	-0.2325872
105	0xbe883bd0	-0.26608133
106	0xbe2a261f	-0.16616105
107	0xbe4770e6	-0.19476661
108	0x3ebea937	0.37238476
109	0xbe84c358	-0.25930285
110	0xbe9bd560	-0.3043623
111	0x3daa2c70	0.08309257
112	0x3e0954d3	0.13411264
113	0xbd8ddb6d	-0.06926618
114	0xbcec1477	-0.028818352
115	0xbded5ced	-0.1158999
116	0xbe300bf1	-0.17192055
117	0x3d90d9cf	0.07072794
118	0x3e821c62	0.2541228
119	0x3eaabb2b	0.33345923
120	0x3e30b8a7	0.1725794
121	0x3e69327f	0.22773169
122	0x3e8e424e	0.2778496
123	0x3f0af077	0.5427317
124	0x3f367294	0.7126858
125	0x3e537159	0.20648707
126	0xbdba6834	-0.091019064
127	0xbdca205c	-0.09869453
128	0xbea64af3	-0.32479057
129	0xbe7053df	-0.23469494
130	0xbd9bd8df	-0.07609724
131	0xbd3e5ec6	-0.0464771
132	0xbe7c70dd	-0.24652429
133	0x3d20642c	0.03915803
134	0x3e51c046	0.20483503
135	0x3f2918ad	0.6605328
136	0x3f077ea6	0.52927625
137	0x3ec3cf12	0.3824392
138	0x3f6cbc49	0.924748
139	0x3f143f03	0.5790865
140	0x3f481a55	0.7816518
141	0x3ea1566c	0.31511247
142	0x3f2e59fc	0.68106055
143	0x3e8a6bb6	0.27035302

0.conv1.bias f4 [16]
0	0xb7fc79fe	-3.0097548e-05
1	0xbe374ee6	-0.17901191
2	0xbe71349c	-0.23555225
3	0x3e16bb8d	0.14719982
4	0xbc166d0c	-0.009181272
5	0x3a9ec56b	0.0012113278
6	0xbbe33eff	-0.006935
7	0xbea6f4d4	-0.32608664
8	0xbe8bb9f4	-0.27290308
9	0x3ed76ba2	0.42074305
10	0xbe6daff8	-0.23211658
11	0x3e55fab4	0.20896417
12	0xbde79616	-0.113079235
13	0xbc2bff2f	-0.010497852
14	0x3ef0f290	0.4706006
15	0x36cd840f	6.1248497e-06

0.conv2.weight f4 [32, 16, 3, 3]
0	0xbdc4afa1	-0.09603811
1	0x39bc481a	0.00035911874
2	0x3d4faab9	0.050699923
3	0xbdc2dd77	-0.09514897
4	0xbd6bb1e1	-0.057542685
5	0xbd7d0f9f	-0.061782476
6	0xbcd4b01f	-0.025962887
7	0xbcb8faf5	-0.022580603
8	0xbd725570	-0.05916351
9	0x3bcea828	0.006306667
10	0xbd231386	-0.03981354
11	0x3cb8745e	0.022516426
12	0xbd4a3de0	-0.049375415
13	0xba25a7a5	-0.00063192315
14	0x3d4d4208	0.0501118
15	0x3d91c59e	0.071177706
16	0xbda0c41c	-0.07849905
17	0xbd0ce27d	-0.034395684
18	0x3d9b7263	0.07590177
19	0x3d3b6ce7	0.045758154
20	0xbd80a168	-0.06280786
21	0x3c9cbfb6	0.019134384
22	0x3ac89a6b	0.0015304809
23	0x3d10daeb	0.035365026
24	0xbcf095f6	-0.029368382
25	0xbcb2d247	-0.021828784
26	0x3ca315f7	0.019907935
27	0x3d47ebec	0.048808977
28	0x3d985561	0.0743816
29	0x3d7a2496	0.061070047
30	0x3de9e9eb	0.114215694
31	0x3c24dced	0.010062438
32	0x3c326ed8	0.010890685
33	0x3d82d0a0	0.06387448
34	0x3cb379a3	0.021908587
35	0x3d14b68f	0.036306914
36	0xbd5c416a	-0.05377332
37	0x3cd65f36	0.026168447
38	0xbd19b012	-0.03752143
39	0x3e40210e	0.1876261
40	0x3da65bea	0.08123
41	0xbcdc37de	-0.026882108
42	0x3d964b4b	0.0733858
43	0x3c9360f9	0.017990576
44	0xbd5d627a	-0.054048993
45	0x3dd907d5	0.10597197
46	0xbd1860d9	-0.037201736
47	0xbdc00942	-0.09376766
48	0x3d90ac58	0.07064122
49	0xbdf4294b	-0.119219385
50	0xbe0641cb	-0.13111036
51	0x3d414122	0.047181256
52	0xbe0e7365	-0.13911207
53	0x3c65fa2f	0.014036699
54	0x3cc24a1d	0.02371698
55	0xbd8aafd2	-0.06771816
56	0xbd930862	-0.07179333
57	0x3d9b03ad	0.075690605
58	0xbd87016a	-0.065920666
59	0x3d76013f	0.060059782
60	0xbce52bcf	-0.027974991
61	0xbd52a9fe	-0.05143165
62	0x3d26f87f	0.040764328
63	0x3cfa6524	0.030565806
64	0xbbd37247	-0.006452832
65	0xbc2821cd	-0.010261965
66	0x3da0afce	0.07846032
67	0xbca7f3a6	-0.020501923
68	0x3d32fd6d	0.043698717
69	0x3c4a82a8	0.012360252
70	0xbd078343	-0.033084165
71	0x3d42fbe6	0.04760351
72	0x3d8e3e6b	0.06945499
73	0xbd7ce821	-0.061744813
74	0xbcd36f60	-0.025809944
75	0xbd843c91	-0.064568646
76	0x3cdb6106	0.026779663
77	0x3d94b6d9	0.07261438
78	0xbc5cd16b	-0.0134776635
79	0xbd2b7617	-0.041860666
80	0xbcd2f144	-0.02574981
81	0xbdd8db9c	-0.10588762
82	0x3d1e3fce	0.038635068
83	0x3b695a49	0.0035606793
84	0xbcdba70b	-0.02681305
85	0xbcd95cbf	-0.026533483
86	0xbd9cd678	-0.07658094
87	0xbdc012f4	-0.09378615
88	0xbb426258	-0.0029660668
89	0xb7cfb4b9	-2.4760478e-05
90	0xbd51da8e	-0.05123382
91	0x3c26afe8	0.010173775
92	0x3d9b5bb9	0.07585854
93	0x3b614a80	0.003437668
94	0x3d2fbc2e	0.04290407
95	0x3da0d405	0.078529395
96	0xbd308b46	-0.04310157
97	0xbc4ff5e0	-0.0126928985
98	0x3d8bc2af	0.06824242
99	0xbcb5486b	-0.022129258
100	0x3cdcc839	0.026950942
101	0xbd198ca0	-0.037487626
102	0xbdc1a6b0	-0.09455621
103	0x3d3b4aa1	0.04572547
104	0x3c5268a4	0.012842331
105	0xbcd69b10	-0.026196986
106	0xbdc1d51e	-0.09464477
107	0x3d2e6ca1	0.042584065
108	0x3d3c36d2	0.04595072
109	0xbc8e3adb	-0.017362049
110	0x3d8d9cfa	0.069147065
111	0xbbb26319	-0.0054439423
112	0xbc1c3fe4	-0.009536717
113	0x3d03b880	0.032158375
114	0xbbe8beba	-0.0071028145
115	0xbcd02cd0	-0.025411993
116	0xbd8382a1	-0.064214
117	0x3db0fe71	0.08642281
118	0x3d69a94c	0.05704622
119	0xbd93153e	-0.07181786
120	0x3df1f478	0.11814207
121	0xbdd79397	-0.105261974
122	0xbdc2a9f3	-0.095050715
123	0x3dca0d44	0.098658115
124	0xbdc2921b	-0.09500524
125	0xbcfdb7f0	-0.030971497
126	0x3b87d997	0.004145812
127	0xbdc9d880	-0.09855747
128	0xbd0e8deb	-0.034803312
129	0xbc91e65a	-0.017810035
130	0xbc700135	-0.014648725
131	0x3c8bd205	0.017067919
132	0xbd425ff0	-0.047454774
133	0x3d78b294	0.06071718
134	0xbd0588d2	-0.032601185
135	0x3db19808	0.08671576
136	0x3d9c852c	0.07642588
137	0x3dd72d66	0.10506706
138	0x3e22bfb0	0.15893435
139	0xbcc659d7	-0.02421276
140	0xbe1cd3ff	-0.15315245
141	0x3e277e10	0.16356683
142	0xbe2319d6	-0.15927824
143	0xbdc2ffe2	-0.09521462
144	0x3d8c8869	0.06861956
145	0xbd2ac05d	-0.04168736
146	0xbe0248a4	-0.12723023
147	0x3e624fe8	0.22100794
148	0x3e81de93	0.25365123
149	0x3e135195	0.1438659
150	0xbdaec972	-0.085345164
151	0xbd0fcc6a	-0.035107054
152	0xbc21e082	-0.009880187
153	0x3e42afd6	0.19012389
154	0x3e35c732	0.17751768
155	0x3e1299a1	0.14316417
156	0xbda35776	-0.07975666
157	0x3df4697a	0.119341806
158	0xbd189cb6	-0.037258826
159	0xbdbd7d35	-0.09252397
160	0xbc969335	-0.01838074
161	0xbdfba7ac	-0.1228784
162	0x3d836778	0.064162195
163	0x3c8332dc	0.016015463
164	0xbcf9d374	-0.030496337
165	0x3c87c01b	0.016571095
166	0xbd7aa97b	-0.061196785
167	0x3ba41e58	0.0050085
168	0xbdaac418	-0.08338183
169	0xbdadadd9	-0.084804244
170	0x3bad34f1	0.005285852
171	0xbd9186ea	-0.07105811
172	0xbd927aa3	-0.07152297
173	0xbd9c3ecf	-0.07629167
174	0x3d83587d	0.06413362
175	0x3d74d6c6	0.059775136
176	0x3d2b1f6c	0.041778013
177	0xbd2df628	-0.04247108
178	0x3c3324e7	0.010934091
179	0x3d78fb6d	0.060786653
180	0x3e2f4805	0.17117317
181	0x3d6c2d48	0.05766037
182	0xbdf0fb37	-0.117666654
183	0x3d52e9f9	0.051492665
184	0x3df28023	0.118408464
185	0x3ddc26c8	0.107495844
186	0xbe6a1378	-0.22858989
187	0xbd023448	-0.03178814
188	0xbe26be37	-0.16283499
189	0x3d8158ec	0.063157886
190	0xbc139c8c	-0.009009492
191	0x3e098eba	0.13433352
192	0xbde2c2aa	-0.110722855
193	0x3d1df053	0.03855927
194	0x3d805511	0.06266225
195	0xbe1fe1d3	-0.15613489
196	0xbda37fbb	-0.07983347
197	0xbe681036	-0.22662434
198	0x3b65ba38	0.0035053622
199	0x3cab05d2	0.020876799
200	0xbd630157	-0.0554212
201	0x3da8c513	0.08240714
202	0x3d771b1e	0.060328595
203	0x3d99cfda	0.07510348
204	0x3d87655d	0.066111304
205	0xbce34f1c	-0.027747683
206	0xbd38bdf5	-0.045103032
207	0x3d7c0844	0.06153132
208	0xbc9b317f	-0.0189445
209	0x3d264188	0.04058984
210	0xbcf7817d	-0.030213112
211	0xbd826d54	-0.06368509
212	0x3d835047	0.06411796
213	0xbcbd0da0	-0.023077786
214	0x3c73a4d1	0.014870838
215	0x3da83753	0.08213677
216	0xbd360010	-0.044433653
217	0x3cea8407	0.028627409
218	0x3ca28ae6	0.019841623
219	0x3c9346e4	0.01797814
220	0x3d309caa	0.043118156
221	0x3d249afb	0.040186863
222	0xbd5faf19	-0.054610346
223	0x3d1b44c1	0.037907366
224	0x3da63243	0.081150554
225	0x3d03b3ce	0.032153897
226	0xbde16e05	-0.11007313
227	0xbd9bd790	-0.07609475
228	0x3bc8910d	0.006120807
229	0x3db82b87	0.08992677
230	0x3d9a4290	0.07532227
231	0xbda4625b	-0.08026572
232	0x3de14e4b	0.11001261
233	0x3dcddb1e	0.10051559
234	0xbda67d8f	-0.08129417
235	0xbbe495c0	-0.0069758594
236	0x3d76d4a2	0.060261376
237	0xbccd052c	-0.02502688
238	0x37d8f000	2.5860965e-05
239	0xbd66839b	-0.056277853
240	0xbc150a28	-0.00909666
241	0x3d914739	0.07093663
242	0x3cbd8904	0.023136623
243	0xbdc3f405	-0.095680274
244	0x3d100a4e	0.035166077
245	0xbd8aaa71	-0.0677079
246	0x3ced7ed7	0.028991146
247	0x3e048afc	0.12943643
248	0x3debc375	0.1151189
249	0x3d41fc16	0.04735955
250	0x3d2ec625	0.042669434
251	0x3cce58d2	0.025188837
252	0xbda37766	-0.07981758
253	0xbd088884	-0.033333316
254	0xbd8b76a5	-0.06809739
255	0x38a10ade	7.6791024e-05

0.conv2.bias f4 [32]
0	0xbd8138f3	-0.0630969
1	0xbba7c7b5	-0.0051202425
2	0xbc9fe79c	-0.01951962
3	0xbe4f5e56	-0.2025083
4	0x3c6f0d9a	0.014590645
5	0xbe0d138a	-0.13776985
6	0xbd6a03e7	-0.057132628
7	0x3c17c2c5	0.009262745
8	0xbdda19e7	-0.10649472
9	0x3d9d49f8	0.07680124
10	0xbddeaca5	-0.10872773
11	0x3dbe6dc1	0.09298278
12	0xbb4058be	-0.002934977
13	0x3d1a241c	0.037632093
14	0xbd926c0c	-0.071495146
15	0xbdb057f8	-0.08610529
16	0x3c3b7ace	0.011442853
17	0xbd20fba4	-0.039302483
18	0x3d1f4b38	0.038890094
19	0xbd85b0a4	-0.06527832
20	0xbdc20695	-0.09473912
21	0xbda3627a	-0.07977767
22	0xbca34325	-0.019929478
23	0xbd61bb45	-0.055110235
24	0xbdbd25f7	-0.09235757
25	0xbbccbd9b	-0.0062481887
26	0x3c01cba9	0.0079220915
27	0x3d5cd66a	0.05391542
28	0xbd48beab	-0.04900996
29	0xbe2fe7b6	-0.17178234
30	0xbd2b9604	-0.041891113
31	0xbe27859f	-0.16359566

0.fc1.weight f4 [128, 800]
0	0xbc7d9d6f	-0.01547943
1	0x3c050bba	0.008120472
2	0x3c758167	0.014984465
3	0xbccc8808	-0.024967209
4	0xbc63630a	-0.013878593
5	0xbc932f3c	-0.017966859
6	0x3c4ed698	0.012624405
7	0xbd09e5d4	-0.033666447
8	0x3cbaf4e2	0.022821847
9	0xbc85b687	-0.016322387
10	0x3cf55441	0.029947402
11	0xbb9f1dc9	-0.0048558456
12	0x3ce8d6a0	0.028422654
13	0xbc55385e	-0.013013927
14	0x3c054c8d	0.008135927
15	0x3c802c42	0.015646104
16	0xbba2497a	-0.0049526067
17	0xbc728f21	-0.014804632
18	0xbc2c3e75	-0.010512938
19	0xbc3bde6d	-0.011466605
20	0xbceafbd1	-0.028684529
21	0x3c6bcea1	0.014392526
22	0x3d43b018	0.047775358
23	0xbd110997	-0.035409536
24	0x3bc2152f	0.0059229354
25	0x3cce232e	0.02516326
26	0xbc9403c6	-0.018068206
27	0xbcfdf63a	-0.031001199
28	0x3b8f83a3	0.004379706
29	0xbc33086f	-0.010927304
30	0xbcd13a09	-0.025540369
31	0x3d09ec8d	0.033672858
32	0xbb788ea1	-0.003792681
33	0xbc937e56	-0.018004578
34	0x3c70ff7e	0.014709352
35	0xbc0ba371	-0.008522854
36	0x3d21e1f4	0.039522126
37	0xbd014674	-0.03156133
38	0xbb521359	-0.003205499
39	0x3cefaaa5	0.029256174
40	0xbcfe0052	-0.031006012
41	0xbb56f3ab	-0.0032799046
42	0x3b130c27	0.0022437663
43	0xbcad7551	-0.021174105
44	0xbb43e4b2	-0.0029890952
45	0xbb05524c	-0.0020343242
46	0x3d0616ad	0.03273647
47	0x3d21dbb1	0.039516155
48	0x3cad84ce	0.02118149
49	0x3d2fe2ad	0.042940784
50	0xbc5f33db	-0.013623203
51	0xbc6ec1ee	-0.014572604
52	0xbcdf8fa2	-0.02729017
53	0x3cb94ec8	0.022620574
54	0xba296731	-0.0006462215
55	0xbad5b969	-0.0016305867
56	0x3c152616	0.009103319
57	0x3c277117	0.010219834
58	0x3cee04ae	0.029054966
59	0xbbd3d252	-0.006464281
60	0x3cf688c3	0.03009451
61	0x3b876f93	0.0041331737
62	0x3cf33ea3	0.029692953
63	0x3c091ec0	0.008369148
64	0xbc92b5e2	-0.017908994
65	0xbca8122c	-0.020516478
66	0x3c87c841	0.01657498
67	0x3ca9f5c4	0.020747073
68	0xbc9544bb	-0.01822125
69	0xbbf02c04	-0.007329466
70	0x3be8fe1e	0.0071103713
71	0xbaa695cb	-0.0012709437
72	0xbcc3b387	-0.023889316
73	0xbcb159fc	-0.021649353
74	0x3be51395	0.0069908598
75	0xbc94d59a	-0.01816826
76	0x3d11498d	0.035470534
77	0xbce3af74	-0.027793624
78	0xbca245dd	-0.019808704
79	0x3d056842	0.03257013
80	0xbcc3b5fe	-0.023890492
81	0x3d18ad82	0.037274845
82	0xbd19338b	-0.03740267
83	0x3bf44e44	0.007455619
84	0x3d2fe3af	0.042941745
85	0xbcde068c	-0.027102731
86	0x3b3e6db9	0.00290571
87	0xbc9fa216	-0.019486468
88	0xbc7c4ea2	-0.015399607
89	0x3cce7569	0.02520247
90	0x3c803026	0.015647959
91	0x3cff4c78	0.031164393
92	0xba4913fc	-0.00076705194
93	0xbcae2e91	-0.021262439
94	0xbccb4bb2	-0.024816368
95	0x3d32ebcf	0.043681916
96	0xbcffb569	-0.031214433
97	0x3d5a17d3	0.053245377
98	0xbd0fb4b1	-0.03508443
99	0xbd04192e	-0.032250576
100	0x3cb8d892	0.022564206
101	0x3c12f29b	0.008968974
102	0x3b8131b2	0.0039426917
103	0xbaab6428	-0.0013076114
104	0xbc47614b	-0.012169193
105	0x3b8e6c0e	0.004346377
106	0x3b20f4df	0.0024560017
107	0xbc5fd053	-0.013660508
108	0xbcaaf581	-0.020869019
109	0x3ca801f7	0.02050875
110	0xbb80963d	-0.00392416
111	0xbc38c918	-0.011278413
112	0x3cbaae43	0.022788173
113	0xbd01ec25	-0.031719346
114	0x3bfcf1a3	0.007719235
115	0xbc8582ad	-0.016297663
116	0xbd03d5b7	-0.032186236
117	0xbc9dc995	-0.01926116
118	0x3bb3d6ab	0.005488237
119	0xbd0f6749	-0.03501061
120	0xbc50bdc4	-0.012740556
121	0xbc0d0e2a	-0.008609334
122	0x3d167895	0.03673609
123	0xbcc5feac	-0.024169289
124	0x3cad0d35	0.021124462
125	0xbcebd5a5	-0.028788397
126	0x3ca24e64	0.01981277
127	0x3c8432cf	0.016137509
128	0xbc9c516c	-0.019081794
129	0x3d278e64	0.04090728
130	0xbcc5e021	-0.024154725
131	0x3d17ec0b	0.037090342
132	0xbcb32885	-0.021869907
133	0xbc0dcabc	-0.008654293
134	0xbc006f40	-0.007839024
135	0x3c4983c2	0.01229948
136	0xbbcad15d	-0.006189509
137	0xbd24c9ce	-0.04023152
138	0x3d1ea4bd	0.038731325
139	0xbcffaa27	-0.031209065
140	0x3cf03c8f	0.029325752
141	0x3c9d9448	0.019235745
142	0xbcd35528	-0.025797442
143	0xbc7fdf61	-0.0156172225
144	0x3d029df5	0.03188892
145	0x3c5d49d9	0.013506376
146	0xbca036cf	-0.019557385
147	0xbcef7563	-0.029230779
148	0x3c5c7b46	0.013457125
149	0x3bdd2691	0.0067489822
150	0xbc473901	-0.012159587
151	0x3d159a62	0.036524184
152	0xbd06bce4	-0.032894984
153	0x3c56c2e1	0.013107986
154	0xbb9844a2	-0.0046468535
155	0xbc811acf	-0.015759854
156	0x3d01ede7	0.031721022
157	0x3d2de570	0.042455137
158	0x3c1c30bf	0.009533106
159	0xbbd30f3c	-0.006441025
160	0xbcd130ab	-0.025535902
161	0xbace1fc5	-0.0015726021
162	0xbc61cf35	-0.013782312
163	0xbc81d560	-0.015848815
164	0xbd215318	-0.039385885
165	0x3c979dca	0.018507857
166	0xbce9d8e2	-0.0285458
167	0x3cee53f6	0.02909277
168	0x3c24bfe1	0.010055513
169	0xbd3df88d	-0.046379615
170	0xbc9eeb7b	-0.019399395
171	0xbced510b	-0.028969308
172	0xbcd7dc8c	-0.026350282
173	0x3bd2ba1a	0.0064308764
174	0x3c92d5da	0.017924238
175	0xbcf2a724	-0.029620714
176	0xbaa928ba	-0.0012905814
177	0x3cd30386	0.025758516
178	0x3cc541a6	0.024079155
179	0xbbc22585	-0.005924883
180	0xbc4eff76	-0.012634149
181	0x3ae3afe8	0.001737115
182	0xbba396ff	-0.0049923654
183	0xbaf3425d	-0.0018559207
184	0xbcf0f836	-0.029415231
185	0xbc928818	-0.01788716
186	0x3cbe1980	0.023205519
187	0x3b5a84fb	0.0033343423
188	0x3d03348d	0.03203254
189	0xbd0a7536	-0.033803187
190	0xbbd9547a	-0.006632385
191	0xbcda9f7b	-0.026687374
192	0x3cb18fd4	0.021675028
193	0xbba24790	-0.0049523786
194	0x3c96e887	0.018421425
195	0x3c38cd27	0.011279381
196	0xbcc17879	-0.023617016
197	0x3caffd3f	0.021483062
198	0x3c9b7de5	0.01898093
199	0x3caa50ad	0.020790422
200	0xbce8dca8	-0.02842553
201	0x3d04f00f	0.0324555
202	0xbc4c57a3	-0.012472066
203	0x3c39f3b5	0.011349608
204	0x3d932fd3	0.07186856
205	0x3bd8747e	0.006605684
206	0x3c131184	0.008976344
207	0xbc96b4b6	-0.018396717
208	0x3d2337db	0.03984819
209	0x3cedbac8	0.029019728
210	0xbcde0b9b	-0.027105143
211	0x3d025bcd	0.03182583
212	0xbd639f3b	-0.055571776
213	0xbcd7d76c	-0.026347838
214	0xbd0d1a48	-0.034448892
215	0xbcb6ea1b	-0.022328427
216	0x3d67e17a	0.056611516
217	0x3d3e84c5	0.046513338
218	0x3ccef30a	0.025262374
219	0x3d14ad26	0.03629794
220	0xbaffbc56	-0.0019511085
221	0x3cc7894c	0.02435746
222	0x3c99d6d6	0.0187792
223	0xbc00ebf2	-0.007868754
224	0xbc90bb76	-0.017667513
225	0x3c38f28f	0.011288299
226	0x3bec4538	0.0072104
227	0xbb1cfbd6	-0.0023953817
228	0x3c1b598a	0.009481797
229	0xbb1b06f8	-0.0023655277
230	0x3bbfdbad	0.005855045
231	0xbc2c4c60	-0.010516256
232	0xbc425fe1	-0.01186368
233	0xbb9116a1	-0.0044277464
234	0x3b74add3	0.0037335053
235	0xbc955e4b	-0.018233439
236	0xbce6dfac	-0.028182827
237	0x3c6e6b5d	0.014551965
238	0xb948ce18	-0.00019150262
239	0xbcc61ef2	-0.024184678
240	0xbceee6b9	-0.029162752
241	0xbc1e372a	-0.009656707
242	0x3d26e908	0.04074958
243	0x3d5f7329	0.054553185
244	0xbb624d42	-0.0034530913
245	0x3c4e72e2	0.012600632
246	0x3d23f25c	0.040026054
247	0x3d6f444a	0.058414735
248	0xbc85c4e3	-0.016329234
249	0x3c8ab97d	0.01693415
250	0x3ad3e956	0.0016167562
251	0x3c67cf7b	0.014148588
252	0xbc51e273	-0.012810337
253	0x3d0d756b	0.034535807
254	0xbc7626a7	-0.015023864
255	0x3cd51e92	0.026015554

0.fc1.bias f4 [128]
0	0x3d0af94a	0.033929147
1	0x3cf240ee	0.029571977
2	0x3d6d8ead	0.057997394
3	0xbc573a74	-0.013136495
4	0xbb11c215	-0.0022240926
5	0x3ba6c6b1	0.005089604
6	0xbcd2c44e	-0.025728371
7	0x3c469920	0.012121469
8	0x3ce1d916	0.027569335
9	0xbc6f77ef	-0.014615997
10	0x3d5725b3	0.052526187
11	0x3d2a49b0	0.04157418
12	0x3c242cd0	0.01002045
13	0x3d053f72	0.03253121
14	0xbc751078	-0.01495754
15	0xbc07ad06	-0.008280998
16	0x3cf320aa	0.029678661
17	0x3cb82ac7	0.022481335
18	0x3c10d753	0.0088404
19	0xbadf8bd6	-0.0017055224
20	0xbce2dd1e	-0.027693328
21	0x3d2373dd	0.039905418
22	0xba1e0b18	-0.0006028875
23	0x3cd5925d	0.026070768
24	0xbd0d474a	-0.034491815
25	0x3cafcd13	0.021460092
26	0xbb717dc4	-0.0036848644
27	0xbbea5170	-0.0071508214
28	0xbd102a01	-0.035196308
29	0x3c7806d7	0.0151383495
30	0x3cbb048c	0.022829317
31	0xbc858999	-0.016300963
32	0x3a1e6346	0.00060420146
33	0x3c71a9d2	0.014749961
34	0xbc2b9e28	-0.010474719
35	0x3b530c00	0.0032203197
36	0xbb542bf4	-0.003237483
37	0x3cf94666	0.030429076
38	0x3bd3fffc	0.0064697247
39	0xbbcdc7ab	-0.006279906
40	0x3ccd50a4	0.025062867
41	0x3b68c562	0.003551804
42	0x3d206a40	0.039163828
43	0x3c786f6b	0.015163283
44	0x3d016d80	0.031598568
45	0xbcc87c15	-0.02447323
46	0xbb45c84f	-0.0030179208
47	0x3a205603	0.00061163324
48	0x3cded943	0.027203208
49	0x3cbed616	0.023295444
50	0xbbd735c2	-0.0065676877
51	0xbd000d25	-0.031262536
52	0x3d1fe619	0.039037798
53	0x3bfae364	0.0076565016
54	0x3babc3f5	0.0052418658
55	0x3d4c4738	0.049872607
56	0xbc1a5560	-0.009419769
57	0x3c4f803e	0.012664853
58	0x3cc71592	0.024302278
59	0x3cac8f0f	0.02106431
60	0xbd1c8607	-0.038213756
61	0x3cb6acff	0.022299288
62	0xbbb65dce	-0.0055653816
63	0x3c76c795	0.0150622325
64	0xbcbfd195	-0.023415366
65	0xbcfae165	-0.030625055
66	0xbd19bf2c	-0.03753583
67	0x3c95112e	0.018196668
68	0x3cccde8d	0.025008464
69	0x3c17b1e8	0.009258725
70	0xbbcca7b0	-0.006245576
71	0x3b81a749	0.0039567095
72	0x3af3d2da	0.0018602267
73	0x3cd60bcf	0.026128678
74	0xbb9ebf54	-0.0048445854
75	0xbc8a801a	-0.016906787
76	0xbccf8ff4	-0.025337197
77	0x3d7edb04	0.06222059
78	0x3ce2bece	0.027678873
79	0x3d0860e5	0.03329553
80	0xbcafc875	-0.02145789
81	0xbbc4224b	-0.0059855334
82	0xbad341ad	-0.0016117595
83	0xbac84e94	-0.0015282207
84	0x3cd02426	0.025407862
85	0x3d3e68da	0.046486713
86	0x3ccbe7c2	0.024890784
87	0x3d4a0080	0.049316883
88	0x3b6bfafa	0.0036007748
89	0x3ca7be04	0.020476349
90	0x3be13249	0.0068724495
91	0xbc66cce7	-0.014086938
92	0xbcde8e62	-0.027167503
93	0x3cb14eea	0.021644074
94	0x3d545ea0	0.051848054
95	0x3d297e6e	0.04138034
96	0xbd018d81	-0.03162909
97	0x3c8cba25	0.017178604
98	0x3b2b884c	0.0026173769
99	0x3c5b6404	0.013390545
100	0x3c590caa	0.013247648
101	0x3cdbca66	0.02682991
102	0xbcbbdf53	-0.022933638
103	0x3cd3efc1	0.02587116
104	0x3ceb174a	0.028697629
105	0x3c977a8c	0.018491052
106	0x3cda3ca8	0.026640251
107	0xbcba3fac	-0.02273544
108	0x3d31ad11	0.04337794
109	0xbbd4ca6d	-0.0064938576
110	0xbc8ce6b4	-0.017199852
111	0x3c4cf305	0.012509112
112	0x3b2e59f7	0.0026603916
113	0xbc25bee3	-0.010116312
114	0x3ced542a	0.028970797
115	0xbc6f137f	-0.014592051
116	0x3ce5c7f6	0.02804945
117	0xbbaa0d35	-0.0051895627
118	0x3b953b43	0.0045541837
119	0x3bd51b0c	0.0065034684
120	0xbc35125e	-0.011051742
121	0xbadbdd29	-0.0016774285
122	0x3cc9a6bd	0.02461564
123	0xbcb8d8f4	-0.022564389
124	0xbc54c5d4	-0.012986619
125	0xbd0b707e	-0.034042828
126	0x3d41cef0	0.04731649
127	0x3ca1e45c	0.01976221

0.fc2.weight f4 [84, 128]
0	0xbc9af094	-0.018913545
1	0xbd8bbd7b	-0.0682325
2	0xbcea72ea	-0.028619248
3	0xbd4841cb	-0.04889087
4	0xbd4fbc49	-0.050716672
5	0xbd12ba6b	-0.035822313
6	0xbd895e55	-0.067074455
7	0xbd145f64	-0.036223784
8	0xbd5fc9e7	-0.05463591
9	0x3d3b9e3e	0.04580521
10	0x3d872421	0.06598688
11	0xbcc9bdf8	-0.024626717
12	0xbd6c6882	-0.057716854
13	0x3d8f8603	0.070079826
14	0x3ccd75fc	0.025080673
15	0x3d961d13	0.07329764
16	0x3d6f32c2	0.058398016
17	0x3d234f16	0.039870344
18	0x3d33afa2	0.04386867
19	0xbd3e26cd	-0.046423722
20	0xbc729918	-0.014807008
21	0xbd1dd045	-0.0385287
22	0x3da19dc5	0.0789142
23	0xbd99b52d	-0.0750526
24	0x3d3ad5d6	0.045614086
25	0xbd261704	-0.040549293
26	0xbdb04e32	-0.086086646
27	0xbc597970	-0.013273582
28	0xbd427835	-0.04747792
29	0xbc424b40	-0.011858761
30	0x3d953323	0.07285144
31	0xbd3900f3	-0.04516692
32	0xbc4929a0	-0.012277991
33	0x3cda4800	0.02664566
34	0xbda30e98	-0.07961768
35	0x3d887bd9	0.06664247
36	0xbcb2357c	-0.021754019
37	0x3d8e88a5	0.069596566
38	0x3d2bb7f6	0.041923486
39	0xbd3e2fdf	-0.046432372
40	0x3da9bfcb	0.08288535
41	0x3d30be3e	0.04315018
42	0xbd21ece8	-0.039532572
43	0x3d9b9c91	0.07598222
44	0xbd332059	-0.04373202
45	0xbd9875cf	-0.07444345
46	0x3cbf8098	0.023376748
47	0x3da32113	0.07965293
48	0xbcc57fd4	-0.024108805
49	0xbaa03a40	-0.0012224391
50	0xbc5cf568	-0.013486244
51	0xbcfd36cc	-0.030909918
52	0x3c9b86e4	0.01898522
53	0x3d3bab4e	0.045817666
54	0x3d8a1c67	0.067436986
55	0x3d7a14ea	0.0610551
56	0x3d08efa8	0.03343168
57	0x3d5eb9f2	0.05437655
58	0x3dadc97f	0.08485698
59	0x3da46953	0.080279015
60	0xbd90ac8e	-0.07064162
61	0xbd1132fb	-0.03544901
62	0x3d8cdb1b	0.068777286
63	0x3dabfb3d	0.08397529
64	0xbd5bc98f	-0.053659018
65	0xbd9d26bf	-0.07673406
66	0xbd8d8f81	-0.06912137
67	0x3a8277c0	0.0009953901
68	0xbdb45de1	-0.088069685
69	0xbcf82066	-0.030288886
70	0x3d2179e6	0.039422892
71	0x3cef2778	0.029193625
72	0xbc98eecc	-0.018668555
73	0x3c4c38c8	0.01246471
74	0xbd96d617	-0.07365053
75	0x3cb35fdc	0.021896295
76	0xbd0adecc	-0.033903882
77	0xbd345f3b	-0.04403613
78	0x3ce885ec	0.028384171
79	0x3d46ff56	0.04858335
80	0xbd836ece	-0.06417619
81	0x3dae9c89	0.085259505
82	0x3c60e558	0.013726555
83	0x3ac15440	0.001474984
84	0x3da338db	0.07969829
85	0xbd810d52	-0.06301369
86	0x3da0d2db	0.078527175
87	0x3d477c6e	0.04870265
88	0x3d9ecc21	0.07753778
89	0x3cec0e3c	0.028815381
90	0xbd039d8f	-0.03213268
91	0xbcf2867e	-0.029605146
92	0x3d8a5c43	0.06755879
93	0x3d289f0e	0.04116731
94	0x3d54fc8a	0.051998653
95	0x3d5d5c8e	0.054043345
96	0x3d04fba4	0.032466546
97	0xbd21a704	-0.03946592
98	0x3d609876	0.054832898
99	0x3d037834	0.032097057
100	0xbcc225f4	-0.023699738
101	0x3d233ae6	0.03985109
102	0xbda12e1c	-0.07870123
103	0x3d8cfd21	0.06884218
104	0xbc21d248	-0.009876795
105	0x3db46df5	0.08810035
106	0x3cf50794	0.02991084
107	0x3d3ca1aa	0.046052612
108	0x3da8afed	0.0823668
109	0xbc75bcc8	-0.014998622
110	0xbd9593ec	-0.073036045
111	0x3cd3d5b4	0.025858738
112	0xbc694d40	-0.014239609
113	0x3c621f40	0.013801396
114	0xbd746036	-0.059662066
115	0xbd55255d	-0.052037586
116	0x3d37e672	0.044897504
117	0xbd1ebcf9	-0.038754437
118	0x3d9d4c0f	0.07680523
119	0xbd452dc4	-0.04813935
120	0xbcc97fec	-0.02459713
121	0xbdaa7b0e	-0.08324252
122	0x3d9e89fb	0.077411614
123	0xbd1ddc03	-0.038539898
124	0xbdb04238	-0.0860638
125	0x3d18b4fa	0.037281968
126	0x3b2882e0	0.0025712773
127	0x3d8c4a41	0.068501
128	0x3d8840ed	0.066530086
129	0xbd19cf1e	-0.037551038
130	0xbd59859c	-0.053105935
131	0xbdb0447a	-0.08606811
132	0xbce6219e	-0.028092202
133	0x3d80053d	0.06250999
134	0x3dae2e4b	0.085049234
135	0xbd200414	-0.03906639
136	0x3c9c860c	0.019106887
137	0xbd6ea483	-0.05826236
138	0xbc49a7a0	-0.012308031
139	0x3d28e6d2	0.041235752
140	0xbd95740a	-0.07297523
141	0x3da0db89	0.07854373
142	0xbdabaac3	-0.083821796
143	0xbd3ad93e	-0.045617335
144	0xbc028698	-0.00796666
145	0x3d168946	0.036752008
146	0x3c08d1c0	0.00835079
147	0x3c41cbf0	0.011828408
148	0xbaae99c0	-0.0013320968
149	0xbd1b8354	-0.03796704
150	0x3d4cebda	0.050029613
151	0xb9b60200	-0.00034715235
152	0x3c903918	0.01760535
153	0xbb3aaa80	-0.0028482974
154	0x3d7d8542	0.061894663
155	0xbc4cfe28	-0.012511767
156	0x3d1d38ea	0.038384356
157	0x3daf5e69	0.08562929
158	0x3a0c9c80	0.00053638965
159	0x3c91fab4	0.01781974
160	0x3dac32ed	0.08408151
161	0xbba581c0	-0.005050868
162	0x3ce9d7dc	0.028545313
163	0x3d23dd76	0.040006123
164	0x3d18fd3a	0.03735087
165	0x3d8483b9	0.064704366
166	0xbc591f78	-0.013252132
167	0xbcd45384	-0.02591873
168	0x3b4224a0	0.002962388
169	0xba105380	-0.00055056065
170	0x3cafa300	0.02144003
171	0x3cf9590c	0.030437969
172	0x3d839a43	0.064259075
173	0xbb9e0410	-0.0048222616
174	0x3d65427e	0.055971615
175	0xbc573228	-0.013134517
176	0xbd9a54a4	-0.07535675
177	0xbd2b0d77	-0.041760888
178	0xbb859d60	-0.0040775985
179	0x3d63e056	0.055633865
180	0xbc5a4b68	-0.013323642
181	0xbd25e43f	-0.040500876
182	0xbbded400	-0.0068001747
183	0xbd7311ba	-0.059343077
184	0xbda109e0	-0.07863212
185	0x3d8c60c7	0.06854396
186	0x3d2f29b6	0.042764388
187	0x3da7c29f	0.08191418
188	0x3d94c511	0.0726415
189	0x3d83d4fd	0.06437109
190	0xbd874386	-0.06604676
191	0xbdaa4425	-0.08313779
192	0x3c0d0888	0.008607991
193	0x3d0c321a	0.034227468
194	0x3d7fde2a	0.06246773
195	0xbcc90dec	-0.024542771
196	0xbd67cf4b	-0.056594174
197	0x3d26db4a	0.040736474
198	0xbd172d12	-0.036908217
199	0x3d94da6f	0.072682254
200	0x3cfa3878	0.030544505
201	0xbc013f38	-0.007888608
202	0x3d983cf1	0.07433499
203	0xbd2f0955	-0.04273351
204	0x3c1535d0	0.009107068
205	0xbda7070d	-0.08155642
206	0x3d87df71	0.06634415
207	0x3d983ea5	0.074338235
208	0x3ca54f90	0.02017954
209	0x3d76458e	0.060124926
210	0x3ce2a6b4	0.02766738
211	0x3d4da7ee	0.05020898
212	0xbd91ba82	-0.07115652
213	0x3c9c7a1c	0.019101195
214	0x3c88351c	0.016626887
215	0x3cad5ae0	0.021161497
216	0x3bea3050	0.0071468726
217	0xbd905666	-0.07047729
218	0xbd7272c2	-0.059191473
219	0xbd419386	-0.04725983
220	0x3cff658c	0.031176351
221	0x3dad431d	0.084600665
222	0x3d2be142	0.04196287
223	0x3d6eb402	0.058277138
224	0xbb05dd60	-0.002042614
225	0x3cb3d008	0.021949783
226	0x3a6b5c00	0.00089782476
227	0x3d71f39e	0.059070222
228	0xbd33efcc	-0.04392986
229	0x3d34db06	0.04415419
230	0xbbd6a490	-0.006550379
231	0xbd474c68	-0.04865685
232	0x3cd93638	0.026515111
233	0xbc5320d8	-0.0128862485
234	0xbc541298	-0.012943886
235	0xbd80db40	-0.062918186
236	0x3d880f2d	0.066435196
237	0xbd9d6e4d	-0.07687054
238	0x3d379336	0.044818126
239	0xbcf8ee02	-0.030386928
240	0xbd810a1f	-0.063007586
241	0x3d2701f2	0.04077334
242	0xbd751176	-0.059831105
243	0x3d5655c2	0.05232788
244	0xbd64aa17	-0.055826273
245	0xbc952034	-0.018203832
246	0xbd55354c	-0.05205278
247	0xbd8056ec	-0.06266579
248	0xbdaecd4a	-0.085352495
249	0x3d936241	0.07196475
250	0xbc33e028	-0.010978736
251	0x3cfe4ac0	0.031041503
252	0xbcd93fc2	-0.02651966
253	0x3d0191a6	0.03163304
254	0x3d3029a6	0.04300847
255	0xbd90ce00	-0.070705414

0.fc2.bias f4 [84]
0	0xbd3310e4	-0.04371728
1	0x3cf2f0e8	0.029655889
2	0x3ce4de00	0.02793789
3	0x3d0b4d10	0.03400904
4	0xbc9d697c	-0.019215338
5	0x3d7ca44e	0.06168013
6	0x3d84513f	0.06460809
7	0xbd9114ca	-0.07084043
8	0x3d31ef16	0.0434409
9	0x3d5648ee	0.052315645
10	0x3da97049	0.0827337
11	0xbd944dd2	-0.072414055
12	0x3d8d5301	0.06900597
13	0xbd99dc6a	-0.07512744
14	0xbc2502d0	-0.010071471
15	0xbb8febe0	-0.004392132
16	0x3daf7df7	0.08568948
17	0x3d51c0a6	0.051209114
18	0x3daa42c1	0.083135135
19	0x3c171540	0.009221375
20	0x3d243c1a	0.04009638
21	0xbc326298	-0.010887764
22	0x3d038d7c	0.032117352
23	0xbcf82826	-0.030292582
24	0x3cb547d0	0.02212897
25	0x3dae4093	0.0850841
26	0xbc943824	-0.018093176
27	0xbcfb7ecc	-0.03070011
28	0x3d8d217b	0.068911515
29	0x3d973459	0.073830314
30	0x3da6e389	0.08148868
31	0x3daac49d	0.08338282
32	0xbb1b0f80	-0.0023660362
33	0x3d6c9a92	0.057764597
34	0x3db0ad87	0.08626848
35	0xbd7337b4	-0.059379295
36	0x3d261946	0.040551446
37	0x3da5b899	0.0809185
38	0xbd0e14b3	-0.03468771
39	0x3d943177	0.07235997
40	0xbd2d2333	-0.042269897
41	0x3c319e50	0.010840967
42	0x3d15463c	0.036443934
43	0x3a32a180	0.00068142265
44	0x3d0dfee0	0.034666896
45	0x3cd1636c	0.025560103
46	0x3be6d200	0.007044077
47	0xbd125d69	-0.035733614
48	0x3c8bf354	0.017083801
49	0xbb9ccd50	-0.0047852173
50	0x3d7f433e	0.062319987
51	0x3c37bcc0	0.011214435
52	0xbd80f4f3	-0.0629672
53	0x3d5f713e	0.054551356
54	0xbcbf81ac	-0.023377262
55	0xbcd77418	-0.026300475
56	0xbd6bbf4f	-0.057555493
57	0xbd0fa81d	-0.035072435
58	0x3dade2cb	0.08490523
59	0x3da140ef	0.07873713
60	0xbd90c30c	-0.07068452
61	0xbcc74560	-0.024325073
62	0x3d62cb6a	0.055369772
63	0xbd060d79	-0.032727692
64	0xbc8f79c0	-0.01751411
65	0x3d493af6	0.049128495
66	0xbd44f7b8	-0.048087806
67	0xbd24c85b	-0.040230136
68	0xbd951722	-0.07279803
69	0xbd961000	-0.073272705
70	0x3c0c4760	0.008561939
71	0xbdb04960	-0.08607745
72	0x3d3b453a	0.045720316
73	0xbd8d0fbc	-0.06887767
74	0x3c2c85e0	0.010529965
75	0xbdb23512	-0.087015286
76	0xbd7cf054	-0.061752632
77	0xbd77fa04	-0.060541168
78	0x3bbce6c0	0.005764812
79	0x3a9e6400	0.0012084246
80	0xbd039e6c	-0.032133505
81	0x3d1918c6	0.03737714
82	0x3d501c0a	0.05080799
83	0xbd817ed0	-0.06323016

0.fc3.weight f4 [10, 84]
0	0xbdd9c14c	-0.106325716
1	0xbc88ef7c	-0.016715758
2	0x3dbc21f5	0.09186164
3	0x3d243f6e	0.040099554
4	0xbc5c0fb0	-0.013431475
5	0xbdcdcb02	-0.10048486
6	0xbd7b8320	-0.061404347
7	0x3ddc0c67	0.10744553
8	0xbdc83397	-0.09775465
9	0xbd3c2d82	-0.045941837
10	0xbd63e402	-0.055637367
11	0x3d9cff5d	0.07665894
12	0xbdd40231	-0.103519805
13	0xbd8dc6e0	-0.06922698
14	0xbd90d03a	-0.07070966
15	0xbd8eb9be	-0.06969021
16	0x3d71565e	0.058920257
17	0x3dd860bb	0.10565325
18	0xbd90a65a	-0.07062979
19	0xbcad1ce4	-0.02113194
20	0xbd5b5844	-0.053550974
21	0xbdde4203	-0.108524345
22	0xbd0f45ae	-0.03497856
23	0xbda4f88e	-0.080552205
24	0xbdb0fc1e	-0.086418375
25	0xbc966564	-0.018358894
26	0xbd6c695b	-0.057717662
27	0x38876800	6.456673e-05
28	0xbd757fb2	-0.059936233
29	0xbdaede06	-0.08538441
30	0xba13ff00	-0.0005645603
31	0x3d74daca	0.059778966
32	0xbce1713c	-0.027519815
33	0x3dcdbdd1	0.1004597
34	0xbd7964fa	-0.060887314
35	0x3d025e52	0.031828232
36	0x3bb96cc0	0.005658716
37	0x3cd1145c	0.025522403
38	0x3dbde6b7	0.09272521
39	0xbd22827a	-0.039675213
40	0xbdc37438	-0.09543651
41	0x3d8135a9	0.06309063
42	0x3cd61964	0.026135154
43	0xbd24265c	-0.040075645
44	0x3bff98e0	0.0078002065
45	0xbc57b390	-0.01316537
46	0xbdd962bb	-0.106145345
47	0x3c8088d4	0.015690245
48	0x3da08453	0.07837739
49	0x3dbfd673	0.09367075
50	0x3bf8f720	0.007597819
51	0x3dc81d61	0.097712286
52	0x3d96fdff	0.07372665
53	0xbc9004d8	-0.017580435
54	0xbd31ba84	-0.043390766
55	0xbdcfd0f1	-0.10147274
56	0x3d11bcea	0.035580553
57	0xbc4c9300	-0.012486219
58	0xbd95f51e	-0.07322143
59	0x3c9fa3dc	0.019487314
60	0x3d1c4fb2	0.03816194
61	0xbd94bf0e	-0.07263003
62	0x3b9d7730	0.004805468
63	0xbccb180c	-0.02479174
64	0x3dd64089	0.10461528
65	0xbc9552dc	-0.018227987
66	0x3d37d17e	0.04487752
67	0x3db7bc27	0.08971434
68	0x3cd2d14c	0.025734566
69	0x3ca388bc	0.019962661
70	0xbc8dfd98	-0.017332837
71	0x3d2faf92	0.042892046
72	0xbcee28b8	-0.02907215
73	0x3cc4a81c	0.024005942
74	0x3cbafd34	0.022825815
75	0xbdc10690	-0.0942508
76	0x3c9520ac	0.018204056
77	0xbd88b4ab	-0.06675085
78	0x3dce67b1	0.10078371
79	0xbda23b8b	-0.07921513
80	0xbd662258	-0.056185097
81	0xbcd1b0b4	-0.025596954
82	0x3dcb9a93	0.09941592
83	0xbd050a5c	-0.032480583
84	0x3d9b070f	0.07569706
85	0xbdd73961	-0.10508991
86	0xbd0378a6	-0.03209748
87	0xbdc9f2c7	-0.09860759
88	0xbd94c17a	-0.07263465
89	0xbc936034	-0.01799021
90	0x3d8e66c1	0.069531925
91	0xbcea6588	-0.028612867
92	0x3c2848e8	0.010271288
93	0xbd00afbe	-0.0314176
94	0x3db9d201	0.09073258
95	0xbda8a094	-0.08233753
96	0x3d039fa2	0.03213466
97	0x3d1efc9e	0.038815133
98	0xbdd29dac	-0.1028398
99	0xbd1b83c8	-0.037967473
100	0xbd90a26a	-0.07062228
101	0x3d2ed1be	0.042680494
102	0x3d8dbbd1	0.06920589
103	0xbc86afc4	-0.016441233
104	0x3d458672	0.04822392
105	0x3dd3554f	0.10319006
106	0x3ca05914	0.019573726
107	0x3dae8fa7	0.08523493
108	0x3da6a7c7	0.0813747
109	0x3db39251	0.08768142
110	0xbd7142de	-0.05890166
111	0xbd880e7b	-0.06643387
112	0x3d78e52a	0.060765423
113	0x3d65424e	0.055971436
114	0x3dc11303	0.09427454
115	0xbccb32f8	-0.024804577
116	0xbd3601fa	-0.04443548
117	0x3d733602	0.059377678
118	0xbdc4156f	-0.09574401
119	0x3d0e04ca	0.034672536
120	0x3d040366	0.032229804
121	0x3d41da6a	0.047327437
122	0xbba40610	-0.0050056055
123	0x3d1c39ee	0.038141184
124	0x3d7bdb12	0.06148822
125	0xbc9a8e58	-0.018866703
126	0x3dbf823d	0.09351013
127	0xbcedfa44	-0.02905
128	0x3d6e81da	0.058229305
129	0xbdc40bd0	-0.095725656
130	0xbdc4f11a	-0.09616299
131	0xbd3bebd4	-0.0458792
132	0x3bf5dcb0	0.0075031146
133	0x3d90c333	0.07068481
134	0xbc27fe98	-0.010253571
135	0x3b9f2040	0.0048561394
136	0x3dad1905	0.08452038
137	0x3d89d545	0.06730131
138	0x3ca98c3c	0.020696752
139	0x3dc6dcb1	0.09710062
140	0xbda2d5fb	-0.0795097
141	0xbc664860	-0.0140553415
142	0x3dbc946b	0.09207996
143	0xbd4fd13c	-0.05073665
144	0x3d3fc85e	0.046821944
145	0xbce0ccdc	-0.027441435
146	0xbd82fe56	-0.06396167
147	0xbd54cf06	-0.051955245
148	0x3d2734fa	0.040822007
149	0xbda9a5c2	-0.08283569
150	0xbda9ac5e	-0.082848296
151	0xbc89c2bc	-0.01681649
152	0xbcc24fa4	-0.023719616
153	0x3da0b59b	0.078471385
154	0x3bb6cb00	0.0055783987
155	0x3dad4ed7	0.08462303
156	0xbd09342a	-0.033497013
157	0x3dc9fde7	0.09862881
158	0xbdc86392	-0.097846165
159	0x3d894057	0.06701725
160	0x3d16694e	0.03672152
161	0xbd98287d	-0.074295975
162	0xbcb316ac	-0.021861397
163	0xbda8eded	-0.08248506
164	0x3d19699a	0.037454225
165	0xbdc390a9	-0.09549076
166	0xbd81280c	-0.063064665
167	0xbdd1d538	-0.102457464
168	0x3d86982f	0.065719955
169	0x3da23885	0.079209365
170	0x3dcfb8b1	0.10142649
171	0x3d1fbcf2	0.03899855
172	0x3d8cd603	0.06876757
173	0xbc92bb18	-0.017911479
174	0x3ae48300	0.001743406
175	0x3d008ed2	0.031386204
176	0xbd015a4a	-0.031580247
177	0x3cb5c75c	0.022189789
178	0xbc3e0958	-0.011598907
179	0x3ddbadb7	0.10726493
180	0x3da53dbd	0.08068416
181	0x3d0cbc4a	0.034359254
182	0x3dcbbb03	0.09947779
183	0x3c8e067c	0.017337076
184	0xbd8fcd37	-0.070215635
185	0x3d95f4cf	0.07322084
186	0xbdd106a8	-0.10206348
187	0xbc7cf5f8	-0.015439503
188	0x3d98302b	0.07431062
189	0x3c0fd8b8	0.008779697
190	0xbd2819da	-0.04104028
191	0xbdaf0b32	-0.08547057
192	0x3b2a5de0	0.0025995895
193	0xbd22181c	-0.039573774
194	0xbca727d0	-0.020404726
195	0x3d8da3a3	0.06915977
196	0x3c742160	0.014900535
197	0xbd90ad74	-0.070643336
198	0xbd9e10aa	-0.07718022
199	0xbd96962d	-0.073528625
200	0x3ca56c3c	0.020193212
201	0xbc5a0238	-0.013306193
202	0xbd71fb1c	-0.059077367
203	0xbdb7078e	-0.08936988
204	0xbdcc77e6	-0.09983806
205	0xbd9ae384	-0.075629264
206	0xbdd5be4b	-0.10436686
207	0x3d6512de	0.055926196
208	0xbdac3b54	-0.084097534
209	0xbdd3d6a0	-0.10343671
210	0xbd19e676	-0.0375733
211	0x3c8609c4	0.016362078
212	0x3d84cc89	0.064843245
213	0xbda5b945	-0.08091978
214	0xbd0314cc	-0.032002255
215	0xbdab8881	-0.083756454
216	0x3beff860	0.00732331
217	0xbc4c41a8	-0.012466826
218	0xbd914bbb	-0.070945226
219	0x3dd72f33	0.105070494
220	0x3bdb5320	0.006693259
221	0xbda02260	-0.078190565
222	0x3d7e4682	0.06207896
223	0xbdd14084	-0.102173835
224	0xbcd8c5d8	-0.026461527
225	0xbd57c55c	-0.05267845
226	0x3d85fc63	0.065422796
227	0x3c8735d4	0.01650516
228	0x3d873e7f	0.06603717
229	0x3d80d4e7	0.06290608
230	0xbdae50bc	-0.085114926
231	0x3d437d72	0.047727056
232	0xbcd44608	-0.0259123
233	0xbd69989f	-0.057030316
234	0xbcfb4118	-0.030670688
235	0xbd690d55	-0.05689748
236	0xbddf2b18	-0.10896891
237	0xbdd33ee7	-0.10314732
238	0x3da7e555	0.081980385
239	0xbceed430	-0.029153913
240	0xbdbce4be	-0.092233166
241	0xbb4c7b00	-0.0031201243
242	0xbdabb70e	-0.08384524
243	0x3d05209a	0.032501794
244	0xbdcf026f	-0.10107886
245	0x3dd7a76f	0.10529982
246	0xbcc4f3c4	-0.024042018
247	0xbc10c260	-0.008835405
248	0xbda26969	-0.07930262
249	0xbda97942	-0.08275081
250	0x3cf66644	0.03007806
251	0x3db41597	0.087931804
252	0xbd47ad64	-0.048749343
253	0x3d4cdda2	0.050016053
254	0xbd3cc2ec	-0.04608433
255	0xbcdba0b8	-0.026810035

0.fc3.bias f4 [10]
0	0xbc28bd10	-0.010298982
1	0x3db9fd79	0.09081549
2	0xbcd7705c	-0.026298694
3	0x3d97b2e3	0.07407167
4	0x3c803d70	0.015654296
5	0x3c176f58	0.009242855
6	0xbb039620	-0.0020078495
7	0x3dd6bf6d	0.1048573
8	0xbd1baee4	-0.038008586
9	0x3d3c5392	0.045978136

1.fc2.weight f4 [84, 128]
0	0x3de3212a	0.1109031
1	0xbdf4ddf1	-0.119563945
2	0x3c999455	0.018747488
3	0x3b880822	0.00415136
4	0xbd600f53	-0.054702114
5	0xbc381132	-0.011234568
6	0xbc9891e7	-0.01862426
7	0x3e1cb995	0.15305169
8	0x3d05cb3d	0.032664526
9	0xbd50884c	-0.050911233
10	0xbcfd00e4	-0.030884214
11	0xbd8efe83	-0.06982138
12	0xbda48ee6	-0.08035068
13	0x3cb3358b	0.021876117
14	0xbda5414c	-0.08069095
15	0x3c242da7	0.01002065
16	0xbd0704fa	-0.03296373
17	0xbd824bd6	-0.06362121
18	0x3d3f833e	0.04675602
19	0x3ce9d5dd	0.02854436
20	0x3d7338cf	0.05938035
21	0x3d879827	0.06620818
22	0xbcd5044d	-0.026003027
23	0xbaba07b8	-0.0014192974
24	0xbdf236c4	-0.11826852
25	0x3d13bed5	0.036070663
26	0xbdddff67	-0.1083973
27	0xbd911618	-0.07084292
28	0xbce3d5ae	-0.027811851
29	0xbd47137b	-0.048602562
30	0x3da784ce	0.08179627
31	0x3c7000b6	0.014648607
32	0x3ccc6e18	0.02495484
33	0x3d9d243e	0.07672928
34	0xbdc04c1a	-0.09389515
35	0xbd3e4085	-0.04644825
36	0xbd963ff7	-0.07336419
37	0xbc5c2f64	-0.013439033
38	0x3d3060ad	0.043060947
39	0x3c97be9a	0.018523503
40	0x3c479f91	0.01218404
41	0x3d83d0ae	0.06436287
42	0xbcb267a8	-0.021777943
43	0xbd87bcb3	-0.066277884
44	0x3d82d6c1	0.06388617
45	0xbc4654d1	-0.012105183
46	0xbdb419ba	-0.087939695
47	0xbd817624	-0.06321362
48	0x3d8b71f3	0.068088435
49	0x3c32c2f4	0.010910738
50	0x3ceb0f9b	0.028693965
51	0x3d14f998	0.036370844
52	0xbd53e76d	-0.051734377
53	0xbdd1e39b	-0.102484904
54	0xbda6ee20	-0.081508875
55	0x3d848209	0.06470115
56	0xbc7146f8	-0.014726393
57	0x3d9629ef	0.07332217
58	0xbdcefc0d	-0.101066686
59	0x3d533652	0.051565476
60	0xbcaa0b1d	-0.020757252
61	0x3c78cd67	0.0151856905
62	0xbccdea6e	-0.025136199
63	0x3c42b549	0.011884042
64	0xba6457b4	-0.00087105785
65	0x3da8555c	0.08219406
66	0xbda3551b	-0.07975217
67	0x3d427445	0.047474165
68	0xbd7d4bc7	-0.061839845
69	0xbd90fce3	-0.07079484
70	0x3e062948	0.13101685
71	0xbde43128	-0.11142188
72	0x3db1f339	0.08688969
73	0x3c8134e8	0.015772298
74	0x3d531261	0.0515312
75	0x3da606d0	0.08106768
76	0xbd90fcbe	-0.07079457
77	0x3e24db46	0.16099271
78	0xbd4f3644	-0.05058886
79	0x3dc1e88d	0.09468184
80	0xbd11a678	-0.035559148
81	0xbc911668	-0.01771088
82	0x3d1fa9ca	0.038980283
83	0xbb871586	-0.004122439
84	0xbd77e280	-0.06051874
85	0x3cd21651	0.025645407
86	0x3d2e898b	0.04261164
87	0x3bdb90d1	0.006700613
88	0x3ded6162	0.1159084
89	0x3dd8776b	0.10569652
90	0x3dc46aa7	0.09590655
91	0x3d26dac7	0.040735986
92	0xbd792a81	-0.06083155
93	0xbd9c435b	-0.076300345
94	0x3d992520	0.07477784
95	0x3c9c22eb	0.019059619
96	0x3d68fee6	0.056883715
97	0xbdd9c9e2	-0.10634209
98	0x3b640642	0.003479377
99	0xbdbb223d	-0.0913739
100	0xbddb9830	-0.10722387
101	0x3c8d41c1	0.017243268
102	0xbd4933dc	-0.049121723
103	0x3d93b1bf	0.07211637
104	0xbd498766	-0.04920139
105	0xbde8d7bd	-0.11369274
106	0x3c554fc0	0.013019502
107	0xbd8714d5	-0.0659577
108	0x3d0403ce	0.03223019
109	0x3e242049	0.16027941
110	0xbd139573	-0.036031198
111	0xbd9f473c	-0.07777259
112	0x3d379089	0.044815574
113	0xbd8d378b	-0.068953596
114	0x3d5f60c5	0.054535646
115	0xbd0d429f	-0.034487363
116	0xbd707712	-0.058707304
117	0x3d15b339	0.036547873
118	0xbb52444f	-0.0032084172
119	0xbd643416	-0.055713736
120	0x3d33c871	0.043892328
121	0xbd468151	-0.04846317
122	0xbd73f161	-0.05955637
123	0xbcf8edc0	-0.030386806
124	0xbb514a3a	-0.0031935112
125	0xbd8dde2b	-0.06927141
126	0xbd21a435	-0.03946324
127	0x3ce26ef5	0.027640799
128	0x3d788b41	0.060679678
129	0x3d04b768	0.032401472
130	0x3d77dc71	0.060512964
131	0x3d63bf7a	0.05560253
132	0xbd8106ad	-0.063001014
133	0x3db1337b	0.08652397
134	0xbdc8c13b	-0.09802481
135	0xbd920631	-0.07130087
136	0x3dad80be	0.08471821
137	0x3d9e5488	0.07730967
138	0xbd0d3b0b	-0.034480136
139	0xbcea2823	-0.028583592
140	0x3b26b415	0.0025436927
141	0x3bae412d	0.005317828
142	0xbcaf7ab8	-0.021420822
143	0x3d1b94a1	0.03798354
144	0x3ad4a0ea	0.0016222273
145	0xbc398577	-0.011323324
146	0x3d83211e	0.06402801
147	0xbdf8662b	-0.12128862
148	0xbd96ae14	-0.073574215
149	0xbb84fd17	-0.004058491
150	0xbd364be2	-0.04450596
151	0x3db9eb72	0.09078111
152	0x3d5061e6	0.050874613
153	0x3dc3ce4c	0.095608324
154	0x3da5cbd2	0.08095516
155	0x3dc65373	0.096838854
156	0x3da8aae0	0.08235717
157	0x3cd8cf3b	0.026466003
158	0xbc0e3275	-0.008679022
159	0xbd150170	-0.036378324
160	0x3cf0b136	0.029381376
161	0xbd7bf37c	-0.0615115
162	0xbdaecfca	-0.08535726
163	0x3cfae199	0.030625151
164	0x3da5a84d	0.080887415
165	0x3d92c233	0.07165947
166	0x3d102c27	0.035198357
167	0x3d653412	0.05595786
168	0xbd90c54f	-0.07068884
169	0x3c7ce9f1	0.015436635
170	0xbc45174b	-0.012029479
171	0x3ceb75a1	0.028742613
172	0x3b810af0	0.0039380714
173	0xbd38efcd	-0.045150567
174	0xbcb5649b	-0.022142699
175	0x3d952aa9	0.072835274
176	0x3da597d6	0.08085601
177	0xbd6f1e2c	-0.058378384
178	0x3cc52bab	0.024068674
179	0x3d5576a5	0.0521151
180	0x3dbf1d0e	0.093317136
181	0x3dabd32a	0.08389886
182	0x3d733e23	0.05938543
183	0x3cd7c41f	0.026338635
184	0x3d336bf5	0.043804128
185	0xbc689a0a	-0.014196882
186	0x3c2ead78	0.010661475
187	0xbab21f52	-0.0013589656
188	0x3d9b2072	0.07574548
189	0x3dfa7d89	0.12230975
190	0xbdda83a1	-0.106696375
191	0xbdbd2c1d	-0.092369296
192	0x3c3b57fd	0.011434552
193	0x3d02284c	0.03177671
194	0x3d6c6ae3	0.057719123
195	0xbd313f72	-0.043273397
196	0x3d18384e	0.03716307
197	0xbd5af762	-0.05345858
198	0xbd2b3223	-0.04179586
199	0xba328721	-0.0006810297
200	0x3d5bb150	0.053635895
201	0xbbfb4956	-0.0076686544
202	0xbd79ecde	-0.06101691
203	0x3c325c05	0.010886197
204	0x3c9ffd81	0.01953006
205	0xbd9d8747	-0.07691818
206	0xbd4c99eb	-0.049951475
207	0xbafea187	-0.0019426801
208	0xbd92a182	-0.071597114
209	0x3cf47e04	0.029845245
210	0x3d27451d	0.040837396
211	0xbcff0379	-0.031129586
212	0xbb31a84f	-0.0027108376
213	0x3c8120f4	0.015762784
214	0x3cf260db	0.0295872
215	0xbd9cd1f4	-0.07657233
216	0xbd1d6e44	-0.038435236
217	0xbca116a5	-0.019664118
218	0xbce5a6f2	-0.028033707
219	0xbd918fb9	-0.07107491
220	0xbd1f3603	-0.03886987
221	0xbd224637	-0.039617743
222	0x3db4ac93	0.088219784
223	0xbd980c25	-0.074241914
224	0xbd9bf636	-0.076153204
225	0x3d5cafa2	0.053878434
226	0x3d224cf4	0.03962417
227	0xbd7dfe88	-0.062010318
228	0xbd87a3aa	-0.06623013
229	0x3da37f61	0.0798328
230	0x3d3d6d15	0.046246607
231	0xbd35cca4	-0.044384614
232	0xbd865868	-0.06559831
233	0x3dc2d4b8	0.09513229
234	0x3b0c86a8	0.0021442566
235	0xbd5477c4	-0.05187203
236	0xbda50b49	-0.08058793
237	0xbdd110c6	-0.102082774
238	0xbda79289	-0.08182246
239	0x3d4153d3	0.04719908
240	0xbc1ace11	-0.009448544
241	0xbc9a66d0	-0.018847853
242	0xbd2f4a9d	-0.042795766
243	0xbd9a39a4	-0.07530525
244	0xbb0908c0	-0.0020909756
245	0xbd83d260	-0.0643661
246	0x3cd5bce4	0.026091047
247	0xbd3bdf40	-0.045867205
248	0xbd1a763f	-0.037710425
249	0xbdad6b7b	-0.08467766
250	0xbd91482d	-0.070938446
251	0xbd2eceab	-0.042677563
252	0xbd2731c1	-0.040818933
253	0x3dc1779f	0.09446644
254	0x3d2d4ea8	0.04231134
255	0xbda3f0df	-0.08004927

1.fc2.bias f4 [84]
0	0x3e12a89d	0.14322133
1	0xbdc5ee69	-0.09664614
2	0x3dc28eaa	0.09499867
3	0x3dd3884b	0.1032873
4	0x3d11d40c	0.035602614
5	0x3dc06d4c	0.09395847
6	0xbdaf2db7	-0.08553641
7	0x3d7ce0e6	0.061737917
8	0x3c993034	0.018699743
9	0xbd42a6cf	-0.047522362
10	0x3d98c2dd	0.07459042
11	0x3de2dd6d	0.1107739
12	0xbc02d74b	-0.0079859
13	0xbd3458db	-0.04403005
14	0x3c3e3b71	0.011610852
15	0xbd78c5f2	-0.06073565
16	0xbb53dab5	-0.0032326404
17	0xbbb1be37	-0.0054242867
18	0x3df6034d	0.12012348
19	0x3db81d99	0.0899002
20	0xbbf161b7	-0.007366385
21	0x3cf8412f	0.03030452
22	0x3ce52a71	0.02797434
23	0x3dbc2fc4	0.09188798
24	0x3b2bc999	0.002621269
25	0xbcde3c72	-0.027128432
26	0x3daa1a88	0.08305842
27	0xba5b5c2a	-0.00083679205
28	0xbbaab2b5	-0.005209292
29	0xba2797e5	-0.00063931785
30	0xbd8127ca	-0.06306417
31	0xbc042bf6	-0.008067122
32	0xbd94aafd	-0.07259176
33	0x3d498911	0.049202982
34	0x391293cb	0.00013978702
35	0xbd5ed6eb	-0.05440418
36	0x3ddac22f	0.10681569
37	0x3e0dec38	0.13859642
38	0xbc9174cf	-0.017755894
39	0x3d9e3783	0.07725432
40	0x3c913a2d	0.017727936
41	0x3d7e54d3	0.062092613
42	0x3cfdca10	0.03098014
43	0xbdabdd38	-0.083918035
44	0x3d9ad9e1	0.07561088
45	0x3d90aff0	0.070648074
46	0xbcf68034	-0.030090429
47	0x3d5981f2	0.05310244
48	0x3d4c046d	0.04980891
49	0x3dab570a	0.08366211
50	0x3d2145b0	0.0393731
51	0x3ca4ceb0	0.020118088
52	0x3bd44e9f	0.006479099
53	0xbd779290	-0.060442507
54	0x3da8df62	0.08245732
55	0xbd297e3f	-0.041380163
56	0x3e03b79a	0.12863007
57	0xbd671776	-0.05641886
58	0x3d86c387	0.06580263
59	0x3d02e42b	0.03195588
60	0x3da1e9fd	0.07905958
61	0x3bf0b7c3	0.007346125
62	0xbcf3bd7c	-0.02975344
63	0xbd29862b	-0.04138772
64	0x3db6d2b3	0.089269064
65	0x3da217cc	0.07914695
66	0x3db29ff6	0.087219164
67	0xbd4f7057	-0.050644245
68	0x3c932df8	0.017966256
69	0xbc8622b4	-0.01637397
70	0x3ca439c1	0.02004707
71	0x3ddbcc55	0.107323326
72	0xbc48f8e5	-0.012266372
73	0xbd857e92	-0.06518282
74	0xbdb374dd	-0.08762524
75	0xbcef02f2	-0.02917621
76	0xbca33f9f	-0.019927798
77	0xbd910ef2	-0.07082929
78	0xbd8a019f	-0.067385904
79	0xbd86c9dc	-0.0658147
80	0x3d447fce	0.047973447
81	0xbd9aa752	-0.07551445
82	0xbda90c68	-0.082543194
83	0x3d27c0a9	0.04095522
